…
  data_param {
    source: "/data3/lzh/1000x224x224/raw_data_photon_dis"
    batch_size: 20
    backend: LMDB
  }
}
layer {
  name: "Data3"
  type: "Data"
  top: "Data3"
  top: "Data4"
  transform_param {
    scale: 1
  }
  data_param {
    source: "/data3/lzh/1000x224x224/raw_data_photon_flux"
    batch_size: 20
    backend: LMDB
  }
}
layer {
  name: "Data5"
  type: "Data"
  top: "Data5"
  top: "Data6"
  transform_param {
    scale: 0.00390625
  }
  data_param {
    source: "/data3/lzh/1000x224x224/raw_data_conv"
    batch_size: 20
    backend: LMDB
  }
}
layer {
  name: "Silence"
  type: "Silence"
  bottom: "Data2"
  bottom: "Data4"
  bottom: "Data6"
}
layer {
  name: "Concat1"
  type: "Concat"
  bottom: "Data1"
  bottom: "Data3"
  top: "Concat1"
}
layer {
  name: "Convolution1"
  type: "Convolution"
  bottom: "Concat1"
  top: "Convolution1"
  convolution_param {
    num_output: 32
    bias_term: true
    pad: 3
    kernel_size: 7
    stride: 2
    weight_filler {
      type: "xavier"
    }
    bias_filler {
      type: "constant"
    }
  }
}
layer {
  name: "BatchNorm1"
  type: "BatchNorm"
  bottom: "Convolution1"
  top: "Convolution1"
  param {
    lr_mult: 0
    decay_mult: 0
  }
  param {
    lr_mult: 0
    decay_mult: 0
  }
  param {
    lr_mult: 0
    decay_mult: 0
  }
  batch_norm_param {
    use_global_stats: false
  }
}
layer {
  name: "Scale1"
  type: "Scale"
  bottom: "Convolution1"
  top: "Convolution1"
  scale_param {
    bias_term: true
  }
}
layer {
  name: "ReLU1"
  type: "ReLU"
  bottom: "Convolution1"
  top: "Convolution1"
}
layer {
  name: "Convolution2"
  type: "Convolution"
  bottom: "Convolution1"
  top: "Convolution2"
  convolution_param {
    num_output: 32
    bias_term: true
    pad: 1
    kernel_size: 3
    stride: 1
    weight_filler {
      type: "xavier"
    }
    bias_filler {
      type: "constant"
    }
  }
}
layer {
  name: "BatchNorm2"
  type: "BatchNorm"
  bottom: "Convolution2"
  top: "Convolution2"
  param {
    lr_mult: 0
    decay_mult: 0
  }
  param {
    lr_mult: 0
    decay_mult: 0
  }
  param {
    lr_mult: 0
    decay_mult: 0
  }
  batch_norm_param {
    use_global_stats: false
  }
}
layer {
  name: "Scale2"
  type: "Scale"
  bottom: "Convolution2"
  top: "Convolution2"
  scale_param {
    bias_term: true
  }
}
layer {
  name: "ReLU2"
  type: "ReLU"
  bottom: "Convolution2"
  top: "Convolution2"
}
layer {
  name: "Convolution3"
  type: "Convolution"
  bottom: "Convolution2"
  top: "Convolution3"
  convolution_param {
    num_output: 32
    bias_term: true
    pad: 1
    kernel_size: 3
    stride: 1
    weight_filler {
      type: "xavier"
    }
    bias_filler {
      type: "constant"
    }
  }
}
layer {
  name: "BatchNorm3"
  type: "BatchNorm"
  bottom: "Convolution3"
  top: "Convolution3"
  param {
    lr_mult: 0
    decay_mult: 0
  }
  param {
    lr_mult: 0
    decay_mult: 0
  }
  param {
    lr_mult: 0
    decay_mult: 0
  }
  batch_norm_param {
    use_global_stats: false
  }
}
layer {
  name: "Scale3"
  type: "Scale"
  bottom: "Convolution3"
  top: "Convolution3"
  scale_param {
    bias_term: true
  }
}
layer {
  name: "Eltwise1"
  type: "Eltwise"
  bottom: "Convolution3"
  bottom: "Convolution1"
  top: "Eltwise1"
  eltwise_param {
    operation: SUM
  }
}
layer {
  name: "ReLU3"
  type: "ReLU"
  bottom: "Eltwise1"
  top: "Eltwise1"
}
layer {
  name: "Convolution4"
  type: "Convolution"
  bottom: "Eltwise1"
  top: "Convolution4"
  convolution_param {
    num_output: 32
    bias_term: true
    pad: 1
    kernel_size: 3
    stride: 1
    weight_filler {
      type: "xavier"
    }
    bias_filler {
      type: "constant"
    }
  }
}
layer {
  name: "BatchNorm4"
  type: "BatchNorm"
  bottom: "Convolution4"
  top: "Convolution4"
  param {
    lr_mult: 0
    decay_mult: 0
  }
  param {
    lr_mult: 0
    decay_mult: 0
  }
  param {
    lr_mult: 0
    decay_mult: 0
  }
  batch_norm_param {
    use_global_stats: false
  }
}
layer {
  name: "Scale4"
  type: "Scale"
  bottom: "Convolution4"
  top: "Convolution4"
  scale_param {
    bias_term: true
  }
}
layer {
  name: "ReLU4"
  type: "ReLU"
  bottom: "Convolution4"
  top: "Convolution4"
}
layer {
  name: "Convolution5"
  type: "Convolution"
  bottom: "Convolution4"
  top: "Convolution5"
  convolution_param {
    num_output: 32
    bias_term: true
    pad: 1
    kernel_size: 3
    stride: 1
    weight_filler {
      type: "xavier"
    }
    bias_filler {
      type: "constant"
    }
  }
}
layer {
  name: "BatchNorm5"
  type: "BatchNorm"
  bottom: "Convolution5"
  top: "Convolution5"
  param {
    lr_mult: 0
    decay_mult: 0
  }
  param {
    lr_mult: 0
    decay_mult: 0
  }
  param {
    lr_mult: 0
    decay_mult: 0
  }
  batch_norm_param {
    use_global_stats: false
  }
}
layer {
  name: "Scale5"
  type: "Scale"
  bottom: "Convolution5"
  top: "Convolution5"
  scale_param {
    bias_term: true
  }
}
layer {
  name: "Eltwise2"
  type: "Eltwise"
  bottom: "Convolution5"
  bottom: "Eltwise1"
  top: "Eltwise2"
  eltwise_param {
    operation: SUM
  }
}
layer {
  name: "ReLU5"
  type: "ReLU"
  bottom: "Eltwise2"
  top: "Eltwise2"
}
layer {
  name: "Convolution6"
  type: "Convolution"
  bottom: "Eltwise2"
  top: "Convolution6"
  convolution_param {
    num_output: 32
    bias_term: true
    pad: 1
    kernel_size: 3
    stride: 1
    weight_filler {
      type: "xavier"
    }
    bias_filler {
      type: "constant"
    }
  }
}
layer {
  name: "BatchNorm6"
  type: "BatchNorm"
  bottom: "Convolution6"
  top: "Convolution6"
  param {
    lr_mult: 0
    decay_mult: 0
  }
  param {
    lr_mult: 0
    decay_mult: 0
  }
  param {
    lr_mult: 0
    decay_mult: 0
  }
  batch_norm_param {
    use_global_stats: false
  }
}
layer {
  name: "Scale6"
  type: "Scale"
  bottom: "Convolution6"
  top: "Convolution6"
  scale_param {
    bias_term: true
  }
}
layer {
  name: "ReLU6"
  type: "ReLU"
  bottom: "Convolution6"
  top: "Convolution6"
}
layer {
  name: "Convolution7"
  type: "Convolution"
  bottom: "Convolution6"
  top: "Convolution7"
  convolution_param {
    num_output: 32
    bias_term: true
    pad: 1
    kernel_size: 3
    stride: 1
    weight_filler {
      type: "xavier"
    }
    bias_filler {
      type: "constant"
    }
  }
}
layer {
  name: "BatchNorm7"
  type: "BatchNorm"
  bottom: "Convolution7"
  top: "Convolution7"
  param {
    lr_mult: 0
    decay_mult: 0
  }
  param {
    lr_mult: 0
    decay_mult: 0
  }
  param {
    lr_mult: 0
    decay_mult: 0
  }
  batch_norm_param {
    use_global_stats: false
  }
}
layer {
  name: "Scale7"
  type: "Scale"
  bottom: "Convolution7"
  top: "Convolution7"
  scale_param {
    bias_term: true
  }
}
layer {
  name: "Eltwise3"
  type: "Eltwise"
  bottom: "Convolution7"
  bottom: "Eltwise2"
  top: "Eltwise3"
  eltwise_param {
    operation: SUM
  }
}
layer {
  name: "ReLU7"
  type: "ReLU"
  bottom: "Eltwise3"
  top: "Eltwise3"
}
layer {
  name: "Convolution8"
  type: "Convolution"
  bottom: "Eltwise3"
  top: "Convolution8"
  convolution_param {
    num_output: 64
    bias_term: true
    pad: 1
    kernel_size: 3
    stride: 2
    weight_filler {
      type: "xavier"
    }
    bias_filler {
      type: "constant"
    }
  }
}
layer {
  name: "BatchNorm8"
  type: "BatchNorm"
  bottom: "Convolution8"
  top: "Convolution8"
  param {
    lr_mult: 0
    decay_mult: 0
  }
  param {
    lr_mult: 0
    decay_mult: 0
  }
  param {
    lr_mult: 0
    decay_mult: 0
  }
  batch_norm_param {
    use_global_stats: false
  }
}
layer {
  name: "Scale8"
  type: "Scale"
  bottom: "Convolution8"
  top: "Convolution8"
  scale_param {
    bias_term: true
  }
}
layer {
  name: "ReLU8"
  type: "ReLU"
  bottom: "Convolution8"
  top: "Convolution8"
}
layer {
  name: "Convolution9"
  type: "Convolution"
  bottom: "Convolution8"
  top: "Convolution9"
  convolution_param {
    num_output: 64
    bias_term: true
    pad: 1
    kernel_size: 3
    stride: 1
    weight_filler {
      type: "xavier"
    }
    bias_filler {
      type: "constant"
    }
  }
}
layer {
  name: "BatchNorm9"
  type: "BatchNorm"
  bottom: "Convolution9"
  top: "Convolution9"
  param {
    lr_mult: 0
    decay_mult: 0
  }
  param {
    lr_mult: 0
    decay_mult: 0
  }
  param {
    lr_mult: 0
    decay_mult: 0
  }
  batch_norm_param {
    use_global_stats: false
  }
}
layer {
  name: "Scale9"
  type: "Scale"
  bottom: "Convolution9"
  top: "Convolution9"
  scale_param {
    bias_term: true
  }
}
layer {
  name: "Convolution10"
  type: "Convolution"
  bottom: "Eltwise3"
  top: "Convolution10"
  convolution_param {
    num_output: 64
    bias_term: true
    pad: 0
    kernel_size: 1
    stride: 2
    weight_filler {
      type: "xavier"
    }
    bias_filler {
      type: "constant"
    }
  }
}
layer {
  name: "BatchNorm10"
  type: "BatchNorm"
  bottom: "Convolution10"
  top: "Convolution10"
  param {
    lr_mult: 0
    decay_mult: 0
  }
  param {
    lr_mult: 0
    decay_mult: 0
  }
  param {
    lr_mult: 0
    decay_mult: 0
  }
  batch_norm_param {
    use_global_stats: false
  }
}
layer {
  name: "Scale10"
  type: "Scale"
  bottom: "Convolution10"
  top: "Convolution10"
  scale_param {
    bias_term: true
  }
}
layer {
  name: "Eltwise4"
  type: "Eltwise"
  bottom: "Convolution9"
  bottom: "Convolution10"
  top: "Eltwise4"
  eltwise_param {
    operation: SUM
  }
}
layer {
  name: "ReLU9"
  type: "ReLU"
  bottom: "Eltwise4"
  top: "Eltwise4"
}
layer {
  name: "Convolution11"
  type: "Convolution"
  bottom: "Eltwise4"
  top: "Convolution11"
  convolution_param {
    num_output: 64
    bias_term: true
    pad: 1
    kernel_size: 3
    stride: 1
    weight_filler {
      type: "xavier"
    }
    bias_filler {
      type: "constant"
    }
  }
}
layer {
  name: "BatchNorm11"
  type: "BatchNorm"
  bottom: "Convolution11"
  top: "Convolution11"
  param {
    lr_mult: 0
    decay_mult: 0
  }
  param {
    lr_mult: 0
    decay_mult: 0
  }
  param {
    lr_mult: 0
    decay_mult: 0
  }
  batch_norm_param {
    use_global_stats: false
  }
}
layer {
  name: "Scale11"
  type: "Scale"
  bottom: "Convolution11"
  top: "Convolution11"
  scale_param {
    bias_term: true
  }
}
layer {
  name: "ReLU10"
  type: "ReLU"
  bottom: "Convolution11"
  top: "Convolution11"
}
layer {
  name: "Convolution12"
  type: "Convolution"
  bottom: "Convolution11"
  top: "Convolution12"
  convolution_param {
    num_output: 64
    bias_term: true
    pad: 1
    kernel_size: 3
    stride: 1
    weight_filler {
      type: "xavier"
    }
    bias_filler {
      type: "constant"
    }
  }
}
layer {
  name: "BatchNorm12"
  type: "BatchNorm"
  bottom: "Convolution12"
  top: "Convolution12"
  param {
    lr_mult: 0
    decay_mult: 0
  }
  param {
    lr_mult: 0
    decay_mult: 0
  }
  param {
    lr_mult: 0
    decay_mult: 0
  }
  batch_norm_param {
    use_global_stats: false
  }
}
layer {
  name: "Scale12"
  type: "Scale"
  bottom: "Convolution12"
  top: "Convolution12"
  scale_param {
    bias_term: true
  }
}
layer {
  name: "Eltwise5"
  type: "Eltwise"
  bottom: "Convolution12"
  bottom: "Eltwise4"
  top: "Eltwise5"
  eltwise_param {
    operation: SUM
  }
}
layer {
  name: "ReLU11"
  type: "ReLU"
  bottom: "Eltwise5"
  top: "Eltwise5"
}
layer {
  name: "Convolution13"
  type: "Convolution"
  bottom: "Eltwise5"
  top: "Convolution13"
  convolution_param {
    num_output: 64
    bias_term: true
    pad: 1
    kernel_size: 3
    stride: 1
    weight_filler {
      type: "xavier"
    }
    bias_filler {
      type: "constant"
    }
  }
}
layer {
  name: "BatchNorm13"
  type: "BatchNorm"
  bottom: "Convolution13"
  top: "Convolution13"
  param {
    lr_mult: 0
    decay_mult: 0
  }
  param {
    lr_mult: 0
    decay_mult: 0
  }
  param {
    lr_mult: 0
    decay_mult: 0
  }
  batch_norm_param {
    use_global_stats: false
  }
}
layer {
  name: "Scale13"
  type: "Scale"
  bottom: "Convolution13"
  top: "Convolution13"
  scale_param {
    bias_term: true
  }
}
layer {
  name: "ReLU12"
  type: "ReLU"
  bottom: "Convolution13"
  top: "Convolution13"
}
layer {
  name: "Convolution14"
  type: "Convolution"
  bottom: "Convolution13"
  top: "Convolution14"
  convolution_param {
    num_output: 64
    bias_term: true
    pad: 1
    kernel_size: 3
    stride: 1
    weight_filler {
      type: "xavier"
    }
    bias_filler {
      type: "constant"
    }
  }
}
layer {
  name: "BatchNorm14"
  type: "BatchNorm"
  bottom: "Convolution14"
  top: "Convolution14"
  param {
    lr_mult: 0
    decay_mult: 0
  }
  param {
    lr_mult: 0
    decay_mult: 0
  }
  param {
    lr_mult: 0
    decay_mult: 0
  }
  batch_norm_param {
    use_global_stats: false
  }
}
layer {
  name: "Scale14"
  type: "Scale"
  bottom: "Convolution14"
  top: "Convolution14"
  scale_param {
    bias_term: true
  }
}
layer {
  name: "Eltwise6"
  type: "Eltwise"
  bottom: "Convolution14"
  bottom: "Eltwise5"
  top: "Eltwise6"
  eltwise_param {
    operation: SUM
  }
}
layer {
  name: "ReLU13"
  type: "ReLU"
  bottom: "Eltwise6"
  top: "Eltwise6"
}
layer {
  name: "StageLink1"
  type: "Convolution"
  bottom: "Eltwise6"
  top: "StageLink1"
  convolution_param {
    num_output: 128
    bias_term: true
    pad: 0
    kernel_size: 1
    stride: 1
    weight_filler {
      type: "xavier"
    }
    bias_filler {
      type: "constant"
    }
  }
}
layer {
  name: "StageLink1_BN"
  type: "BatchNorm"
  bottom: "StageLink1"
  top: "StageLink1"
  param {
    lr_mult: 0
    decay_mult: 0
  }
  param {
    lr_mult: 0
    decay_mult: 0
  }
  param {
    lr_mult: 0
    decay_mult: 0
  }
  batch_norm_param {
    use_global_stats: false
  }
}
layer {
  name: "StageLink1_Scale"
  type: "Scale"
  bottom: "StageLink1"
  top: "StageLink1"
  scale_param {
    bias_term: true
  }
}
layer {
  name: "StageLink0"
  type: "Convolution"
  bottom: "Eltwise3"
  top: "StageLink0"
  convolution_param {
    num_output: 64
    bias_term: true
    pad: 0
    kernel_size: 1
    stride: 1
    weight_filler {
      type: "xavier"
    }
    bias_filler {
      type: "constant"
    }
  }
}
layer {
  name: "StageLink0_BN"
  type: "BatchNorm"
  bottom: "StageLink0"
  top: "StageLink0"
  param {
    lr_mult: 0
    decay_mult: 0
  }
  param {
    lr_mult: 0
    decay_mult: 0
  }
  param {
    lr_mult: 0
    decay_mult: 0
  }
  batch_norm_param {
    use_global_stats: false
  }
}
layer {
  name: "StageLink0_Scale"
  type: "Scale"
  bottom: "StageLink0"
  top: "StageLink0"
  scale_param {
    bias_term: true
  }
}
layer {
  name: "Convolution15"
  type: "Convolution"
  bottom: "Eltwise6"
  top: "Convolution15"
  convolution_param {
    num_output: 128
    bias_term: true
    pad: 1
    kernel_size: 3
    stride: 2
    weight_filler {
      type: "xavier"
    }
    bias_filler {
      type: "constant"
    }
  }
}
layer {
  name: "BatchNorm15"
  type: "BatchNorm"
  bottom: "Convolution15"
  top: "Convolution15"
  param {
    lr_mult: 0
    decay_mult: 0
  }
  param {
    lr_mult: 0
    decay_mult: 0
  }
  param {
    lr_mult: 0
    decay_mult: 0
  }
  batch_norm_param {
    use_global_stats: false
  }
}
layer {
  name: "Scale15"
  type: "Scale"
  bottom: "Convolution15"
  top: "Convolution15"
  scale_param {
    bias_term: true
  }
}
layer {
  name: "ReLU14"
  type: "ReLU"
  bottom: "Convolution15"
  top: "Convolution15"
}
layer {
  name: "Convolution16"
  type: "Convolution"
  bottom: "Convolution15"
  top: "Convolution16"
  convolution_param {
    num_output: 128
    bias_term: true
    pad: 1
    kernel_size: 3
    stride: 1
    weight_filler {
      type: "xavier"
    }
    bias_filler {
      type: "constant"
    }
  }
}
layer {
  name: "BatchNorm16"
  type: "BatchNorm"
  bottom: "Convolution16"
  top: "Convolution16"
  param {
    lr_mult: 0
    decay_mult: 0
  }
  param {
    lr_mult: 0
    decay_mult: 0
  }
  param {
    lr_mult: 0
    decay_mult: 0
  }
  batch_norm_param {
    use_global_stats: false
  }
}
layer {
  name: "Scale16"
  type: "Scale"
  bottom: "Convolution16"
  top: "Convolution16"
  scale_param {
    bias_term: true
  }
}
layer {
  name: "Convolution17"
  type: "Convolution"
  bottom: "Eltwise6"
  top: "Convolution17"
  convolution_param {
    num_output: 128
    bias_term: true
    pad: 0
    kernel_size: 1
    stride: 2
    weight_filler {
      type: "xavier"
    }
    bias_filler {
      type: "constant"
    }
  }
}
layer {
  name: "BatchNorm17"
  type: "BatchNorm"
  bottom: "Convolution17"
  top: "Convolution17"
  param {
    lr_mult: 0
    decay_mult: 0
  }
  param {
    lr_mult: 0
    decay_mult: 0
  }
  param {
    lr_mult: 0
    decay_mult: 0
  }
  batch_norm_param {
    use_global_stats: false
  }
}
layer {
  name: "Scale17"
  type: "Scale"
  bottom: "Convolution17"
  top: "Convolution17"
  scale_param {
    bias_term: true
  }
}
layer {
  name: "Eltwise7"
  type: "Eltwise"
  bottom: "Convolution16"
  bottom: "Convolution17"
  top: "Eltwise7"
  eltwise_param {
    operation: SUM
  }
}
layer {
  name: "ReLU15"
  type: "ReLU"
  bottom: "Eltwise7"
  top: "Eltwise7"
}
layer {
  name: "Convolution18"
  type: "Convolution"
  bottom: "Eltwise7"
  top: "Convolution18"
  convolution_param {
    num_output: 128
    bias_term: true
    pad: 1
    kernel_size: 3
    stride: 1
    weight_filler {
      type: "xavier"
    }
    bias_filler {
      type: "constant"
    }
  }
}
layer {
  name: "BatchNorm18"
  type: "BatchNorm"
  bottom: "Convolution18"
  top: "Convolution18"
  param {
    lr_mult: 0
    decay_mult: 0
  }
  param {
    lr_mult: 0
    decay_mult: 0
  }
  param {
    lr_mult: 0
    decay_mult: 0
  }
  batch_norm_param {
    use_global_stats: false
  }
}
layer {
  name: "Scale18"
  type: "Scale"
  bottom: "Convolution18"
  top: "Convolution18"
  scale_param {
    bias_term: true
  }
}
layer {
  name: "ReLU16"
  type: "ReLU"
  bottom: "Convolution18"
  top: "Convolution18"
}
layer {
  name: "Convolution19"
  type: "Convolution"
  bottom: "Convolution18"
  top: "Convolution19"
  convolution_param {
    num_output: 128
    bias_term: true
    pad: 1
    kernel_size: 3
    stride: 1
    weight_filler {
      type: "xavier"
    }
    bias_filler {
      type: "constant"
    }
  }
}
layer {
  name: "BatchNorm19"
  type: "BatchNorm"
  bottom: "Convolution19"
  top: "Convolution19"
  param {
    lr_mult: 0
    decay_mult: 0
  }
  param {
    lr_mult: 0
    decay_mult: 0
  }
  param {
    lr_mult: 0
    decay_mult: 0
  }
  batch_norm_param {
    use_global_stats: false
  }
}
layer {
  name: "Scale19"
  type: "Scale"
  bottom: "Convolution19"
  top: "Convolution19"
  scale_param {
    bias_term: true
  }
}
layer {
  name: "Eltwise8"
  type: "Eltwise"
  bottom: "Convolution19"
  bottom: "Eltwise7"
  top: "Eltwise8"
  eltwise_param {
    operation: SUM
  }
}
layer {
  name: "ReLU17"
  type: "ReLU"
  bottom: "Eltwise8"
  top: "Eltwise8"
}
layer {
  name: "Convolution20"
  type: "Convolution"
  bottom: "Eltwise8"
  top: "Convolution20"
  convolution_param {
    num_output: 128
    bias_term: true
    pad: 1
    kernel_size: 3
    stride: 1
    weight_filler {
      type: "xavier"
    }
    bias_filler {
      type: "constant"
    }
  }
}
layer {
  name: "BatchNorm20"
  type: "BatchNorm"
  bottom: "Convolution20"
  top: "Convolution20"
  param {
    lr_mult: 0
    decay_mult: 0
  }
  param {
    lr_mult: 0
    decay_mult: 0
  }
  param {
    lr_mult: 0
    decay_mult: 0
  }
  batch_norm_param {
    use_global_stats: false
  }
}
layer {
  name: "Scale20"
  type: "Scale"
  bottom: "Convolution20"
  top: "Convolution20"
  scale_param {
    bias_term: true
  }
}
layer {
  name: "ReLU18"
  type: "ReLU"
  bottom: "Convolution20"
  top: "Convolution20"
}
layer {
  name: "Convolution21"
  type: "Convolution"
  bottom: "Convolution20"
  top: "Convolution21"
  convolution_param {
    num_output: 128
    bias_term: true
    pad: 1
    kernel_size: 3
    stride: 1
    weight_filler {
      type: "xavier"
    }
    bias_filler {
      type: "constant"
    }
  }
}
layer {
  name: "BatchNorm21"
  type: "BatchNorm"
  bottom: "Convolution21"
  top: "Convolution21"
  param {
    lr_mult: 0
    decay_mult: 0
  }
  param {
    lr_mult: 0
    decay_mult: 0
  }
  param {
    lr_mult: 0
    decay_mult: 0
  }
  batch_norm_param {
    use_global_stats: false
  }
}
layer {
  name: "Scale21"
  type: "Scale"
  bottom: "Convolution21"
  top: "Convolution21"
  scale_param {
    bias_term: true
  }
}
layer {
  name: "Eltwise9"
  type: "Eltwise"
  bottom: "Convolution21"
  bottom: "Eltwise8"
  top: "Eltwise9"
  eltwise_param {
    operation: SUM
  }
}
layer {
  name: "ReLU19"
  type: "ReLU"
  bottom: "Eltwise9"
  top: "Eltwise9"
}
layer {
  name: "Deconvolution1"
  type: "Deconvolution"
  bottom: "Eltwise9"
  top: "Deconvolution1"
  convolution_param {
    num_output: 128
    bias_term: true
    pad: 0
    kernel_size: 2
    stride: 2
    weight_filler {
      type: "xavier"
    }
    bias_filler {
      type: "constant"
    }
  }
}
layer {
  name: "BatchNorm22"
  type: "BatchNorm"
  bottom: "Deconvolution1"
  top: "Deconvolution1"
  param {
    lr_mult: 0
    decay_mult: 0
  }
  param {
    lr_mult: 0
    decay_mult: 0
  }
  param {
    lr_mult: 0
    decay_mult: 0
  }
  batch_norm_param {
    use_global_stats: false
  }
}
layer {
  name: "Scale22"
  type: "Scale"
  bottom: "Deconvolution1"
  top: "Deconvolution1"
  scale_param {
    bias_term: true
  }
}
layer {
  name: "Eltwise10"
  type: "Eltwise"
  bottom: "Deconvolution1"
  bottom: "StageLink1"
  top: "Eltwise10"
  eltwise_param {
    operation: SUM
  }
}
layer {
  name: "ReLU20"
  type: "ReLU"
  bottom: "Eltwise10"
  top: "Eltwise10"
}
layer {
  name: "Deconvolution2"
  type: "Deconvolution"
  bottom: "Eltwise10"
  top: "Deconvolution2"
  convolution_param {
    num_output: 64
    bias_term: true
    pad: 0
    kernel_size: 2
    stride: 2
    weight_filler {
      type: "xavier"
    }
    bias_filler {
      type: "constant"
    }
  }
}
layer {
  name: "BatchNorm23"
  type: "BatchNorm"
  bottom: "Deconvolution2"
  top: "Deconvolution2"
  param {
    lr_mult: 0
    decay_mult: 0
  }
  param {
    lr_mult: 0
    decay_mult: 0
  }
  param {
    lr_mult: 0
    decay_mult: 0
  }
  batch_norm_param {
    use_global_stats: false
  }
}
layer {
  name: "Scale23"
  type: "Scale"
  bottom: "Deconvolution2"
  top: "Deconvolution2"
  scale_param {
    bias_term: true
  }
}
layer {
  name: "Eltwise11"
  type: "Eltwise"
  bottom: "Deconvolution2"
  bottom: "StageLink0"
  top: "Eltwise11"
  eltwise_param {
    operation: SUM
  }
}
layer {
  name: "ReLU21"
  type: "ReLU"
  bottom: "Eltwise11"
  top: "Eltwise11"
}
layer {
  name: "Deconvolution3"
  type: "Deconvolution"
  bottom: "Eltwise11"
  top: "Deconvolution3"
  convolution_param {
    num_output: 32
    bias_term: true
    pad: 0
    kernel_size: 2
    stride: 2
    weight_filler {
      type: "xavier"
    }
    bias_filler {
      type: "constant"
    }
  }
}
layer {
  name: "BatchNorm24"
  type: "BatchNorm"
  bottom: "Deconvolution3"
  top: "Deconvolution3"
  param {
    lr_mult: 0
    decay_mult: 0
  }
  param {
    lr_mult: 0
    decay_mult: 0
  }
  param {
    lr_mult: 0
    decay_mult: 0
  }
  batch_norm_param {
    use_global_stats: false
  }
}
layer {
  name: "Scale24"
  type: "Scale"
  bottom: "Deconvolution3"
  top: "Deconvolution3"
  scale_param {
    bias_term: true
  }
}
layer {
  name: "ReLU22"
  type: "ReLU"
  bottom: "Deconvolution3"
  top: "Deconvolution3"
}
layer {
  name: "Convolution22"
  type: "Convolution"
  bottom: "Deconvolution3"
  top: "Convolution22"
  convolution_param {
    num_output: 1
    bias_term: true
    pad: 0
    kernel_size: 1
    stride: 1
    weight_filler {
      type: "xavier"
    }
    bias_filler {
      type: "constant"
    }
  }
}
layer {
  name: "ReLU23"
  type: "ReLU"
  bottom: "Convolution22"
  top: "Convolution22"
}
layer {
  name: "Loss"
  type: "EuclideanLoss"
  bottom: "Convolution22"
  bottom: "Data5"
  top: "Loss"
  propagate_down: true
  propagate_down: false
}
I0313 21:41:56.107782 22044 layer_factory.hpp:77] Creating layer Data1
I0313 21:41:56.108011 22044 db_lmdb.cpp:35] Opened lmdb /data3/lzh/1000x224x224/raw_data_photon_dis
I0313 21:41:56.108067 22044 net.cpp:84] Creating Layer Data1
I0313 21:41:56.108088 22044 net.cpp:380] Data1 -> Data1
I0313 21:41:56.108119 22044 net.cpp:380] Data1 -> Data2
I0313 21:41:56.119701 22044 data_layer.cpp:45] output data size: 20,20,224,224
I0313 21:41:56.360994 22044 net.cpp:122] Setting up Data1
I0313 21:41:56.361101 22044 net.cpp:129] Top shape: 20 20 224 224 (20070400)
I0313 21:41:56.361130 22044 net.cpp:129] Top shape: 20 (20)
I0313 21:41:56.361148 22044 net.cpp:137] Memory required for data: 80281680
I0313 21:41:56.361178 22044 layer_factory.hpp:77] Creating layer Data3
I0313 21:41:56.361351 22044 db_lmdb.cpp:35] Opened lmdb /data3/lzh/1000x224x224/raw_data_photon_flux
I0313 21:41:56.361404 22044 net.cpp:84] Creating Layer Data3
I0313 21:41:56.361429 22044 net.cpp:380] Data3 -> Data3
I0313 21:41:56.361465 22044 net.cpp:380] Data3 -> Data4
I0313 21:41:56.368154 22044 data_layer.cpp:45] output data size: 20,20,224,224
I0313 21:41:56.635946 22044 net.cpp:122] Setting up Data3
I0313 21:41:56.636049 22044 net.cpp:129] Top shape: 20 20 224 224 (20070400)
I0313 21:41:56.636065 22044 net.cpp:129] Top shape: 20 (20)
I0313 21:41:56.636075 22044 net.cpp:137] Memory required for data: 160563360
I0313 21:41:56.636096 22044 layer_factory.hpp:77] Creating layer Data5
I0313 21:41:56.636313 22044 db_lmdb.cpp:35] Opened lmdb /data3/lzh/1000x224x224/raw_data_conv
I0313 21:41:56.636373 22044 net.cpp:84] Creating Layer Data5
I0313 21:41:56.636389 22044 net.cpp:380] Data5 -> Data5
I0313 21:41:56.636416 22044 net.cpp:380] Data5 -> Data6
I0313 21:41:56.637341 22044 data_layer.cpp:45] output data size: 20,1,224,224
I0313 21:41:56.677522 22044 net.cpp:122] Setting up Data5
I0313 21:41:56.677599 22044 net.cpp:129] Top shape: 20 1 224 224 (1003520)
I0313 21:41:56.677620 22044 net.cpp:129] Top shape: 20 (20)
I0313 21:41:56.677634 22044 net.cpp:137] Memory required for data: 164577520
I0313 21:41:56.677651 22044 layer_factory.hpp:77] Creating layer Silence
I0313 21:41:56.677690 22044 net.cpp:84] Creating Layer Silence
I0313 21:41:56.677711 22044 net.cpp:406] Silence <- Data2
I0313 21:41:56.677774 22044 net.cpp:406] Silence <- Data4
I0313 21:41:56.677791 22044 net.cpp:406] Silence <- Data6
I0313 21:41:56.677806 22044 net.cpp:122] Setting up Silence
I0313 21:41:56.677819 22044 net.cpp:137] Memory required for data: 164577520
I0313 21:41:56.677830 22044 layer_factory.hpp:77] Creating layer Concat1
I0313 21:41:56.677852 22044 net.cpp:84] Creating Layer Concat1
I0313 21:41:56.677865 22044 net.cpp:406] Concat1 <- Data1
I0313 21:41:56.677880 22044 net.cpp:406] Concat1 <- Data3
I0313 21:41:56.677896 22044 net.cpp:380] Concat1 -> Concat1
I0313 21:41:56.677985 22044 net.cpp:122] Setting up Concat1
I0313 21:41:56.678006 22044 net.cpp:129] Top shape: 20 40 224 224 (40140800)
I0313 21:41:56.678020 22044 net.cpp:137] Memory required for data: 325140720
I0313 21:41:56.678042 22044 layer_factory.hpp:77] Creating layer Convolution1
I0313 21:41:56.678095 22044 net.cpp:84] Creating Layer Convolution1
I0313 21:41:56.678112 22044 net.cpp:406] Convolution1 <- Concat1
I0313 21:41:56.678129 22044 net.cpp:380] Convolution1 -> Convolution1
I0313 21:41:56.686087 22044 net.cpp:122] Setting up Convolution1
I0313 21:41:56.686161 22044 net.cpp:129] Top shape: 20 32 112 112 (8028160)
I0313 21:41:56.686180 22044 net.cpp:137] Memory required for data: 357253360
I0313 21:41:56.686218 22044 layer_factory.hpp:77] Creating layer BatchNorm1
I0313 21:41:56.686269 22044 net.cpp:84] Creating Layer BatchNorm1
I0313 21:41:56.686287 22044 net.cpp:406] BatchNorm1 <- Convolution1
I0313 21:41:56.686360 22044 net.cpp:367] BatchNorm1 -> Convolution1 (in-place)
I0313 21:41:56.686893 22044 net.cpp:122] Setting up BatchNorm1
I0313 21:41:56.686925 22044 net.cpp:129] Top shape: 20 32 112 112 (8028160)
I0313 21:41:56.686944 22044 net.cpp:137] Memory required for data: 389366000
I0313 21:41:56.686977 22044 layer_factory.hpp:77] Creating layer Scale1
I0313 21:41:56.687016 22044 net.cpp:84] Creating Layer Scale1
I0313 21:41:56.687032 22044 net.cpp:406] Scale1 <- Convolution1
I0313 21:41:56.687048 22044 net.cpp:367] Scale1 -> Convolution1 (in-place)
I0313 21:41:56.687317 22044 layer_factory.hpp:77] Creating layer Scale1
I0313 21:41:56.687620 22044 net.cpp:122] Setting up Scale1
I0313 21:41:56.687647 22044 net.cpp:129] Top shape: 20 32 112 112 (8028160)
I0313 21:41:56.687661 22044 net.cpp:137] Memory required for data: 421478640
I0313 21:41:56.687680 22044 layer_factory.hpp:77] Creating layer ReLU1
I0313 21:41:56.687700 22044 net.cpp:84] Creating Layer ReLU1
I0313 21:41:56.687718 22044 net.cpp:406] ReLU1 <- Convolution1
I0313 21:41:56.687743 22044 net.cpp:367] ReLU1 -> Convolution1 (in-place)
I0313 21:41:56.687763 22044 net.cpp:122] Setting up ReLU1
I0313 21:41:56.687778 22044 net.cpp:129] Top shape: 20 32 112 112 (8028160)
I0313 21:41:56.687790 22044 net.cpp:137] Memory required for data: 453591280
I0313 21:41:56.687811 22044 layer_factory.hpp:77] Creating layer Convolution1_ReLU1_0_split
I0313 21:41:56.687837 22044 net.cpp:84] Creating Layer Convolution1_ReLU1_0_split
I0313 21:41:56.687851 22044 net.cpp:406] Convolution1_ReLU1_0_split <- Convolution1
I0313 21:41:56.687875 22044 net.cpp:380] Convolution1_ReLU1_0_split -> Convolution1_ReLU1_0_split_0
I0313 21:41:56.687897 22044 net.cpp:380] Convolution1_ReLU1_0_split -> Convolution1_ReLU1_0_split_1
I0313 21:41:56.687965 22044 net.cpp:122] Setting up Convolution1_ReLU1_0_split
I0313 21:41:56.687984 22044 net.cpp:129] Top shape: 20 32 112 112 (8028160)
I0313 21:41:56.687999 22044 net.cpp:129] Top shape: 20 32 112 112 (8028160)
I0313 21:41:56.688011 22044 net.cpp:137] Memory required for data: 517816560
I0313 21:41:56.688024 22044 layer_factory.hpp:77] Creating layer Convolution2
I0313 21:41:56.688071 22044 net.cpp:84] Creating Layer Convolution2
I0313 21:41:56.688088 22044 net.cpp:406] Convolution2 <- Convolution1_ReLU1_0_split_0
I0313 21:41:56.688118 22044 net.cpp:380] Convolution2 -> Convolution2
I0313 21:41:56.690379 22044 net.cpp:122] Setting up Convolution2
I0313 21:41:56.690466 22044 net.cpp:129] Top shape: 20 32 112 112 (8028160)
I0313 21:41:56.690482 22044 net.cpp:137] Memory required for data: 549929200
I0313 21:41:56.690505 22044 layer_factory.hpp:77] Creating layer BatchNorm2
I0313 21:41:56.690538 22044 net.cpp:84] Creating Layer BatchNorm2
I0313 21:41:56.690553 22044 net.cpp:406] BatchNorm2 <- Convolution2
I0313 21:41:56.690569 22044 net.cpp:367] BatchNorm2 -> Convolution2 (in-place)
I0313 21:41:56.691010 22044 net.cpp:122] Setting up BatchNorm2
I0313 21:41:56.691036 22044 net.cpp:129] Top shape: 20 32 112 112 (8028160)
I0313 21:41:56.691051 22044 net.cpp:137] Memory required for data: 582041840
I0313 21:41:56.691072 22044 layer_factory.hpp:77] Creating layer Scale2
I0313 21:41:56.691103 22044 net.cpp:84] Creating Layer Scale2
I0313 21:41:56.691118 22044 net.cpp:406] Scale2 <- Convolution2
I0313 21:41:56.691154 22044 net.cpp:367] Scale2 -> Convolution2 (in-place)
I0313 21:41:56.691414 22044 layer_factory.hpp:77] Creating layer Scale2
I0313 21:41:56.691707 22044 net.cpp:122] Setting up Scale2
I0313 21:41:56.691735 22044 net.cpp:129] Top shape: 20 32 112 112 (8028160)
I0313 21:41:56.691751 22044 net.cpp:137] Memory required for data: 614154480
I0313 21:41:56.691782 22044 layer_factory.hpp:77] Creating layer ReLU2
I0313 21:41:56.691803 22044 net.cpp:84] Creating Layer ReLU2
I0313 21:41:56.691817 22044 net.cpp:406] ReLU2 <- Convolution2
I0313 21:41:56.691843 22044 net.cpp:367] ReLU2 -> Convolution2 (in-place)
I0313 21:41:56.691862 22044 net.cpp:122] Setting up ReLU2
I0313 21:41:56.691877 22044 net.cpp:129] Top shape: 20 32 112 112 (8028160)
I0313 21:41:56.691925 22044 net.cpp:137] Memory required for data: 646267120
I0313 21:41:56.691939 22044 layer_factory.hpp:77] Creating layer Convolution3
I0313 21:41:56.691972 22044 net.cpp:84] Creating Layer Convolution3
I0313 21:41:56.691987 22044 net.cpp:406] Convolution3 <- Convolution2
I0313 21:41:56.692005 22044 net.cpp:380] Convolution3 -> Convolution3
I0313 21:41:56.692526 22044 net.cpp:122] Setting up Convolution3
I0313 21:41:56.692553 22044 net.cpp:129] Top shape: 20 32 112 112 (8028160)
I0313 21:41:56.692566 22044 net.cpp:137] Memory required for data: 678379760
I0313 21:41:56.692584 22044 layer_factory.hpp:77] Creating layer BatchNorm3
I0313 21:41:56.692610 22044 net.cpp:84] Creating Layer BatchNorm3
I0313 21:41:56.692625 22044 net.cpp:406] BatchNorm3 <- Convolution3
I0313 21:41:56.692641 22044 net.cpp:367] BatchNorm3 -> Convolution3 (in-place)
I0313 21:41:56.693014 22044 net.cpp:122] Setting up BatchNorm3
I0313 21:41:56.693038 22044 net.cpp:129] Top shape: 20 32 112 112 (8028160)
I0313 21:41:56.693053 22044 net.cpp:137] Memory required for data: 710492400
I0313 21:41:56.693081 22044 layer_factory.hpp:77] Creating layer Scale3
I0313 21:41:56.693117 22044 net.cpp:84] Creating Layer Scale3
I0313 21:41:56.693136 22044 net.cpp:406] Scale3 <- Convolution3
I0313 21:41:56.693161 22044 net.cpp:367] Scale3 -> Convolution3 (in-place)
I0313 21:41:56.693240 22044 layer_factory.hpp:77] Creating layer Scale3
I0313 21:41:56.693495 22044 net.cpp:122] Setting up Scale3
I0313 21:41:56.693519 22044 net.cpp:129] Top shape: 20 32 112 112 (8028160)
I0313 21:41:56.693533 22044 net.cpp:137] Memory required for data: 742605040
I0313 21:41:56.693560 22044 layer_factory.hpp:77] Creating layer Eltwise1
I0313 21:41:56.693581 22044 net.cpp:84] Creating Layer Eltwise1
I0313 21:41:56.693595 22044 net.cpp:406] Eltwise1 <- Convolution3
I0313 21:41:56.693610 22044 net.cpp:406] Eltwise1 <- Convolution1_ReLU1_0_split_1
I0313 21:41:56.693626 22044 net.cpp:380] Eltwise1 -> Eltwise1
I0313 21:41:56.693692 22044 net.cpp:122] Setting up Eltwise1
I0313 21:41:56.693712 22044 net.cpp:129] Top shape: 20 32 112 112 (8028160)
I0313 21:41:56.693724 22044 net.cpp:137] Memory required for data: 774717680
I0313 21:41:56.693737 22044 layer_factory.hpp:77] Creating layer ReLU3
I0313 21:41:56.693761 22044 net.cpp:84] Creating Layer ReLU3
I0313 21:41:56.693775 22044 net.cpp:406] ReLU3 <- Eltwise1
I0313 21:41:56.693790 22044 net.cpp:367] ReLU3 -> Eltwise1 (in-place)
I0313 21:41:56.693809 22044 net.cpp:122] Setting up ReLU3
I0313 21:41:56.693825 22044 net.cpp:129] Top shape: 20 32 112 112 (8028160)
I0313 21:41:56.693836 22044 net.cpp:137] Memory required for data: 806830320
I0313 21:41:56.693848 22044 layer_factory.hpp:77] Creating layer Eltwise1_ReLU3_0_split
I0313 21:41:56.693866 22044 net.cpp:84] Creating Layer Eltwise1_ReLU3_0_split
I0313 21:41:56.693878 22044 net.cpp:406] Eltwise1_ReLU3_0_split <- Eltwise1
I0313 21:41:56.693902 22044 net.cpp:380] Eltwise1_ReLU3_0_split -> Eltwise1_ReLU3_0_split_0
I0313 21:41:56.693922 22044 net.cpp:380] Eltwise1_ReLU3_0_split -> Eltwise1_ReLU3_0_split_1
I0313 21:41:56.693981 22044 net.cpp:122] Setting up Eltwise1_ReLU3_0_split
I0313 21:41:56.693998 22044 net.cpp:129] Top shape: 20 32 112 112 (8028160)
I0313 21:41:56.694015 22044 net.cpp:129] Top shape: 20 32 112 112 (8028160)
I0313 21:41:56.694027 22044 net.cpp:137] Memory required for data: 871055600
I0313 21:41:56.694039 22044 layer_factory.hpp:77] Creating layer Convolution4
I0313 21:41:56.694077 22044 net.cpp:84] Creating Layer Convolution4
I0313 21:41:56.694093 22044 net.cpp:406] Convolution4 <- Eltwise1_ReLU3_0_split_0
I0313 21:41:56.694111 22044 net.cpp:380] Convolution4 -> Convolution4
I0313 21:41:56.694641 22044 net.cpp:122] Setting up Convolution4
I0313 21:41:56.694664 22044 net.cpp:129] Top shape: 20 32 112 112 (8028160)
I0313 21:41:56.694676 22044 net.cpp:137] Memory required for data: 903168240
I0313 21:41:56.694701 22044 layer_factory.hpp:77] Creating layer BatchNorm4
I0313 21:41:56.694727 22044 net.cpp:84] Creating Layer BatchNorm4
I0313 21:41:56.694746 22044 net.cpp:406] BatchNorm4 <- Convolution4
I0313 21:41:56.694790 22044 net.cpp:367] BatchNorm4 -> Convolution4 (in-place)
I0313 21:41:56.695191 22044 net.cpp:122] Setting up BatchNorm4
I0313 21:41:56.695217 22044 net.cpp:129] Top shape: 20 32 112 112 (8028160)
I0313 21:41:56.695230 22044 net.cpp:137] Memory required for data: 935280880
I0313 21:41:56.695251 22044 layer_factory.hpp:77] Creating layer Scale4
I0313 21:41:56.695269 22044 net.cpp:84] Creating Layer Scale4
I0313 21:41:56.695284 22044 net.cpp:406] Scale4 <- Convolution4
I0313 21:41:56.695299 22044 net.cpp:367] Scale4 -> Convolution4 (in-place)
I0313 21:41:56.695391 22044 layer_factory.hpp:77] Creating layer Scale4
I0313 21:41:56.695631 22044 net.cpp:122] Setting up Scale4
I0313 21:41:56.695657 22044 net.cpp:129] Top shape: 20 32 112 112 (8028160)
I0313 21:41:56.695670 22044 net.cpp:137] Memory required for data: 967393520
I0313 21:41:56.695688 22044 layer_factory.hpp:77] Creating layer ReLU4
I0313 21:41:56.695704 22044 net.cpp:84] Creating Layer ReLU4
I0313 21:41:56.695719 22044 net.cpp:406] ReLU4 <- Convolution4
I0313 21:41:56.695745 22044 net.cpp:367] ReLU4 -> Convolution4 (in-place)
I0313 21:41:56.695763 22044 net.cpp:122] Setting up ReLU4
I0313 21:41:56.695778 22044 net.cpp:129] Top shape: 20 32 112 112 (8028160)
I0313 21:41:56.695791 22044 net.cpp:137] Memory required for data: 999506160
I0313 21:41:56.695802 22044 layer_factory.hpp:77] Creating layer Convolution5
I0313 21:41:56.695837 22044 net.cpp:84] Creating Layer Convolution5
I0313 21:41:56.695852 22044 net.cpp:406] Convolution5 <- Convolution4
I0313 21:41:56.695878 22044 net.cpp:380] Convolution5 -> Convolution5
I0313 21:41:56.696426 22044 net.cpp:122] Setting up Convolution5
I0313 21:41:56.696455 22044 net.cpp:129] Top shape: 20 32 112 112 (8028160)
I0313 21:41:56.696470 22044 net.cpp:137] Memory required for data: 1031618800
I0313 21:41:56.696503 22044 layer_factory.hpp:77] Creating layer BatchNorm5
I0313 21:41:56.696532 22044 net.cpp:84] Creating Layer BatchNorm5
I0313 21:41:56.696547 22044 net.cpp:406] BatchNorm5 <- Convolution5
I0313 21:41:56.696564 22044 net.cpp:367] BatchNorm5 -> Convolution5 (in-place)
I0313 21:41:56.697286 22044 net.cpp:122] Setting up BatchNorm5
I0313 21:41:56.697315 22044 net.cpp:129] Top shape: 20 32 112 112 (8028160)
I0313 21:41:56.697330 22044 net.cpp:137] Memory required for data: 1063731440
I0313 21:41:56.697371 22044 layer_factory.hpp:77] Creating layer Scale5
I0313 21:41:56.697391 22044 net.cpp:84] Creating Layer Scale5
I0313 21:41:56.697412 22044 net.cpp:406] Scale5 <- Convolution5
I0313 21:41:56.697428 22044 net.cpp:367] Scale5 -> Convolution5 (in-place)
I0313 21:41:56.697518 22044 layer_factory.hpp:77] Creating layer Scale5
I0313 21:41:56.697772 22044 net.cpp:122] Setting up Scale5
I0313 21:41:56.697798 22044 net.cpp:129] Top shape: 20 32 112 112 (8028160)
I0313 21:41:56.697811 22044 net.cpp:137] Memory required for data: 1095844080
I0313 21:41:56.697829 22044 layer_factory.hpp:77] Creating layer Eltwise2
I0313 21:41:56.697857 22044 net.cpp:84] Creating Layer Eltwise2
I0313 21:41:56.697880 22044 net.cpp:406] Eltwise2 <- Convolution5
I0313 21:41:56.697896 22044 net.cpp:406] Eltwise2 <- Eltwise1_ReLU3_0_split_1
I0313 21:41:56.697913 22044 net.cpp:380] Eltwise2 -> Eltwise2
I0313 21:41:56.697957 22044 net.cpp:122] Setting up Eltwise2
I0313 21:41:56.697976 22044 net.cpp:129] Top shape: 20 32 112 112 (8028160)
I0313 21:41:56.697989 22044 net.cpp:137] Memory required for data: 1127956720
I0313 21:41:56.698001 22044 layer_factory.hpp:77] Creating layer ReLU5
I0313 21:41:56.698027 22044 net.cpp:84] Creating Layer ReLU5
I0313 21:41:56.698041 22044 net.cpp:406] ReLU5 <- Eltwise2
I0313 21:41:56.698056 22044 net.cpp:367] ReLU5 -> Eltwise2 (in-place)
I0313 21:41:56.698072 22044 net.cpp:122] Setting up ReLU5
I0313 21:41:56.698088 22044 net.cpp:129] Top shape: 20 32 112 112 (8028160)
I0313 21:41:56.698101 22044 net.cpp:137] Memory required for data: 1160069360
I0313 21:41:56.698122 22044 layer_factory.hpp:77] Creating layer Eltwise2_ReLU5_0_split
I0313 21:41:56.698140 22044 net.cpp:84] Creating Layer Eltwise2_ReLU5_0_split
I0313 21:41:56.698184 22044 net.cpp:406] Eltwise2_ReLU5_0_split <- Eltwise2
I0313 21:41:56.698201 22044 net.cpp:380] Eltwise2_ReLU5_0_split -> Eltwise2_ReLU5_0_split_0
I0313 21:41:56.698220 22044 net.cpp:380] Eltwise2_ReLU5_0_split -> Eltwise2_ReLU5_0_split_1
I0313 21:41:56.698289 22044 net.cpp:122] Setting up Eltwise2_ReLU5_0_split
I0313 21:41:56.698309 22044 net.cpp:129] Top shape: 20 32 112 112 (8028160)
I0313 21:41:56.698325 22044 net.cpp:129] Top shape: 20 32 112 112 (8028160)
I0313 21:41:56.698338 22044 net.cpp:137] Memory required for data: 1224294640
I0313 21:41:56.698351 22044 layer_factory.hpp:77] Creating layer Convolution6
I0313 21:41:56.698386 22044 net.cpp:84] Creating Layer Convolution6
I0313 21:41:56.698400 22044 net.cpp:406] Convolution6 <- Eltwise2_ReLU5_0_split_0
I0313 21:41:56.698417 22044 net.cpp:380] Convolution6 -> Convolution6
I0313 21:41:56.698948 22044 net.cpp:122] Setting up Convolution6
I0313 21:41:56.698973 22044 net.cpp:129] Top shape: 20 32 112 112 (8028160)
I0313 21:41:56.698987 22044 net.cpp:137] Memory required for data: 1256407280
I0313 21:41:56.699003 22044 layer_factory.hpp:77] Creating layer BatchNorm6
I0313 21:41:56.699030 22044 net.cpp:84] Creating Layer BatchNorm6
I0313 21:41:56.699046 22044 net.cpp:406] BatchNorm6 <- Convolution6
I0313 21:41:56.699072 22044 net.cpp:367] BatchNorm6 -> Convolution6 (in-place)
I0313 21:41:56.699436 22044 net.cpp:122] Setting up BatchNorm6
I0313 21:41:56.699460 22044 net.cpp:129] Top shape: 20 32 112 112 (8028160)
I0313 21:41:56.699472 22044 net.cpp:137] Memory required for data: 1288519920
I0313 21:41:56.699493 22044 layer_factory.hpp:77] Creating layer Scale6
I0313 21:41:56.699538 22044 net.cpp:84] Creating Layer Scale6
I0313 21:41:56.699553 22044 net.cpp:406] Scale6 <- Convolution6
I0313 21:41:56.699568 22044 net.cpp:367] Scale6 -> Convolution6 (in-place)
I0313 21:41:56.699646 22044 layer_factory.hpp:77] Creating layer Scale6
I0313 21:41:56.699892 22044 net.cpp:122] Setting up Scale6
I0313 21:41:56.699920 22044 net.cpp:129] Top shape: 20 32 112 112 (8028160)
I0313 21:41:56.699935 22044 net.cpp:137] Memory required for data: 1320632560
I0313 21:41:56.699971 22044 layer_factory.hpp:77] Creating layer ReLU6
I0313 21:41:56.699997 22044 net.cpp:84] Creating Layer ReLU6
I0313 21:41:56.700011 22044 net.cpp:406] ReLU6 <- Convolution6
I0313 21:41:56.700027 22044 net.cpp:367] ReLU6 -> Convolution6 (in-place)
I0313 21:41:56.700044 22044 net.cpp:122] Setting up ReLU6
I0313 21:41:56.700059 22044 net.cpp:129] Top shape: 20 32 112 112 (8028160)
I0313 21:41:56.700073 22044 net.cpp:137] Memory required for data: 1352745200
I0313 21:41:56.700090 22044 layer_factory.hpp:77] Creating layer Convolution7
I0313 21:41:56.700127 22044 net.cpp:84] Creating Layer Convolution7
I0313 21:41:56.700142 22044 net.cpp:406] Convolution7 <- Convolution6
I0313 21:41:56.700168 22044 net.cpp:380] Convolution7 -> Convolution7
I0313 21:41:56.700706 22044 net.cpp:122] Setting up Convolution7
I0313 21:41:56.700734 22044 net.cpp:129] Top shape: 20 32 112 112 (8028160)
I0313 21:41:56.700754 22044 net.cpp:137] Memory required for data: 1384857840
I0313 21:41:56.700773 22044 layer_factory.hpp:77] Creating layer BatchNorm7
I0313 21:41:56.700793 22044 net.cpp:84] Creating Layer BatchNorm7
I0313 21:41:56.700805 22044 net.cpp:406] BatchNorm7 <- Convolution7
I0313 21:41:56.700831 22044 net.cpp:367] BatchNorm7 -> Convolution7 (in-place)
I0313 21:41:56.701203 22044 net.cpp:122] Setting up BatchNorm7
I0313 21:41:56.701228 22044 net.cpp:129] Top shape: 20 32 112 112 (8028160)
I0313 21:41:56.701242 22044 net.cpp:137] Memory required for data: 1416970480
I0313 21:41:56.701261 22044 layer_factory.hpp:77] Creating layer Scale7
I0313 21:41:56.701279 22044 net.cpp:84] Creating Layer Scale7
I0313 21:41:56.701292 22044 net.cpp:406] Scale7 <- Convolution7
I0313 21:41:56.701318 22044 net.cpp:367] Scale7 -> Convolution7 (in-place)
I0313 21:41:56.701385 22044 layer_factory.hpp:77] Creating layer Scale7
I0313 21:41:56.701632 22044 net.cpp:122] Setting up Scale7
I0313 21:41:56.701681 22044 net.cpp:129] Top shape: 20 32 112 112 (8028160)
I0313 21:41:56.701695 22044 net.cpp:137] Memory required for data: 1449083120
I0313 21:41:56.701722 22044 layer_factory.hpp:77] Creating layer Eltwise3
I0313 21:41:56.701752 22044 net.cpp:84] Creating Layer Eltwise3
I0313 21:41:56.701766 22044 net.cpp:406] Eltwise3 <- Convolution7
I0313 21:41:56.701779 22044 net.cpp:406] Eltwise3 <- Eltwise2_ReLU5_0_split_1
I0313 21:41:56.701795 22044 net.cpp:380] Eltwise3 -> Eltwise3
I0313 21:41:56.701849 22044 net.cpp:122] Setting up Eltwise3
I0313 21:41:56.701869 22044 net.cpp:129] Top shape: 20 32 112 112 (8028160)
I0313 21:41:56.701880 22044 net.cpp:137] Memory required for data: 1481195760
I0313 21:41:56.701894 22044 layer_factory.hpp:77] Creating layer ReLU7
I0313 21:41:56.701918 22044 net.cpp:84] Creating Layer ReLU7
I0313 21:41:56.701932 22044 net.cpp:406] ReLU7 <- Eltwise3
I0313 21:41:56.701947 22044 net.cpp:367] ReLU7 -> Eltwise3 (in-place)
I0313 21:41:56.701963 22044 net.cpp:122] Setting up ReLU7
I0313 21:41:56.701980 22044 net.cpp:129] Top shape: 20 32 112 112 (8028160)
I0313 21:41:56.701992 22044 net.cpp:137] Memory required for data: 1513308400
I0313 21:41:56.702004 22044 layer_factory.hpp:77] Creating layer Eltwise3_ReLU7_0_split
I0313 21:41:56.702021 22044 net.cpp:84] Creating Layer Eltwise3_ReLU7_0_split
I0313 21:41:56.702034 22044 net.cpp:406] Eltwise3_ReLU7_0_split <- Eltwise3
I0313 21:41:56.702050 22044 net.cpp:380] Eltwise3_ReLU7_0_split -> Eltwise3_ReLU7_0_split_0
I0313 21:41:56.702075 22044 net.cpp:380] Eltwise3_ReLU7_0_split -> Eltwise3_ReLU7_0_split_1
I0313 21:41:56.702093 22044 net.cpp:380] Eltwise3_ReLU7_0_split -> Eltwise3_ReLU7_0_split_2
I0313 21:41:56.702183 22044 net.cpp:122] Setting up Eltwise3_ReLU7_0_split
I0313 21:41:56.702200 22044 net.cpp:129] Top shape: 20 32 112 112 (8028160)
I0313 21:41:56.702215 22044 net.cpp:129] Top shape: 20 32 112 112 (8028160)
I0313 21:41:56.702229 22044 net.cpp:129] Top shape: 20 32 112 112 (8028160)
I0313 21:41:56.702242 22044 net.cpp:137] Memory required for data: 1609646320
I0313 21:41:56.702255 22044 layer_factory.hpp:77] Creating layer Convolution8
I0313 21:41:56.702273 22044 net.cpp:84] Creating Layer Convolution8
I0313 21:41:56.702286 22044 net.cpp:406] Convolution8 <- Eltwise3_ReLU7_0_split_0
I0313 21:41:56.702311 22044 net.cpp:380] Convolution8 -> Convolution8
I0313 21:41:56.705484 22044 net.cpp:122] Setting up Convolution8
I0313 21:41:56.705554 22044 net.cpp:129] Top shape: 20 64 56 56 (4014080)
I0313 21:41:56.705571 22044 net.cpp:137] Memory required for data: 1625702640
I0313 21:41:56.705605 22044 layer_factory.hpp:77] Creating layer BatchNorm8
I0313 21:41:56.705639 22044 net.cpp:84] Creating Layer BatchNorm8
I0313 21:41:56.705658 22044 net.cpp:406] BatchNorm8 <- Convolution8
I0313 21:41:56.705679 22044 net.cpp:367] BatchNorm8 -> Convolution8 (in-place)
I0313 21:41:56.706096 22044 net.cpp:122] Setting up BatchNorm8
I0313 21:41:56.706121 22044 net.cpp:129] Top shape: 20 64 56 56 (4014080)
I0313 21:41:56.706135 22044 net.cpp:137] Memory required for data: 1641758960
I0313 21:41:56.706156 22044 layer_factory.hpp:77] Creating layer Scale8
I0313 21:41:56.706190 22044 net.cpp:84] Creating Layer Scale8
I0313 21:41:56.706207 22044 net.cpp:406] Scale8 <- Convolution8
I0313 21:41:56.706223 22044 net.cpp:367] Scale8 -> Convolution8 (in-place)
I0313 21:41:56.706320 22044 layer_factory.hpp:77] Creating layer Scale8
I0313 21:41:56.706565 22044 net.cpp:122] Setting up Scale8
I0313 21:41:56.706593 22044 net.cpp:129] Top shape: 20 64 56 56 (4014080)
I0313 21:41:56.706606 22044 net.cpp:137] Memory required for data: 1657815280
I0313 21:41:56.706625 22044 layer_factory.hpp:77] Creating layer ReLU8
I0313 21:41:56.706642 22044 net.cpp:84] Creating Layer ReLU8
I0313 21:41:56.706655 22044 net.cpp:406] ReLU8 <- Convolution8
I0313 21:41:56.706678 22044 net.cpp:367] ReLU8 -> Convolution8 (in-place)
I0313 21:41:56.706702 22044 net.cpp:122] Setting up ReLU8
I0313 21:41:56.706719 22044 net.cpp:129] Top shape: 20 64 56 56 (4014080)
I0313 21:41:56.706732 22044 net.cpp:137] Memory required for data: 1673871600
I0313 21:41:56.706779 22044 layer_factory.hpp:77] Creating layer Convolution9
I0313 21:41:56.706827 22044 net.cpp:84] Creating Layer Convolution9
I0313 21:41:56.706842 22044 net.cpp:406] Convolution9 <- Convolution8
I0313 21:41:56.706863 22044 net.cpp:380] Convolution9 -> Convolution9
I0313 21:41:56.707734 22044 net.cpp:122] Setting up Convolution9
I0313 21:41:56.707762 22044 net.cpp:129] Top shape: 20 64 56 56 (4014080)
I0313 21:41:56.707777 22044 net.cpp:137] Memory required for data: 1689927920
I0313 21:41:56.707794 22044 layer_factory.hpp:77] Creating layer BatchNorm9
I0313 21:41:56.707829 22044 net.cpp:84] Creating Layer BatchNorm9
I0313 21:41:56.707844 22044 net.cpp:406] BatchNorm9 <- Convolution9
I0313 21:41:56.707861 22044 net.cpp:367] BatchNorm9 -> Convolution9 (in-place)
I0313 21:41:56.708246 22044 net.cpp:122] Setting up BatchNorm9
I0313 21:41:56.708271 22044 net.cpp:129] Top shape: 20 64 56 56 (4014080)
I0313 21:41:56.708287 22044 net.cpp:137] Memory required for data: 1705984240
I0313 21:41:56.708307 22044 layer_factory.hpp:77] Creating layer Scale9
I0313 21:41:56.708325 22044 net.cpp:84] Creating Layer Scale9
I0313 21:41:56.708338 22044 net.cpp:406] Scale9 <- Convolution9
I0313 21:41:56.708361 22044 net.cpp:367] Scale9 -> Convolution9 (in-place)
I0313 21:41:56.708444 22044 layer_factory.hpp:77] Creating layer Scale9
I0313 21:41:56.708698 22044 net.cpp:122] Setting up Scale9
I0313 21:41:56.708724 22044 net.cpp:129] Top shape: 20 64 56 56 (4014080)
I0313 21:41:56.708736 22044 net.cpp:137] Memory required for data: 1722040560
I0313 21:41:56.708753 22044 layer_factory.hpp:77] Creating layer Convolution10
I0313 21:41:56.708784 22044 net.cpp:84] Creating Layer Convolution10
I0313 21:41:56.710536 22044 net.cpp:406] Convolution10 <- Eltwise3_ReLU7_0_split_1
I0313 21:41:56.710603 22044 net.cpp:380] Convolution10 -> Convolution10
I0313 21:41:56.711081 22044 net.cpp:122] Setting up Convolution10
I0313 21:41:56.711112 22044 net.cpp:129] Top shape: 20 64 56 56 (4014080)
I0313 21:41:56.711127 22044 net.cpp:137] Memory required for data: 1738096880
I0313 21:41:56.711180 22044 layer_factory.hpp:77] Creating layer BatchNorm10
I0313 21:41:56.711210 22044 net.cpp:84] Creating Layer BatchNorm10
I0313 21:41:56.711225 22044 net.cpp:406] BatchNorm10 <- Convolution10
I0313 21:41:56.711242 22044 net.cpp:367] BatchNorm10 -> Convolution10 (in-place)
I0313 21:41:56.711601 22044 net.cpp:122] Setting up BatchNorm10
I0313 21:41:56.711623 22044 net.cpp:129] Top shape: 20 64 56 56 (4014080)
I0313 21:41:56.711637 22044 net.cpp:137] Memory required for data: 1754153200
I0313 21:41:56.711664 22044 layer_factory.hpp:77] Creating layer Scale10
I0313 21:41:56.711702 22044 net.cpp:84] Creating Layer Scale10
I0313 21:41:56.711716 22044 net.cpp:406] Scale10 <- Convolution10
I0313 21:41:56.711731 22044 net.cpp:367] Scale10 -> Convolution10 (in-place)
I0313 21:41:56.711817 22044 layer_factory.hpp:77] Creating layer Scale10
I0313 21:41:56.712034 22044 net.cpp:122] Setting up Scale10
I0313 21:41:56.712054 22044 net.cpp:129] Top shape: 20 64 56 56 (4014080)
I0313 21:41:56.712067 22044 net.cpp:137] Memory required for data: 1770209520
I0313 21:41:56.712085 22044 layer_factory.hpp:77] Creating layer Eltwise4
I0313 21:41:56.712115 22044 net.cpp:84] Creating Layer Eltwise4
I0313 21:41:56.712128 22044 net.cpp:406] Eltwise4 <- Convolution9
I0313 21:41:56.712142 22044 net.cpp:406] Eltwise4 <- Convolution10
I0313 21:41:56.712158 22044 net.cpp:380] Eltwise4 -> Eltwise4
I0313 21:41:56.712211 22044 net.cpp:122] Setting up Eltwise4
I0313 21:41:56.712230 22044 net.cpp:129] Top shape: 20 64 56 56 (4014080)
I0313 21:41:56.712242 22044 net.cpp:137] Memory required for data: 1786265840
I0313 21:41:56.712255 22044 layer_factory.hpp:77] Creating layer ReLU9
I0313 21:41:56.712270 22044 net.cpp:84] Creating Layer ReLU9
I0313 21:41:56.712285 22044 net.cpp:406] ReLU9 <- Eltwise4
I0313 21:41:56.712299 22044 net.cpp:367] ReLU9 -> Eltwise4 (in-place)
I0313 21:41:56.712316 22044 net.cpp:122] Setting up ReLU9
I0313 21:41:56.712332 22044 net.cpp:129] Top shape: 20 64 56 56 (4014080)
I0313 21:41:56.712378 22044 net.cpp:137] Memory required for data: 1802322160
I0313 21:41:56.712391 22044 layer_factory.hpp:77] Creating layer Eltwise4_ReLU9_0_split
I0313 21:41:56.712409 22044 net.cpp:84] Creating Layer Eltwise4_ReLU9_0_split
I0313 21:41:56.712421 22044 net.cpp:406] Eltwise4_ReLU9_0_split <- Eltwise4
I0313 21:41:56.712435 22044 net.cpp:380] Eltwise4_ReLU9_0_split -> Eltwise4_ReLU9_0_split_0
I0313 21:41:56.712452 22044 net.cpp:380] Eltwise4_ReLU9_0_split -> Eltwise4_ReLU9_0_split_1
I0313 21:41:56.712522 22044 net.cpp:122] Setting up Eltwise4_ReLU9_0_split
I0313 21:41:56.712541 22044 net.cpp:129] Top shape: 20 64 56 56 (4014080)
I0313 21:41:56.712556 22044 net.cpp:129] Top shape: 20 64 56 56 (4014080)
I0313 21:41:56.712568 22044 net.cpp:137] Memory required for data: 1834434800
I0313 21:41:56.712589 22044 layer_factory.hpp:77] Creating layer Convolution11
I0313 21:41:56.712626 22044 net.cpp:84] Creating Layer Convolution11
I0313 21:41:56.712641 22044 net.cpp:406] Convolution11 <- Eltwise4_ReLU9_0_split_0
I0313 21:41:56.712658 22044 net.cpp:380] Convolution11 -> Convolution11
I0313 21:41:56.713513 22044 net.cpp:122] Setting up Convolution11
I0313 21:41:56.713546 22044 net.cpp:129] Top shape: 20 64 56 56 (4014080)
I0313 21:41:56.713560 22044 net.cpp:137] Memory required for data: 1850491120
I0313 21:41:56.713578 22044 layer_factory.hpp:77] Creating layer BatchNorm11
I0313 21:41:56.713595 22044 net.cpp:84] Creating Layer BatchNorm11
I0313 21:41:56.713608 22044 net.cpp:406] BatchNorm11 <- Convolution11
I0313 21:41:56.713632 22044 net.cpp:367] BatchNorm11 -> Convolution11 (in-place)
I0313 21:41:56.713992 22044 net.cpp:122] Setting up BatchNorm11
I0313 21:41:56.714015 22044 net.cpp:129] Top shape: 20 64 56 56 (4014080)
I0313 21:41:56.714028 22044 net.cpp:137] Memory required for data: 1866547440
I0313 21:41:56.714048 22044 layer_factory.hpp:77] Creating layer Scale11
I0313 21:41:56.714066 22044 net.cpp:84] Creating Layer Scale11
I0313 21:41:56.714078 22044 net.cpp:406] Scale11 <- Convolution11
I0313 21:41:56.714102 22044 net.cpp:367] Scale11 -> Convolution11 (in-place)
I0313 21:41:56.714170 22044 layer_factory.hpp:77] Creating layer Scale11
I0313 21:41:56.714406 22044 net.cpp:122] Setting up Scale11
I0313 21:41:56.714427 22044 net.cpp:129] Top shape: 20 64 56 56 (4014080)
I0313 21:41:56.714440 22044 net.cpp:137] Memory required for data: 1882603760
I0313 21:41:56.714457 22044 layer_factory.hpp:77] Creating layer ReLU10
I0313 21:41:56.714481 22044 net.cpp:84] Creating Layer ReLU10
I0313 21:41:56.714495 22044 net.cpp:406] ReLU10 <- Convolution11
I0313 21:41:56.714519 22044 net.cpp:367] ReLU10 -> Convolution11 (in-place)
I0313 21:41:56.714537 22044 net.cpp:122] Setting up ReLU10
I0313 21:41:56.714552 22044 net.cpp:129] Top shape: 20 64 56 56 (4014080)
I0313 21:41:56.714565 22044 net.cpp:137] Memory required for data: 1898660080
I0313 21:41:56.714586 22044 layer_factory.hpp:77] Creating layer Convolution12
I0313 21:41:56.714624 22044 net.cpp:84] Creating Layer Convolution12
I0313 21:41:56.714639 22044 net.cpp:406] Convolution12 <- Convolution11
I0313 21:41:56.714656 22044 net.cpp:380] Convolution12 -> Convolution12
I0313 21:41:56.715520 22044 net.cpp:122] Setting up Convolution12
I0313 21:41:56.715572 22044 net.cpp:129] Top shape: 20 64 56 56 (4014080)
I0313 21:41:56.715587 22044 net.cpp:137] Memory required for data: 1914716400
I0313 21:41:56.715607 22044 layer_factory.hpp:77] Creating layer BatchNorm12
I0313 21:41:56.715626 22044 net.cpp:84] Creating Layer BatchNorm12
I0313 21:41:56.715638 22044 net.cpp:406] BatchNorm12 <- Convolution12
I0313 21:41:56.715662 22044 net.cpp:367] BatchNorm12 -> Convolution12 (in-place)
I0313 21:41:56.716030 22044 net.cpp:122] Setting up BatchNorm12
I0313 21:41:56.716058 22044 net.cpp:129] Top shape: 20 64 56 56 (4014080)
I0313 21:41:56.716071 22044 net.cpp:137] Memory required for data: 1930772720
I0313 21:41:56.716091 22044 layer_factory.hpp:77] Creating layer Scale12
I0313 21:41:56.716123 22044 net.cpp:84] Creating Layer Scale12
I0313 21:41:56.716171 22044 net.cpp:406] Scale12 <- Convolution12
I0313 21:41:56.716198 22044 net.cpp:367] Scale12 -> Convolution12 (in-place)
I0313 21:41:56.716274 22044 layer_factory.hpp:77] Creating layer Scale12
I0313 21:41:56.716522 22044 net.cpp:122] Setting up Scale12
I0313 21:41:56.716549 22044 net.cpp:129] Top shape: 20 64 56 56 (4014080)
I0313 21:41:56.716563 22044 net.cpp:137] Memory required for data: 1946829040
I0313 21:41:56.716580 22044 layer_factory.hpp:77] Creating layer Eltwise5
I0313 21:41:56.716616 22044 net.cpp:84] Creating Layer Eltwise5
I0313 21:41:56.716631 22044 net.cpp:406] Eltwise5 <- Convolution12
I0313 21:41:56.716648 22044 net.cpp:406] Eltwise5 <- Eltwise4_ReLU9_0_split_1
I0313 21:41:56.716665 22044 net.cpp:380] Eltwise5 -> Eltwise5
I0313 21:41:56.716719 22044 net.cpp:122] Setting up Eltwise5
I0313 21:41:56.716737 22044 net.cpp:129] Top shape: 20 64 56 56 (4014080)
I0313 21:41:56.716751 22044 net.cpp:137] Memory required for data: 1962885360
I0313 21:41:56.716763 22044 layer_factory.hpp:77] Creating layer ReLU11
I0313 21:41:56.716780 22044 net.cpp:84] Creating Layer ReLU11
I0313 21:41:56.716792 22044 net.cpp:406] ReLU11 <- Eltwise5
I0313 21:41:56.716820 22044 net.cpp:367] ReLU11 -> Eltwise5 (in-place)
I0313 21:41:56.716836 22044 net.cpp:122] Setting up ReLU11
I0313 21:41:56.716851 22044 net.cpp:129] Top shape: 20 64 56 56 (4014080)
I0313 21:41:56.716866 22044 net.cpp:137] Memory required for data: 1978941680
I0313 21:41:56.716878 22044 layer_factory.hpp:77] Creating layer Eltwise5_ReLU11_0_split
I0313 21:41:56.716894 22044 net.cpp:84] Creating Layer Eltwise5_ReLU11_0_split
I0313 21:41:56.716907 22044 net.cpp:406] Eltwise5_ReLU11_0_split <- Eltwise5
I0313 21:41:56.716920 22044 net.cpp:380] Eltwise5_ReLU11_0_split -> Eltwise5_ReLU11_0_split_0
I0313 21:41:56.716938 22044 net.cpp:380] Eltwise5_ReLU11_0_split -> Eltwise5_ReLU11_0_split_1
I0313 21:41:56.717007 22044 net.cpp:122] Setting up Eltwise5_ReLU11_0_split
I0313 21:41:56.717027 22044 net.cpp:129] Top shape: 20 64 56 56 (4014080)
I0313 21:41:56.717041 22044 net.cpp:129] Top shape: 20 64 56 56 (4014080)
I0313 21:41:56.717053 22044 net.cpp:137] Memory required for data: 2011054320
I0313 21:41:56.717066 22044 layer_factory.hpp:77] Creating layer Convolution13
I0313 21:41:56.717097 22044 net.cpp:84] Creating Layer Convolution13
I0313 21:41:56.717111 22044 net.cpp:406] Convolution13 <- Eltwise5_ReLU11_0_split_0
I0313 21:41:56.717129 22044 net.cpp:380] Convolution13 -> Convolution13
I0313 21:41:56.718029 22044 net.cpp:122] Setting up Convolution13
I0313 21:41:56.718066 22044 net.cpp:129] Top shape: 20 64 56 56 (4014080)
I0313 21:41:56.718082 22044 net.cpp:137] Memory required for data: 2027110640
I0313 21:41:56.718101 22044 layer_factory.hpp:77] Creating layer BatchNorm13
I0313 21:41:56.718152 22044 net.cpp:84] Creating Layer BatchNorm13
I0313 21:41:56.718183 22044 net.cpp:406] BatchNorm13 <- Convolution13
I0313 21:41:56.718201 22044 net.cpp:367] BatchNorm13 -> Convolution13 (in-place)
I0313 21:41:56.718576 22044 net.cpp:122] Setting up BatchNorm13
I0313 21:41:56.718602 22044 net.cpp:129] Top shape: 20 64 56 56 (4014080)
I0313 21:41:56.718617 22044 net.cpp:137] Memory required for data: 2043166960
I0313 21:41:56.718638 22044 layer_factory.hpp:77] Creating layer Scale13
I0313 21:41:56.718659 22044 net.cpp:84] Creating Layer Scale13
I0313 21:41:56.718674 22044 net.cpp:406] Scale13 <- Convolution13
I0313 21:41:56.718689 22044 net.cpp:367] Scale13 -> Convolution13 (in-place)
I0313 21:41:56.718781 22044 layer_factory.hpp:77] Creating layer Scale13
I0313 21:41:56.719024 22044 net.cpp:122] Setting up Scale13
I0313 21:41:56.719049 22044 net.cpp:129] Top shape: 20 64 56 56 (4014080)
I0313 21:41:56.719063 22044 net.cpp:137] Memory required for data: 2059223280
I0313 21:41:56.719081 22044 layer_factory.hpp:77] Creating layer ReLU12
I0313 21:41:56.719111 22044 net.cpp:84] Creating Layer ReLU12
I0313 21:41:56.719126 22044 net.cpp:406] ReLU12 <- Convolution13
I0313 21:41:56.719142 22044 net.cpp:367] ReLU12 -> Convolution13 (in-place)
I0313 21:41:56.719159 22044 net.cpp:122] Setting up ReLU12
I0313 21:41:56.719213 22044 net.cpp:129] Top shape: 20 64 56 56 (4014080)
I0313 21:41:56.719229 22044 net.cpp:137] Memory required for data: 2075279600
I0313 21:41:56.719244 22044 layer_factory.hpp:77] Creating layer Convolution14
I0313 21:41:56.719281 22044 net.cpp:84] Creating Layer Convolution14
I0313 21:41:56.719296 22044 net.cpp:406] Convolution14 <- Convolution13
I0313 21:41:56.719314 22044 net.cpp:380] Convolution14 -> Convolution14
I0313 21:41:56.720183 22044 net.cpp:122] Setting up Convolution14
I0313 21:41:56.720214 22044 net.cpp:129] Top shape: 20 64 56 56 (4014080)
I0313 21:41:56.720228 22044 net.cpp:137] Memory required for data: 2091335920
I0313 21:41:56.720247 22044 layer_factory.hpp:77] Creating layer BatchNorm14
I0313 21:41:56.720289 22044 net.cpp:84] Creating Layer BatchNorm14
I0313 21:41:56.720304 22044 net.cpp:406] BatchNorm14 <- Convolution14
I0313 21:41:56.720329 22044 net.cpp:367] BatchNorm14 -> Convolution14 (in-place)
I0313 21:41:56.720700 22044 net.cpp:122] Setting up BatchNorm14
I0313 21:41:56.720726 22044 net.cpp:129] Top shape: 20 64 56 56 (4014080)
I0313 21:41:56.720742 22044 net.cpp:137] Memory required for data: 2107392240
I0313 21:41:56.720763 22044 layer_factory.hpp:77] Creating layer Scale14
I0313 21:41:56.720782 22044 net.cpp:84] Creating Layer Scale14
I0313 21:41:56.720794 22044 net.cpp:406] Scale14 <- Convolution14
I0313 21:41:56.720811 22044 net.cpp:367] Scale14 -> Convolution14 (in-place)
I0313 21:41:56.720904 22044 layer_factory.hpp:77] Creating layer Scale14
I0313 21:41:56.721138 22044 net.cpp:122] Setting up Scale14
I0313 21:41:56.721171 22044 net.cpp:129] Top shape: 20 64 56 56 (4014080)
I0313 21:41:56.721186 22044 net.cpp:137] Memory required for data: 2123448560
I0313 21:41:56.721204 22044 layer_factory.hpp:77] Creating layer Eltwise6
I0313 21:41:56.721232 22044 net.cpp:84] Creating Layer Eltwise6
I0313 21:41:56.721247 22044 net.cpp:406] Eltwise6 <- Convolution14
I0313 21:41:56.721262 22044 net.cpp:406] Eltwise6 <- Eltwise5_ReLU11_0_split_1
I0313 21:41:56.721278 22044 net.cpp:380] Eltwise6 -> Eltwise6
I0313 21:41:56.721333 22044 net.cpp:122] Setting up Eltwise6
I0313 21:41:56.721354 22044 net.cpp:129] Top shape: 20 64 56 56 (4014080)
I0313 21:41:56.721366 22044 net.cpp:137] Memory required for data: 2139504880
I0313 21:41:56.721379 22044 layer_factory.hpp:77] Creating layer ReLU13
I0313 21:41:56.721395 22044 net.cpp:84] Creating Layer ReLU13
I0313 21:41:56.721406 22044 net.cpp:406] ReLU13 <- Eltwise6
I0313 21:41:56.721429 22044 net.cpp:367] ReLU13 -> Eltwise6 (in-place)
I0313 21:41:56.721447 22044 net.cpp:122] Setting up ReLU13
I0313 21:41:56.721477 22044 net.cpp:129] Top shape: 20 64 56 56 (4014080)
I0313 21:41:56.721489 22044 net.cpp:137] Memory required for data: 2155561200
I0313 21:41:56.721510 22044 layer_factory.hpp:77] Creating layer Eltwise6_ReLU13_0_split
I0313 21:41:56.721529 22044 net.cpp:84] Creating Layer Eltwise6_ReLU13_0_split
I0313 21:41:56.721541 22044 net.cpp:406] Eltwise6_ReLU13_0_split <- Eltwise6
I0313 21:41:56.721556 22044 net.cpp:380] Eltwise6_ReLU13_0_split -> Eltwise6_ReLU13_0_split_0
I0313 21:41:56.721573 22044 net.cpp:380] Eltwise6_ReLU13_0_split -> Eltwise6_ReLU13_0_split_1
I0313 21:41:56.721598 22044 net.cpp:380] Eltwise6_ReLU13_0_split -> Eltwise6_ReLU13_0_split_2
I0313 21:41:56.721690 22044 net.cpp:122] Setting up Eltwise6_ReLU13_0_split
I0313 21:41:56.721709 22044 net.cpp:129] Top shape: 20 64 56 56 (4014080)
I0313 21:41:56.721725 22044 net.cpp:129] Top shape: 20 64 56 56 (4014080)
I0313 21:41:56.721740 22044 net.cpp:129] Top shape: 20 64 56 56 (4014080)
I0313 21:41:56.721751 22044 net.cpp:137] Memory required for data: 2203730160
I0313 21:41:56.721763 22044 layer_factory.hpp:77] Creating layer StageLink1
I0313 21:41:56.721784 22044 net.cpp:84] Creating Layer StageLink1
I0313 21:41:56.721797 22044 net.cpp:406] StageLink1 <- Eltwise6_ReLU13_0_split_0
I0313 21:41:56.721843 22044 net.cpp:380] StageLink1 -> StageLink1
I0313 21:41:56.722359 22044 net.cpp:122] Setting up StageLink1
I0313 21:41:56.722384 22044 net.cpp:129] Top shape: 20 128 56 56 (8028160)
I0313 21:41:56.722429 22044 net.cpp:137] Memory required for data: 2235842800
I0313 21:41:56.722448 22044 layer_factory.hpp:77] Creating layer StageLink1_BN
I0313 21:41:56.722481 22044 net.cpp:84] Creating Layer StageLink1_BN
I0313 21:41:56.722496 22044 net.cpp:406] StageLink1_BN <- StageLink1
I0313 21:41:56.722519 22044 net.cpp:367] StageLink1_BN -> StageLink1 (in-place)
I0313 21:41:56.722896 22044 net.cpp:122] Setting up StageLink1_BN
I0313 21:41:56.722921 22044 net.cpp:129] Top shape: 20 128 56 56 (8028160)
I0313 21:41:56.722936 22044 net.cpp:137] Memory required for data: 2267955440
I0313 21:41:56.722957 22044 layer_factory.hpp:77] Creating layer StageLink1_Scale
I0313 21:41:56.722976 22044 net.cpp:84] Creating Layer StageLink1_Scale
I0313 21:41:56.723034 22044 net.cpp:406] StageLink1_Scale <- StageLink1
I0313 21:41:56.723052 22044 net.cpp:367] StageLink1_Scale -> StageLink1 (in-place)
I0313 21:41:56.723783 22044 layer_factory.hpp:77] Creating layer StageLink1_Scale
I0313 21:41:56.724031 22044 net.cpp:122] Setting up StageLink1_Scale
I0313 21:41:56.724067 22044 net.cpp:129] Top shape: 20 128 56 56 (8028160)
I0313 21:41:56.724082 22044 net.cpp:137] Memory required for data: 2300068080
I0313 21:41:56.724108 22044 layer_factory.hpp:77] Creating layer StageLink0
I0313 21:41:56.724133 22044 net.cpp:84] Creating Layer StageLink0
I0313 21:41:56.724146 22044 net.cpp:406] StageLink0 <- Eltwise3_ReLU7_0_split_2
I0313 21:41:56.724164 22044 net.cpp:380] StageLink0 -> StageLink0
I0313 21:41:56.724617 22044 net.cpp:122] Setting up StageLink0
I0313 21:41:56.724643 22044 net.cpp:129] Top shape: 20 64 112 112 (16056320)
I0313 21:41:56.724658 22044 net.cpp:137] Memory required for data: 2364293360
I0313 21:41:56.724676 22044 layer_factory.hpp:77] Creating layer StageLink0_BN
I0313 21:41:56.724707 22044 net.cpp:84] Creating Layer StageLink0_BN
I0313 21:41:56.724723 22044 net.cpp:406] StageLink0_BN <- StageLink0
I0313 21:41:56.724738 22044 net.cpp:367] StageLink0_BN -> StageLink0 (in-place)
I0313 21:41:56.725077 22044 net.cpp:122] Setting up StageLink0_BN
I0313 21:41:56.725103 22044 net.cpp:129] Top shape: 20 64 112 112 (16056320)
I0313 21:41:56.725117 22044 net.cpp:137] Memory required for data: 2428518640
I0313 21:41:56.725138 22044 layer_factory.hpp:77] Creating layer StageLink0_Scale
I0313 21:41:56.725157 22044 net.cpp:84] Creating Layer StageLink0_Scale
I0313 21:41:56.725172 22044 net.cpp:406] StageLink0_Scale <- StageLink0
I0313 21:41:56.725188 22044 net.cpp:367] StageLink0_Scale -> StageLink0 (in-place)
I0313 21:41:56.725260 22044 layer_factory.hpp:77] Creating layer StageLink0_Scale
I0313 21:41:56.725468 22044 net.cpp:122] Setting up StageLink0_Scale
I0313 21:41:56.725492 22044 net.cpp:129] Top shape: 20 64 112 112 (16056320)
I0313 21:41:56.725505 22044 net.cpp:137] Memory required for data: 2492743920
I0313 21:41:56.725522 22044 layer_factory.hpp:77] Creating layer Convolution15
I0313 21:41:56.725556 22044 net.cpp:84] Creating Layer Convolution15
I0313 21:41:56.725571 22044 net.cpp:406] Convolution15 <- Eltwise6_ReLU13_0_split_1
I0313 21:41:56.725590 22044 net.cpp:380] Convolution15 -> Convolution15
I0313 21:41:56.742430 22044 net.cpp:122] Setting up Convolution15
I0313 21:41:56.742498 22044 net.cpp:129] Top shape: 20 128 28 28 (2007040)
I0313 21:41:56.742516 22044 net.cpp:137] Memory required for data: 2500772080
I0313 21:41:56.742535 22044 layer_factory.hpp:77] Creating layer BatchNorm15
I0313 21:41:56.742563 22044 net.cpp:84] Creating Layer BatchNorm15
I0313 21:41:56.742578 22044 net.cpp:406] BatchNorm15 <- Convolution15
I0313 21:41:56.742599 22044 net.cpp:367] BatchNorm15 -> Convolution15 (in-place)
I0313 21:41:56.742954 22044 net.cpp:122] Setting up BatchNorm15
I0313 21:41:56.742971 22044 net.cpp:129] Top shape: 20 128 28 28 (2007040)
I0313 21:41:56.742980 22044 net.cpp:137] Memory required for data: 2508800240
I0313 21:41:56.742995 22044 layer_factory.hpp:77] Creating layer Scale15
I0313 21:41:56.743011 22044 net.cpp:84] Creating Layer Scale15
I0313 21:41:56.743026 22044 net.cpp:406] Scale15 <- Convolution15
I0313 21:41:56.743075 22044 net.cpp:367] Scale15 -> Convolution15 (in-place)
I0313 21:41:56.743146 22044 layer_factory.hpp:77] Creating layer Scale15
I0313 21:41:56.743299 22044 net.cpp:122] Setting up Scale15
I0313 21:41:56.743317 22044 net.cpp:129] Top shape: 20 128 28 28 (2007040)
I0313 21:41:56.743326 22044 net.cpp:137] Memory required for data: 2516828400
I0313 21:41:56.743336 22044 layer_factory.hpp:77] Creating layer ReLU14
I0313 21:41:56.743350 22044 net.cpp:84] Creating Layer ReLU14
I0313 21:41:56.743357 22044 net.cpp:406] ReLU14 <- Convolution15
I0313 21:41:56.743371 22044 net.cpp:367] ReLU14 -> Convolution15 (in-place)
I0313 21:41:56.743389 22044 net.cpp:122] Setting up ReLU14
I0313 21:41:56.743398 22044 net.cpp:129] Top shape: 20 128 28 28 (2007040)
I0313 21:41:56.743407 22044 net.cpp:137] Memory required for data: 2524856560
I0313 21:41:56.743413 22044 layer_factory.hpp:77] Creating layer Convolution16
I0313 21:41:56.743432 22044 net.cpp:84] Creating Layer Convolution16
I0313 21:41:56.743440 22044 net.cpp:406] Convolution16 <- Convolution15
I0313 21:41:56.743454 22044 net.cpp:380] Convolution16 -> Convolution16
I0313 21:41:56.744985 22044 net.cpp:122] Setting up Convolution16
I0313 21:41:56.745033 22044 net.cpp:129] Top shape: 20 128 28 28 (2007040)
I0313 21:41:56.745043 22044 net.cpp:137] Memory required for data: 2532884720
I0313 21:41:56.745059 22044 layer_factory.hpp:77] Creating layer BatchNorm16
I0313 21:41:56.745075 22044 net.cpp:84] Creating Layer BatchNorm16
I0313 21:41:56.745090 22044 net.cpp:406] BatchNorm16 <- Convolution16
I0313 21:41:56.745108 22044 net.cpp:367] BatchNorm16 -> Convolution16 (in-place)
I0313 21:41:56.745362 22044 net.cpp:122] Setting up BatchNorm16
I0313 21:41:56.745378 22044 net.cpp:129] Top shape: 20 128 28 28 (2007040)
I0313 21:41:56.745386 22044 net.cpp:137] Memory required for data: 2540912880
I0313 21:41:56.745400 22044 layer_factory.hpp:77] Creating layer Scale16
I0313 21:41:56.745414 22044 net.cpp:84] Creating Layer Scale16
I0313 21:41:56.745421 22044 net.cpp:406] Scale16 <- Convolution16
I0313 21:41:56.745437 22044 net.cpp:367] Scale16 -> Convolution16 (in-place)
I0313 21:41:56.745499 22044 layer_factory.hpp:77] Creating layer Scale16
I0313 21:41:56.745645 22044 net.cpp:122] Setting up Scale16
I0313 21:41:56.745659 22044 net.cpp:129] Top shape: 20 128 28 28 (2007040)
I0313 21:41:56.745672 22044 net.cpp:137] Memory required for data: 2548941040
I0313 21:41:56.745688 22044 layer_factory.hpp:77] Creating layer Convolution17
I0313 21:41:56.745714 22044 net.cpp:84] Creating Layer Convolution17
I0313 21:41:56.745730 22044 net.cpp:406] Convolution17 <- Eltwise6_ReLU13_0_split_2
I0313 21:41:56.745749 22044 net.cpp:380] Convolution17 -> Convolution17
I0313 21:41:56.746232 22044 net.cpp:122] Setting up Convolution17
I0313 21:41:56.746255 22044 net.cpp:129] Top shape: 20 128 28 28 (2007040)
I0313 21:41:56.746268 22044 net.cpp:137] Memory required for data: 2556969200
I0313 21:41:56.746286 22044 layer_factory.hpp:77] Creating layer BatchNorm17
I0313 21:41:56.746306 22044 net.cpp:84] Creating Layer BatchNorm17
I0313 21:41:56.746320 22044 net.cpp:406] BatchNorm17 <- Convolution17
I0313 21:41:56.746336 22044 net.cpp:367] BatchNorm17 -> Convolution17 (in-place)
I0313 21:41:56.746619 22044 net.cpp:122] Setting up BatchNorm17
I0313 21:41:56.746640 22044 net.cpp:129] Top shape: 20 128 28 28 (2007040)
I0313 21:41:56.746654 22044 net.cpp:137] Memory required for data: 2564997360
I0313 21:41:56.746714 22044 layer_factory.hpp:77] Creating layer Scale17
I0313 21:41:56.746738 22044 net.cpp:84] Creating Layer Scale17
I0313 21:41:56.746752 22044 net.cpp:406] Scale17 <- Convolution17
I0313 21:41:56.746767 22044 net.cpp:367] Scale17 -> Convolution17 (in-place)
I0313 21:41:56.746841 22044 layer_factory.hpp:77] Creating layer Scale17
I0313 21:41:56.747032 22044 net.cpp:122] Setting up Scale17
I0313 21:41:56.747054 22044 net.cpp:129] Top shape: 20 128 28 28 (2007040)
I0313 21:41:56.747067 22044 net.cpp:137] Memory required for data: 2573025520
I0313 21:41:56.747086 22044 layer_factory.hpp:77] Creating layer Eltwise7
I0313 21:41:56.747148 22044 net.cpp:84] Creating Layer Eltwise7
I0313 21:41:56.747164 22044 net.cpp:406] Eltwise7 <- Convolution16
I0313 21:41:56.747179 22044 net.cpp:406] Eltwise7 <- Convolution17
I0313 21:41:56.747196 22044 net.cpp:380] Eltwise7 -> Eltwise7
I0313 21:41:56.747243 22044 net.cpp:122] Setting up Eltwise7
I0313 21:41:56.747261 22044 net.cpp:129] Top shape: 20 128 28 28 (2007040)
I0313 21:41:56.747272 22044 net.cpp:137] Memory required for data: 2581053680
I0313 21:41:56.747284 22044 layer_factory.hpp:77] Creating layer ReLU15
I0313 21:41:56.747301 22044 net.cpp:84] Creating Layer ReLU15
I0313 21:41:56.747314 22044 net.cpp:406] ReLU15 <- Eltwise7
I0313 21:41:56.747333 22044 net.cpp:367] ReLU15 -> Eltwise7 (in-place)
I0313 21:41:56.747349 22044 net.cpp:122] Setting up ReLU15
I0313 21:41:56.747362 22044 net.cpp:129] Top shape: 20 128 28 28 (2007040)
I0313 21:41:56.747375 22044 net.cpp:137] Memory required for data: 2589081840
I0313 21:41:56.747386 22044 layer_factory.hpp:77] Creating layer Eltwise7_ReLU15_0_split
I0313 21:41:56.747403 22044 net.cpp:84] Creating Layer Eltwise7_ReLU15_0_split
I0313 21:41:56.747416 22044 net.cpp:406] Eltwise7_ReLU15_0_split <- Eltwise7
I0313 21:41:56.747431 22044 net.cpp:380] Eltwise7_ReLU15_0_split -> Eltwise7_ReLU15_0_split_0
I0313 21:41:56.747448 22044 net.cpp:380] Eltwise7_ReLU15_0_split -> Eltwise7_ReLU15_0_split_1
I0313 21:41:56.747509 22044 net.cpp:122] Setting up Eltwise7_ReLU15_0_split
I0313 21:41:56.747547 22044 net.cpp:129] Top shape: 20 128 28 28 (2007040)
I0313 21:41:56.747571 22044 net.cpp:129] Top shape: 20 128 28 28 (2007040)
I0313 21:41:56.747582 22044 net.cpp:137] Memory required for data: 2605138160
I0313 21:41:56.747611 22044 layer_factory.hpp:77] Creating layer Convolution18
I0313 21:41:56.747633 22044 net.cpp:84] Creating Layer Convolution18
I0313 21:41:56.747642 22044 net.cpp:406] Convolution18 <- Eltwise7_ReLU15_0_split_0
I0313 21:41:56.747654 22044 net.cpp:380] Convolution18 -> Convolution18
I0313 21:41:56.749019 22044 net.cpp:122] Setting up Convolution18
I0313 21:41:56.749056 22044 net.cpp:129] Top shape: 20 128 28 28 (2007040)
I0313 21:41:56.749064 22044 net.cpp:137] Memory required for data: 2613166320
I0313 21:41:56.749078 22044 layer_factory.hpp:77] Creating layer BatchNorm18
I0313 21:41:56.749094 22044 net.cpp:84] Creating Layer BatchNorm18
I0313 21:41:56.749104 22044 net.cpp:406] BatchNorm18 <- Convolution18
I0313 21:41:56.749115 22044 net.cpp:367] BatchNorm18 -> Convolution18 (in-place)
I0313 21:41:56.749318 22044 net.cpp:122] Setting up BatchNorm18
I0313 21:41:56.749332 22044 net.cpp:129] Top shape: 20 128 28 28 (2007040)
I0313 21:41:56.749341 22044 net.cpp:137] Memory required for data: 2621194480
I0313 21:41:56.749353 22044 layer_factory.hpp:77] Creating layer Scale18
I0313 21:41:56.749369 22044 net.cpp:84] Creating Layer Scale18
I0313 21:41:56.749377 22044 net.cpp:406] Scale18 <- Convolution18
I0313 21:41:56.749388 22044 net.cpp:367] Scale18 -> Convolution18 (in-place)
I0313 21:41:56.749445 22044 layer_factory.hpp:77] Creating layer Scale18
I0313 21:41:56.749572 22044 net.cpp:122] Setting up Scale18
I0313 21:41:56.749584 22044 net.cpp:129] Top shape: 20 128 28 28 (2007040)
I0313 21:41:56.749591 22044 net.cpp:137] Memory required for data: 2629222640
I0313 21:41:56.749601 22044 layer_factory.hpp:77] Creating layer ReLU16
I0313 21:41:56.749614 22044 net.cpp:84] Creating Layer ReLU16
I0313 21:41:56.749620 22044 net.cpp:406] ReLU16 <- Convolution18
I0313 21:41:56.749630 22044 net.cpp:367] ReLU16 -> Convolution18 (in-place)
I0313 21:41:56.749641 22044 net.cpp:122] Setting up ReLU16
I0313 21:41:56.749650 22044 net.cpp:129] Top shape: 20 128 28 28 (2007040)
I0313 21:41:56.749657 22044 net.cpp:137] Memory required for data: 2637250800
I0313 21:41:56.749665 22044 layer_factory.hpp:77] Creating layer Convolution19
I0313 21:41:56.749681 22044 net.cpp:84] Creating Layer Convolution19
I0313 21:41:56.749689 22044 net.cpp:406] Convolution19 <- Convolution18
I0313 21:41:56.749701 22044 net.cpp:380] Convolution19 -> Convolution19
I0313 21:41:56.751081 22044 net.cpp:122] Setting up Convolution19
I0313 21:41:56.751111 22044 net.cpp:129] Top shape: 20 128 28 28 (2007040)
I0313 21:41:56.751121 22044 net.cpp:137] Memory required for data: 2645278960
I0313 21:41:56.751132 22044 layer_factory.hpp:77] Creating layer BatchNorm19
I0313 21:41:56.751147 22044 net.cpp:84] Creating Layer BatchNorm19
I0313 21:41:56.751155 22044 net.cpp:406] BatchNorm19 <- Convolution19
I0313 21:41:56.751168 22044 net.cpp:367] BatchNorm19 -> Convolution19 (in-place)
I0313 21:41:56.751366 22044 net.cpp:122] Setting up BatchNorm19
I0313 21:41:56.751379 22044 net.cpp:129] Top shape: 20 128 28 28 (2007040)
I0313 21:41:56.751386 22044 net.cpp:137] Memory required for data: 2653307120
I0313 21:41:56.751399 22044 layer_factory.hpp:77] Creating layer Scale19
I0313 21:41:56.751415 22044 net.cpp:84] Creating Layer Scale19
I0313 21:41:56.751423 22044 net.cpp:406] Scale19 <- Convolution19
I0313 21:41:56.751433 22044 net.cpp:367] Scale19 -> Convolution19 (in-place)
I0313 21:41:56.751505 22044 layer_factory.hpp:77] Creating layer Scale19
I0313 21:41:56.753041 22044 net.cpp:122] Setting up Scale19
I0313 21:41:56.753083 22044 net.cpp:129] Top shape: 20 128 28 28 (2007040)
I0313 21:41:56.753093 22044 net.cpp:137] Memory required for data: 2661335280
I0313 21:41:56.753108 22044 layer_factory.hpp:77] Creating layer Eltwise8
I0313 21:41:56.753131 22044 net.cpp:84] Creating Layer Eltwise8
I0313 21:41:56.753144 22044 net.cpp:406] Eltwise8 <- Convolution19
I0313 21:41:56.753156 22044 net.cpp:406] Eltwise8 <- Eltwise7_ReLU15_0_split_1
I0313 21:41:56.753167 22044 net.cpp:380] Eltwise8 -> Eltwise8
I0313 21:41:56.753211 22044 net.cpp:122] Setting up Eltwise8
I0313 21:41:56.753221 22044 net.cpp:129] Top shape: 20 128 28 28 (2007040)
I0313 21:41:56.753229 22044 net.cpp:137] Memory required for data: 2669363440
I0313 21:41:56.753237 22044 layer_factory.hpp:77] Creating layer ReLU17
I0313 21:41:56.753248 22044 net.cpp:84] Creating Layer ReLU17
I0313 21:41:56.753255 22044 net.cpp:406] ReLU17 <- Eltwise8
I0313 21:41:56.753265 22044 net.cpp:367] ReLU17 -> Eltwise8 (in-place)
I0313 21:41:56.753276 22044 net.cpp:122] Setting up ReLU17
I0313 21:41:56.753285 22044 net.cpp:129] Top shape: 20 128 28 28 (2007040)
I0313 21:41:56.753293 22044 net.cpp:137] Memory required for data: 2677391600
I0313 21:41:56.753299 22044 layer_factory.hpp:77] Creating layer Eltwise8_ReLU17_0_split
I0313 21:41:56.753310 22044 net.cpp:84] Creating Layer Eltwise8_ReLU17_0_split
I0313 21:41:56.753317 22044 net.cpp:406] Eltwise8_ReLU17_0_split <- Eltwise8
I0313 21:41:56.753327 22044 net.cpp:380] Eltwise8_ReLU17_0_split -> Eltwise8_ReLU17_0_split_0
I0313 21:41:56.753338 22044 net.cpp:380] Eltwise8_ReLU17_0_split -> Eltwise8_ReLU17_0_split_1
I0313 21:41:56.753401 22044 net.cpp:122] Setting up Eltwise8_ReLU17_0_split
I0313 21:41:56.753412 22044 net.cpp:129] Top shape: 20 128 28 28 (2007040)
I0313 21:41:56.753420 22044 net.cpp:129] Top shape: 20 128 28 28 (2007040)
I0313 21:41:56.753427 22044 net.cpp:137] Memory required for data: 2693447920
I0313 21:41:56.753435 22044 layer_factory.hpp:77] Creating layer Convolution20
I0313 21:41:56.753453 22044 net.cpp:84] Creating Layer Convolution20
I0313 21:41:56.753463 22044 net.cpp:406] Convolution20 <- Eltwise8_ReLU17_0_split_0
I0313 21:41:56.753476 22044 net.cpp:380] Convolution20 -> Convolution20
I0313 21:41:56.762923 22044 net.cpp:122] Setting up Convolution20
I0313 21:41:56.762980 22044 net.cpp:129] Top shape: 20 128 28 28 (2007040)
I0313 21:41:56.762991 22044 net.cpp:137] Memory required for data: 2701476080
I0313 21:41:56.763006 22044 layer_factory.hpp:77] Creating layer BatchNorm20
I0313 21:41:56.763031 22044 net.cpp:84] Creating Layer BatchNorm20
I0313 21:41:56.763043 22044 net.cpp:406] BatchNorm20 <- Convolution20
I0313 21:41:56.763056 22044 net.cpp:367] BatchNorm20 -> Convolution20 (in-place)
I0313 21:41:56.763264 22044 net.cpp:122] Setting up BatchNorm20
I0313 21:41:56.763276 22044 net.cpp:129] Top shape: 20 128 28 28 (2007040)
I0313 21:41:56.763284 22044 net.cpp:137] Memory required for data: 2709504240
I0313 21:41:56.763331 22044 layer_factory.hpp:77] Creating layer Scale20
I0313 21:41:56.763348 22044 net.cpp:84] Creating Layer Scale20
I0313 21:41:56.763357 22044 net.cpp:406] Scale20 <- Convolution20
I0313 21:41:56.763367 22044 net.cpp:367] Scale20 -> Convolution20 (in-place)
I0313 21:41:56.763427 22044 layer_factory.hpp:77] Creating layer Scale20
I0313 21:41:56.763563 22044 net.cpp:122] Setting up Scale20
I0313 21:41:56.763582 22044 net.cpp:129] Top shape: 20 128 28 28 (2007040)
I0313 21:41:56.763594 22044 net.cpp:137] Memory required for data: 2717532400
I0313 21:41:56.763610 22044 layer_factory.hpp:77] Creating layer ReLU18
I0313 21:41:56.763628 22044 net.cpp:84] Creating Layer ReLU18
I0313 21:41:56.763641 22044 net.cpp:406] ReLU18 <- Convolution20
I0313 21:41:56.763658 22044 net.cpp:367] ReLU18 -> Convolution20 (in-place)
I0313 21:41:56.763674 22044 net.cpp:122] Setting up ReLU18
I0313 21:41:56.763685 22044 net.cpp:129] Top shape: 20 128 28 28 (2007040)
I0313 21:41:56.763696 22044 net.cpp:137] Memory required for data: 2725560560
I0313 21:41:56.763707 22044 layer_factory.hpp:77] Creating layer Convolution21
I0313 21:41:56.763728 22044 net.cpp:84] Creating Layer Convolution21
I0313 21:41:56.763742 22044 net.cpp:406] Convolution21 <- Convolution20
I0313 21:41:56.763759 22044 net.cpp:380] Convolution21 -> Convolution21
I0313 21:41:56.765097 22044 net.cpp:122] Setting up Convolution21
I0313 21:41:56.765130 22044 net.cpp:129] Top shape: 20 128 28 28 (2007040)
I0313 21:41:56.765146 22044 net.cpp:137] Memory required for data: 2733588720
I0313 21:41:56.765161 22044 layer_factory.hpp:77] Creating layer BatchNorm21
I0313 21:41:56.765175 22044 net.cpp:84] Creating Layer BatchNorm21
I0313 21:41:56.765183 22044 net.cpp:406] BatchNorm21 <- Convolution21
I0313 21:41:56.765195 22044 net.cpp:367] BatchNorm21 -> Convolution21 (in-place)
I0313 21:41:56.765399 22044 net.cpp:122] Setting up BatchNorm21
I0313 21:41:56.765413 22044 net.cpp:129] Top shape: 20 128 28 28 (2007040)
I0313 21:41:56.765420 22044 net.cpp:137] Memory required for data: 2741616880
I0313 21:41:56.765444 22044 layer_factory.hpp:77] Creating layer Scale21
I0313 21:41:56.765458 22044 net.cpp:84] Creating Layer Scale21
I0313 21:41:56.765466 22044 net.cpp:406] Scale21 <- Convolution21
I0313 21:41:56.765476 22044 net.cpp:367] Scale21 -> Convolution21 (in-place)
I0313 21:41:56.765524 22044 layer_factory.hpp:77] Creating layer Scale21
I0313 21:41:56.765663 22044 net.cpp:122] Setting up Scale21
I0313 21:41:56.765684 22044 net.cpp:129] Top shape: 20 128 28 28 (2007040)
I0313 21:41:56.765694 22044 net.cpp:137] Memory required for data: 2749645040
I0313 21:41:56.765705 22044 layer_factory.hpp:77] Creating layer Eltwise9
I0313 21:41:56.765718 22044 net.cpp:84] Creating Layer Eltwise9
I0313 21:41:56.765727 22044 net.cpp:406] Eltwise9 <- Convolution21
I0313 21:41:56.765738 22044 net.cpp:406] Eltwise9 <- Eltwise8_ReLU17_0_split_1
I0313 21:41:56.765748 22044 net.cpp:380] Eltwise9 -> Eltwise9
I0313 21:41:56.765781 22044 net.cpp:122] Setting up Eltwise9
I0313 21:41:56.765792 22044 net.cpp:129] Top shape: 20 128 28 28 (2007040)
I0313 21:41:56.765799 22044 net.cpp:137] Memory required for data: 2757673200
I0313 21:41:56.765806 22044 layer_factory.hpp:77] Creating layer ReLU19
I0313 21:41:56.765818 22044 net.cpp:84] Creating Layer ReLU19
I0313 21:41:56.765825 22044 net.cpp:406] ReLU19 <- Eltwise9
I0313 21:41:56.765836 22044 net.cpp:367] ReLU19 -> Eltwise9 (in-place)
I0313 21:41:56.765846 22044 net.cpp:122] Setting up ReLU19
I0313 21:41:56.765854 22044 net.cpp:129] Top shape: 20 128 28 28 (2007040)
I0313 21:41:56.765861 22044 net.cpp:137] Memory required for data: 2765701360
I0313 21:41:56.765868 22044 layer_factory.hpp:77] Creating layer Deconvolution1
I0313 21:41:56.765905 22044 net.cpp:84] Creating Layer Deconvolution1
I0313 21:41:56.765914 22044 net.cpp:406] Deconvolution1 <- Eltwise9
I0313 21:41:56.765926 22044 net.cpp:380] Deconvolution1 -> Deconvolution1
I0313 21:41:56.766677 22044 net.cpp:122] Setting up Deconvolution1
I0313 21:41:56.766695 22044 net.cpp:129] Top shape: 20 128 56 56 (8028160)
I0313 21:41:56.766731 22044 net.cpp:137] Memory required for data: 2797814000
I0313 21:41:56.766743 22044 layer_factory.hpp:77] Creating layer BatchNorm22
I0313 21:41:56.766757 22044 net.cpp:84] Creating Layer BatchNorm22
I0313 21:41:56.766764 22044 net.cpp:406] BatchNorm22 <- Deconvolution1
I0313 21:41:56.766774 22044 net.cpp:367] BatchNorm22 -> Deconvolution1 (in-place)
I0313 21:41:56.767345 22044 net.cpp:122] Setting up BatchNorm22
I0313 21:41:56.767395 22044 net.cpp:129] Top shape: 20 128 56 56 (8028160)
I0313 21:41:56.767402 22044 net.cpp:137] Memory required for data: 2829926640
I0313 21:41:56.767423 22044 layer_factory.hpp:77] Creating layer Scale22
I0313 21:41:56.767444 22044 net.cpp:84] Creating Layer Scale22
I0313 21:41:56.767453 22044 net.cpp:406] Scale22 <- Deconvolution1
I0313 21:41:56.767464 22044 net.cpp:367] Scale22 -> Deconvolution1 (in-place)
I0313 21:41:56.767519 22044 layer_factory.hpp:77] Creating layer Scale22
I0313 21:41:56.767647 22044 net.cpp:122] Setting up Scale22
I0313 21:41:56.767659 22044 net.cpp:129] Top shape: 20 128 56 56 (8028160)
I0313 21:41:56.767666 22044 net.cpp:137] Memory required for data: 2862039280
I0313 21:41:56.767676 22044 layer_factory.hpp:77] Creating layer Eltwise10
I0313 21:41:56.767691 22044 net.cpp:84] Creating Layer Eltwise10
I0313 21:41:56.767699 22044 net.cpp:406] Eltwise10 <- Deconvolution1
I0313 21:41:56.767709 22044 net.cpp:406] Eltwise10 <- StageLink1
I0313 21:41:56.767719 22044 net.cpp:380] Eltwise10 -> Eltwise10
I0313 21:41:56.767750 22044 net.cpp:122] Setting up Eltwise10
I0313 21:41:56.767760 22044 net.cpp:129] Top shape: 20 128 56 56 (8028160)
I0313 21:41:56.767766 22044 net.cpp:137] Memory required for data: 2894151920
I0313 21:41:56.767773 22044 layer_factory.hpp:77] Creating layer ReLU20
I0313 21:41:56.767784 22044 net.cpp:84] Creating Layer ReLU20
I0313 21:41:56.767802 22044 net.cpp:406] ReLU20 <- Eltwise10
I0313 21:41:56.767812 22044 net.cpp:367] ReLU20 -> Eltwise10 (in-place)
I0313 21:41:56.767822 22044 net.cpp:122] Setting up ReLU20
I0313 21:41:56.767829 22044 net.cpp:129] Top shape: 20 128 56 56 (8028160)
I0313 21:41:56.767837 22044 net.cpp:137] Memory required for data: 2926264560
I0313 21:41:56.767843 22044 layer_factory.hpp:77] Creating layer Deconvolution2
I0313 21:41:56.767855 22044 net.cpp:84] Creating Layer Deconvolution2
I0313 21:41:56.767863 22044 net.cpp:406] Deconvolution2 <- Eltwise10
I0313 21:41:56.767873 22044 net.cpp:380] Deconvolution2 -> Deconvolution2
I0313 21:41:56.768440 22044 net.cpp:122] Setting up Deconvolution2
I0313 21:41:56.768458 22044 net.cpp:129] Top shape: 20 64 112 112 (16056320)
I0313 21:41:56.768466 22044 net.cpp:137] Memory required for data: 2990489840
I0313 21:41:56.768477 22044 layer_factory.hpp:77] Creating layer BatchNorm23
I0313 21:41:56.768491 22044 net.cpp:84] Creating Layer BatchNorm23
I0313 21:41:56.768499 22044 net.cpp:406] BatchNorm23 <- Deconvolution2
I0313 21:41:56.768509 22044 net.cpp:367] BatchNorm23 -> Deconvolution2 (in-place)
I0313 21:41:56.768725 22044 net.cpp:122] Setting up BatchNorm23
I0313 21:41:56.768738 22044 net.cpp:129] Top shape: 20 64 112 112 (16056320)
I0313 21:41:56.768745 22044 net.cpp:137] Memory required for data: 3054715120
I0313 21:41:56.768757 22044 layer_factory.hpp:77] Creating layer Scale23
I0313 21:41:56.768769 22044 net.cpp:84] Creating Layer Scale23
I0313 21:41:56.768776 22044 net.cpp:406] Scale23 <- Deconvolution2
I0313 21:41:56.768786 22044 net.cpp:367] Scale23 -> Deconvolution2 (in-place)
I0313 21:41:56.768834 22044 layer_factory.hpp:77] Creating layer Scale23
I0313 21:41:56.768985 22044 net.cpp:122] Setting up Scale23
I0313 21:41:56.769006 22044 net.cpp:129] Top shape: 20 64 112 112 (16056320)
I0313 21:41:56.769019 22044 net.cpp:137] Memory required for data: 3118940400
I0313 21:41:56.769035 22044 layer_factory.hpp:77] Creating layer Eltwise11
I0313 21:41:56.769054 22044 net.cpp:84] Creating Layer Eltwise11
I0313 21:41:56.769067 22044 net.cpp:406] Eltwise11 <- Deconvolution2
I0313 21:41:56.769081 22044 net.cpp:406] Eltwise11 <- StageLink0
I0313 21:41:56.769126 22044 net.cpp:380] Eltwise11 -> Eltwise11
I0313 21:41:56.769162 22044 net.cpp:122] Setting up Eltwise11
I0313 21:41:56.769173 22044 net.cpp:129] Top shape: 20 64 112 112 (16056320)
I0313 21:41:56.769181 22044 net.cpp:137] Memory required for data: 3183165680
I0313 21:41:56.769188 22044 layer_factory.hpp:77] Creating layer ReLU21
I0313 21:41:56.769199 22044 net.cpp:84] Creating Layer ReLU21
I0313 21:41:56.769207 22044 net.cpp:406] ReLU21 <- Eltwise11
I0313 21:41:56.769215 22044 net.cpp:367] ReLU21 -> Eltwise11 (in-place)
I0313 21:41:56.769224 22044 net.cpp:122] Setting up ReLU21
I0313 21:41:56.769233 22044 net.cpp:129] Top shape: 20 64 112 112 (16056320)
I0313 21:41:56.769240 22044 net.cpp:137] Memory required for data: 3247390960
I0313 21:41:56.769248 22044 layer_factory.hpp:77] Creating layer Deconvolution3
I0313 21:41:56.769263 22044 net.cpp:84] Creating Layer Deconvolution3
I0313 21:41:56.769269 22044 net.cpp:406] Deconvolution3 <- Eltwise11
I0313 21:41:56.769279 22044 net.cpp:380] Deconvolution3 -> Deconvolution3
I0313 21:41:56.775470 22044 net.cpp:122] Setting up Deconvolution3
I0313 21:41:56.775532 22044 net.cpp:129] Top shape: 20 32 224 224 (32112640)
I0313 21:41:56.775542 22044 net.cpp:137] Memory required for data: 3375841520
I0313 21:41:56.775555 22044 layer_factory.hpp:77] Creating layer BatchNorm24
I0313 21:41:56.775573 22044 net.cpp:84] Creating Layer BatchNorm24
I0313 21:41:56.775583 22044 net.cpp:406] BatchNorm24 <- Deconvolution3
I0313 21:41:56.775596 22044 net.cpp:367] BatchNorm24 -> Deconvolution3 (in-place)
I0313 21:41:56.775874 22044 net.cpp:122] Setting up BatchNorm24
I0313 21:41:56.775888 22044 net.cpp:129] Top shape: 20 32 224 224 (32112640)
I0313 21:41:56.775895 22044 net.cpp:137] Memory required for data: 3504292080
I0313 21:41:56.775908 22044 layer_factory.hpp:77] Creating layer Scale24
I0313 21:41:56.775923 22044 net.cpp:84] Creating Layer Scale24
I0313 21:41:56.775929 22044 net.cpp:406] Scale24 <- Deconvolution3
I0313 21:41:56.775939 22044 net.cpp:367] Scale24 -> Deconvolution3 (in-place)
I0313 21:41:56.775995 22044 layer_factory.hpp:77] Creating layer Scale24
I0313 21:41:56.783536 22044 net.cpp:122] Setting up Scale24
I0313 21:41:56.783581 22044 net.cpp:129] Top shape: 20 32 224 224 (32112640)
I0313 21:41:56.783586 22044 net.cpp:137] Memory required for data: 3632742640
I0313 21:41:56.783601 22044 layer_factory.hpp:77] Creating layer ReLU22
I0313 21:41:56.783624 22044 net.cpp:84] Creating Layer ReLU22
I0313 21:41:56.783632 22044 net.cpp:406] ReLU22 <- Deconvolution3
I0313 21:41:56.783641 22044 net.cpp:367] ReLU22 -> Deconvolution3 (in-place)
I0313 21:41:56.783653 22044 net.cpp:122] Setting up ReLU22
I0313 21:41:56.783659 22044 net.cpp:129] Top shape: 20 32 224 224 (32112640)
I0313 21:41:56.783682 22044 net.cpp:137] Memory required for data: 3761193200
I0313 21:41:56.783687 22044 layer_factory.hpp:77] Creating layer Convolution22
I0313 21:41:56.783720 22044 net.cpp:84] Creating Layer Convolution22
I0313 21:41:56.783723 22044 net.cpp:406] Convolution22 <- Deconvolution3
I0313 21:41:56.783735 22044 net.cpp:380] Convolution22 -> Convolution22
I0313 21:41:56.784185 22044 net.cpp:122] Setting up Convolution22
I0313 21:41:56.784196 22044 net.cpp:129] Top shape: 20 1 224 224 (1003520)
I0313 21:41:56.784201 22044 net.cpp:137] Memory required for data: 3765207280
I0313 21:41:56.784209 22044 layer_factory.hpp:77] Creating layer ReLU23
I0313 21:41:56.784215 22044 net.cpp:84] Creating Layer ReLU23
I0313 21:41:56.784220 22044 net.cpp:406] ReLU23 <- Convolution22
I0313 21:41:56.784229 22044 net.cpp:367] ReLU23 -> Convolution22 (in-place)
I0313 21:41:56.784235 22044 net.cpp:122] Setting up ReLU23
I0313 21:41:56.784241 22044 net.cpp:129] Top shape: 20 1 224 224 (1003520)
I0313 21:41:56.784245 22044 net.cpp:137] Memory required for data: 3769221360
I0313 21:41:56.784250 22044 layer_factory.hpp:77] Creating layer Loss
I0313 21:41:56.784260 22044 net.cpp:84] Creating Layer Loss
I0313 21:41:56.784265 22044 net.cpp:406] Loss <- Convolution22
I0313 21:41:56.784271 22044 net.cpp:406] Loss <- Data5
I0313 21:41:56.784363 22044 net.cpp:380] Loss -> Loss
…
