…
  data_param {
    source: "/data3/lzh/1000x224x224/raw_data_photon_dis"
    batch_size: 24
    backend: LMDB
  }
}
layer {
  name: "Data3"
  type: "Data"
  top: "Data3"
  top: "Data4"
  transform_param {
    scale: 1
  }
  data_param {
    source: "/data3/lzh/1000x224x224/raw_data_photon_flux"
    batch_size: 24
    backend: LMDB
  }
}
layer {
  name: "Data5"
  type: "Data"
  top: "Data5"
  top: "Data6"
  transform_param {
    scale: 0.00390625
  }
  data_param {
    source: "/data3/lzh/1000x224x224/raw_data_conv"
    batch_size: 24
    backend: LMDB
  }
}
layer {
  name: "Silence"
  type: "Silence"
  bottom: "Data2"
  bottom: "Data4"
  bottom: "Data6"
}
layer {
  name: "Concat1"
  type: "Concat"
  bottom: "Data1"
  bottom: "Data3"
  top: "Concat1"
}
layer {
  name: "Convolution1"
  type: "Convolution"
  bottom: "Concat1"
  top: "Convolution1"
  convolution_param {
    num_output: 32
    bias_term: true
    pad: 3
    kernel_size: 7
    stride: 2
    weight_filler {
      type: "xavier"
    }
    bias_filler {
      type: "constant"
    }
  }
}
layer {
  name: "BatchNorm1"
  type: "BatchNorm"
  bottom: "Convolution1"
  top: "Convolution1"
  param {
    lr_mult: 0
    decay_mult: 0
  }
  param {
    lr_mult: 0
    decay_mult: 0
  }
  param {
    lr_mult: 0
    decay_mult: 0
  }
  batch_norm_param {
    use_global_stats: false
  }
}
layer {
  name: "Scale1"
  type: "Scale"
  bottom: "Convolution1"
  top: "Convolution1"
  scale_param {
    bias_term: true
  }
}
layer {
  name: "ReLU1"
  type: "ReLU"
  bottom: "Convolution1"
  top: "Convolution1"
}
layer {
  name: "Convolution2"
  type: "Convolution"
  bottom: "Convolution1"
  top: "Convolution2"
  convolution_param {
    num_output: 32
    bias_term: true
    pad: 1
    kernel_size: 3
    stride: 1
    weight_filler {
      type: "xavier"
    }
    bias_filler {
      type: "constant"
    }
  }
}
layer {
  name: "BatchNorm2"
  type: "BatchNorm"
  bottom: "Convolution2"
  top: "Convolution2"
  param {
    lr_mult: 0
    decay_mult: 0
  }
  param {
    lr_mult: 0
    decay_mult: 0
  }
  param {
    lr_mult: 0
    decay_mult: 0
  }
  batch_norm_param {
    use_global_stats: false
  }
}
layer {
  name: "Scale2"
  type: "Scale"
  bottom: "Convolution2"
  top: "Convolution2"
  scale_param {
    bias_term: true
  }
}
layer {
  name: "ReLU2"
  type: "ReLU"
  bottom: "Convolution2"
  top: "Convolution2"
}
layer {
  name: "Convolution3"
  type: "Convolution"
  bottom: "Convolution2"
  top: "Convolution3"
  convolution_param {
    num_output: 32
    bias_term: true
    pad: 1
    kernel_size: 3
    stride: 1
    weight_filler {
      type: "xavier"
    }
    bias_filler {
      type: "constant"
    }
  }
}
layer {
  name: "BatchNorm3"
  type: "BatchNorm"
  bottom: "Convolution3"
  top: "Convolution3"
  param {
    lr_mult: 0
    decay_mult: 0
  }
  param {
    lr_mult: 0
    decay_mult: 0
  }
  param {
    lr_mult: 0
    decay_mult: 0
  }
  batch_norm_param {
    use_global_stats: false
  }
}
layer {
  name: "Scale3"
  type: "Scale"
  bottom: "Convolution3"
  top: "Convolution3"
  scale_param {
    bias_term: true
  }
}
layer {
  name: "Eltwise1"
  type: "Eltwise"
  bottom: "Convolution3"
  bottom: "Convolution1"
  top: "Eltwise1"
  eltwise_param {
    operation: SUM
  }
}
layer {
  name: "ReLU3"
  type: "ReLU"
  bottom: "Eltwise1"
  top: "Eltwise1"
}
layer {
  name: "Convolution4"
  type: "Convolution"
  bottom: "Eltwise1"
  top: "Convolution4"
  convolution_param {
    num_output: 32
    bias_term: true
    pad: 1
    kernel_size: 3
    stride: 1
    weight_filler {
      type: "xavier"
    }
    bias_filler {
      type: "constant"
    }
  }
}
layer {
  name: "BatchNorm4"
  type: "BatchNorm"
  bottom: "Convolution4"
  top: "Convolution4"
  param {
    lr_mult: 0
    decay_mult: 0
  }
  param {
    lr_mult: 0
    decay_mult: 0
  }
  param {
    lr_mult: 0
    decay_mult: 0
  }
  batch_norm_param {
    use_global_stats: false
  }
}
layer {
  name: "Scale4"
  type: "Scale"
  bottom: "Convolution4"
  top: "Convolution4"
  scale_param {
    bias_term: true
  }
}
layer {
  name: "ReLU4"
  type: "ReLU"
  bottom: "Convolution4"
  top: "Convolution4"
}
layer {
  name: "Convolution5"
  type: "Convolution"
  bottom: "Convolution4"
  top: "Convolution5"
  convolution_param {
    num_output: 32
    bias_term: true
    pad: 1
    kernel_size: 3
    stride: 1
    weight_filler {
      type: "xavier"
    }
    bias_filler {
      type: "constant"
    }
  }
}
layer {
  name: "BatchNorm5"
  type: "BatchNorm"
  bottom: "Convolution5"
  top: "Convolution5"
  param {
    lr_mult: 0
    decay_mult: 0
  }
  param {
    lr_mult: 0
    decay_mult: 0
  }
  param {
    lr_mult: 0
    decay_mult: 0
  }
  batch_norm_param {
    use_global_stats: false
  }
}
layer {
  name: "Scale5"
  type: "Scale"
  bottom: "Convolution5"
  top: "Convolution5"
  scale_param {
    bias_term: true
  }
}
layer {
  name: "Eltwise2"
  type: "Eltwise"
  bottom: "Convolution5"
  bottom: "Eltwise1"
  top: "Eltwise2"
  eltwise_param {
    operation: SUM
  }
}
layer {
  name: "ReLU5"
  type: "ReLU"
  bottom: "Eltwise2"
  top: "Eltwise2"
}
layer {
  name: "Convolution6"
  type: "Convolution"
  bottom: "Eltwise2"
  top: "Convolution6"
  convolution_param {
    num_output: 32
    bias_term: true
    pad: 1
    kernel_size: 3
    stride: 1
    weight_filler {
      type: "xavier"
    }
    bias_filler {
      type: "constant"
    }
  }
}
layer {
  name: "BatchNorm6"
  type: "BatchNorm"
  bottom: "Convolution6"
  top: "Convolution6"
  param {
    lr_mult: 0
    decay_mult: 0
  }
  param {
    lr_mult: 0
    decay_mult: 0
  }
  param {
    lr_mult: 0
    decay_mult: 0
  }
  batch_norm_param {
    use_global_stats: false
  }
}
layer {
  name: "Scale6"
  type: "Scale"
  bottom: "Convolution6"
  top: "Convolution6"
  scale_param {
    bias_term: true
  }
}
layer {
  name: "ReLU6"
  type: "ReLU"
  bottom: "Convolution6"
  top: "Convolution6"
}
layer {
  name: "Convolution7"
  type: "Convolution"
  bottom: "Convolution6"
  top: "Convolution7"
  convolution_param {
    num_output: 32
    bias_term: true
    pad: 1
    kernel_size: 3
    stride: 1
    weight_filler {
      type: "xavier"
    }
    bias_filler {
      type: "constant"
    }
  }
}
layer {
  name: "BatchNorm7"
  type: "BatchNorm"
  bottom: "Convolution7"
  top: "Convolution7"
  param {
    lr_mult: 0
    decay_mult: 0
  }
  param {
    lr_mult: 0
    decay_mult: 0
  }
  param {
    lr_mult: 0
    decay_mult: 0
  }
  batch_norm_param {
    use_global_stats: false
  }
}
layer {
  name: "Scale7"
  type: "Scale"
  bottom: "Convolution7"
  top: "Convolution7"
  scale_param {
    bias_term: true
  }
}
layer {
  name: "Eltwise3"
  type: "Eltwise"
  bottom: "Convolution7"
  bottom: "Eltwise2"
  top: "Eltwise3"
  eltwise_param {
    operation: SUM
  }
}
layer {
  name: "ReLU7"
  type: "ReLU"
  bottom: "Eltwise3"
  top: "Eltwise3"
}
layer {
  name: "Convolution8"
  type: "Convolution"
  bottom: "Eltwise3"
  top: "Convolution8"
  convolution_param {
    num_output: 64
    bias_term: true
    pad: 1
    kernel_size: 3
    stride: 2
    weight_filler {
      type: "xavier"
    }
    bias_filler {
      type: "constant"
    }
  }
}
layer {
  name: "BatchNorm8"
  type: "BatchNorm"
  bottom: "Convolution8"
  top: "Convolution8"
  param {
    lr_mult: 0
    decay_mult: 0
  }
  param {
    lr_mult: 0
    decay_mult: 0
  }
  param {
    lr_mult: 0
    decay_mult: 0
  }
  batch_norm_param {
    use_global_stats: false
  }
}
layer {
  name: "Scale8"
  type: "Scale"
  bottom: "Convolution8"
  top: "Convolution8"
  scale_param {
    bias_term: true
  }
}
layer {
  name: "ReLU8"
  type: "ReLU"
  bottom: "Convolution8"
  top: "Convolution8"
}
layer {
  name: "Convolution9"
  type: "Convolution"
  bottom: "Convolution8"
  top: "Convolution9"
  convolution_param {
    num_output: 64
    bias_term: true
    pad: 1
    kernel_size: 3
    stride: 1
    weight_filler {
      type: "xavier"
    }
    bias_filler {
      type: "constant"
    }
  }
}
layer {
  name: "BatchNorm9"
  type: "BatchNorm"
  bottom: "Convolution9"
  top: "Convolution9"
  param {
    lr_mult: 0
    decay_mult: 0
  }
  param {
    lr_mult: 0
    decay_mult: 0
  }
  param {
    lr_mult: 0
    decay_mult: 0
  }
  batch_norm_param {
    use_global_stats: false
  }
}
layer {
  name: "Scale9"
  type: "Scale"
  bottom: "Convolution9"
  top: "Convolution9"
  scale_param {
    bias_term: true
  }
}
layer {
  name: "Convolution10"
  type: "Convolution"
  bottom: "Eltwise3"
  top: "Convolution10"
  convolution_param {
    num_output: 64
    bias_term: true
    pad: 0
    kernel_size: 1
    stride: 2
    weight_filler {
      type: "xavier"
    }
    bias_filler {
      type: "constant"
    }
  }
}
layer {
  name: "BatchNorm10"
  type: "BatchNorm"
  bottom: "Convolution10"
  top: "Convolution10"
  param {
    lr_mult: 0
    decay_mult: 0
  }
  param {
    lr_mult: 0
    decay_mult: 0
  }
  param {
    lr_mult: 0
    decay_mult: 0
  }
  batch_norm_param {
    use_global_stats: false
  }
}
layer {
  name: "Scale10"
  type: "Scale"
  bottom: "Convolution10"
  top: "Convolution10"
  scale_param {
    bias_term: true
  }
}
layer {
  name: "Eltwise4"
  type: "Eltwise"
  bottom: "Convolution9"
  bottom: "Convolution10"
  top: "Eltwise4"
  eltwise_param {
    operation: SUM
  }
}
layer {
  name: "ReLU9"
  type: "ReLU"
  bottom: "Eltwise4"
  top: "Eltwise4"
}
layer {
  name: "Convolution11"
  type: "Convolution"
  bottom: "Eltwise4"
  top: "Convolution11"
  convolution_param {
    num_output: 64
    bias_term: true
    pad: 1
    kernel_size: 3
    stride: 1
    weight_filler {
      type: "xavier"
    }
    bias_filler {
      type: "constant"
    }
  }
}
layer {
  name: "BatchNorm11"
  type: "BatchNorm"
  bottom: "Convolution11"
  top: "Convolution11"
  param {
    lr_mult: 0
    decay_mult: 0
  }
  param {
    lr_mult: 0
    decay_mult: 0
  }
  param {
    lr_mult: 0
    decay_mult: 0
  }
  batch_norm_param {
    use_global_stats: false
  }
}
layer {
  name: "Scale11"
  type: "Scale"
  bottom: "Convolution11"
  top: "Convolution11"
  scale_param {
    bias_term: true
  }
}
layer {
  name: "ReLU10"
  type: "ReLU"
  bottom: "Convolution11"
  top: "Convolution11"
}
layer {
  name: "Convolution12"
  type: "Convolution"
  bottom: "Convolution11"
  top: "Convolution12"
  convolution_param {
    num_output: 64
    bias_term: true
    pad: 1
    kernel_size: 3
    stride: 1
    weight_filler {
      type: "xavier"
    }
    bias_filler {
      type: "constant"
    }
  }
}
layer {
  name: "BatchNorm12"
  type: "BatchNorm"
  bottom: "Convolution12"
  top: "Convolution12"
  param {
    lr_mult: 0
    decay_mult: 0
  }
  param {
    lr_mult: 0
    decay_mult: 0
  }
  param {
    lr_mult: 0
    decay_mult: 0
  }
  batch_norm_param {
    use_global_stats: false
  }
}
layer {
  name: "Scale12"
  type: "Scale"
  bottom: "Convolution12"
  top: "Convolution12"
  scale_param {
    bias_term: true
  }
}
layer {
  name: "Eltwise5"
  type: "Eltwise"
  bottom: "Convolution12"
  bottom: "Eltwise4"
  top: "Eltwise5"
  eltwise_param {
    operation: SUM
  }
}
layer {
  name: "ReLU11"
  type: "ReLU"
  bottom: "Eltwise5"
  top: "Eltwise5"
}
layer {
  name: "Convolution13"
  type: "Convolution"
  bottom: "Eltwise5"
  top: "Convolution13"
  convolution_param {
    num_output: 64
    bias_term: true
    pad: 1
    kernel_size: 3
    stride: 1
    weight_filler {
      type: "xavier"
    }
    bias_filler {
      type: "constant"
    }
  }
}
layer {
  name: "BatchNorm13"
  type: "BatchNorm"
  bottom: "Convolution13"
  top: "Convolution13"
  param {
    lr_mult: 0
    decay_mult: 0
  }
  param {
    lr_mult: 0
    decay_mult: 0
  }
  param {
    lr_mult: 0
    decay_mult: 0
  }
  batch_norm_param {
    use_global_stats: false
  }
}
layer {
  name: "Scale13"
  type: "Scale"
  bottom: "Convolution13"
  top: "Convolution13"
  scale_param {
    bias_term: true
  }
}
layer {
  name: "ReLU12"
  type: "ReLU"
  bottom: "Convolution13"
  top: "Convolution13"
}
layer {
  name: "Convolution14"
  type: "Convolution"
  bottom: "Convolution13"
  top: "Convolution14"
  convolution_param {
    num_output: 64
    bias_term: true
    pad: 1
    kernel_size: 3
    stride: 1
    weight_filler {
      type: "xavier"
    }
    bias_filler {
      type: "constant"
    }
  }
}
layer {
  name: "BatchNorm14"
  type: "BatchNorm"
  bottom: "Convolution14"
  top: "Convolution14"
  param {
    lr_mult: 0
    decay_mult: 0
  }
  param {
    lr_mult: 0
    decay_mult: 0
  }
  param {
    lr_mult: 0
    decay_mult: 0
  }
  batch_norm_param {
    use_global_stats: false
  }
}
layer {
  name: "Scale14"
  type: "Scale"
  bottom: "Convolution14"
  top: "Convolution14"
  scale_param {
    bias_term: true
  }
}
layer {
  name: "Eltwise6"
  type: "Eltwise"
  bottom: "Convolution14"
  bottom: "Eltwise5"
  top: "Eltwise6"
  eltwise_param {
    operation: SUM
  }
}
layer {
  name: "ReLU13"
  type: "ReLU"
  bottom: "Eltwise6"
  top: "Eltwise6"
}
layer {
  name: "Convolution15"
  type: "Convolution"
  bottom: "Eltwise6"
  top: "Convolution15"
  convolution_param {
    num_output: 128
    bias_term: true
    pad: 1
    kernel_size: 3
    stride: 2
    weight_filler {
      type: "xavier"
    }
    bias_filler {
      type: "constant"
    }
  }
}
layer {
  name: "BatchNorm15"
  type: "BatchNorm"
  bottom: "Convolution15"
  top: "Convolution15"
  param {
    lr_mult: 0
    decay_mult: 0
  }
  param {
    lr_mult: 0
    decay_mult: 0
  }
  param {
    lr_mult: 0
    decay_mult: 0
  }
  batch_norm_param {
    use_global_stats: false
  }
}
layer {
  name: "Scale15"
  type: "Scale"
  bottom: "Convolution15"
  top: "Convolution15"
  scale_param {
    bias_term: true
  }
}
layer {
  name: "ReLU14"
  type: "ReLU"
  bottom: "Convolution15"
  top: "Convolution15"
}
layer {
  name: "Convolution16"
  type: "Convolution"
  bottom: "Convolution15"
  top: "Convolution16"
  convolution_param {
    num_output: 128
    bias_term: true
    pad: 1
    kernel_size: 3
    stride: 1
    weight_filler {
      type: "xavier"
    }
    bias_filler {
      type: "constant"
    }
  }
}
layer {
  name: "BatchNorm16"
  type: "BatchNorm"
  bottom: "Convolution16"
  top: "Convolution16"
  param {
    lr_mult: 0
    decay_mult: 0
  }
  param {
    lr_mult: 0
    decay_mult: 0
  }
  param {
    lr_mult: 0
    decay_mult: 0
  }
  batch_norm_param {
    use_global_stats: false
  }
}
layer {
  name: "Scale16"
  type: "Scale"
  bottom: "Convolution16"
  top: "Convolution16"
  scale_param {
    bias_term: true
  }
}
layer {
  name: "Convolution17"
  type: "Convolution"
  bottom: "Eltwise6"
  top: "Convolution17"
  convolution_param {
    num_output: 128
    bias_term: true
    pad: 0
    kernel_size: 1
    stride: 2
    weight_filler {
      type: "xavier"
    }
    bias_filler {
      type: "constant"
    }
  }
}
layer {
  name: "BatchNorm17"
  type: "BatchNorm"
  bottom: "Convolution17"
  top: "Convolution17"
  param {
    lr_mult: 0
    decay_mult: 0
  }
  param {
    lr_mult: 0
    decay_mult: 0
  }
  param {
    lr_mult: 0
    decay_mult: 0
  }
  batch_norm_param {
    use_global_stats: false
  }
}
layer {
  name: "Scale17"
  type: "Scale"
  bottom: "Convolution17"
  top: "Convolution17"
  scale_param {
    bias_term: true
  }
}
layer {
  name: "Eltwise7"
  type: "Eltwise"
  bottom: "Convolution16"
  bottom: "Convolution17"
  top: "Eltwise7"
  eltwise_param {
    operation: SUM
  }
}
layer {
  name: "ReLU15"
  type: "ReLU"
  bottom: "Eltwise7"
  top: "Eltwise7"
}
layer {
  name: "Convolution18"
  type: "Convolution"
  bottom: "Eltwise7"
  top: "Convolution18"
  convolution_param {
    num_output: 128
    bias_term: true
    pad: 1
    kernel_size: 3
    stride: 1
    weight_filler {
      type: "xavier"
    }
    bias_filler {
      type: "constant"
    }
  }
}
layer {
  name: "BatchNorm18"
  type: "BatchNorm"
  bottom: "Convolution18"
  top: "Convolution18"
  param {
    lr_mult: 0
    decay_mult: 0
  }
  param {
    lr_mult: 0
    decay_mult: 0
  }
  param {
    lr_mult: 0
    decay_mult: 0
  }
  batch_norm_param {
    use_global_stats: false
  }
}
layer {
  name: "Scale18"
  type: "Scale"
  bottom: "Convolution18"
  top: "Convolution18"
  scale_param {
    bias_term: true
  }
}
layer {
  name: "ReLU16"
  type: "ReLU"
  bottom: "Convolution18"
  top: "Convolution18"
}
layer {
  name: "Convolution19"
  type: "Convolution"
  bottom: "Convolution18"
  top: "Convolution19"
  convolution_param {
    num_output: 128
    bias_term: true
    pad: 1
    kernel_size: 3
    stride: 1
    weight_filler {
      type: "xavier"
    }
    bias_filler {
      type: "constant"
    }
  }
}
layer {
  name: "BatchNorm19"
  type: "BatchNorm"
  bottom: "Convolution19"
  top: "Convolution19"
  param {
    lr_mult: 0
    decay_mult: 0
  }
  param {
    lr_mult: 0
    decay_mult: 0
  }
  param {
    lr_mult: 0
    decay_mult: 0
  }
  batch_norm_param {
    use_global_stats: false
  }
}
layer {
  name: "Scale19"
  type: "Scale"
  bottom: "Convolution19"
  top: "Convolution19"
  scale_param {
    bias_term: true
  }
}
layer {
  name: "Eltwise8"
  type: "Eltwise"
  bottom: "Convolution19"
  bottom: "Eltwise7"
  top: "Eltwise8"
  eltwise_param {
    operation: SUM
  }
}
layer {
  name: "ReLU17"
  type: "ReLU"
  bottom: "Eltwise8"
  top: "Eltwise8"
}
layer {
  name: "Convolution20"
  type: "Convolution"
  bottom: "Eltwise8"
  top: "Convolution20"
  convolution_param {
    num_output: 128
    bias_term: true
    pad: 1
    kernel_size: 3
    stride: 1
    weight_filler {
      type: "xavier"
    }
    bias_filler {
      type: "constant"
    }
  }
}
layer {
  name: "BatchNorm20"
  type: "BatchNorm"
  bottom: "Convolution20"
  top: "Convolution20"
  param {
    lr_mult: 0
    decay_mult: 0
  }
  param {
    lr_mult: 0
    decay_mult: 0
  }
  param {
    lr_mult: 0
    decay_mult: 0
  }
  batch_norm_param {
    use_global_stats: false
  }
}
layer {
  name: "Scale20"
  type: "Scale"
  bottom: "Convolution20"
  top: "Convolution20"
  scale_param {
    bias_term: true
  }
}
layer {
  name: "ReLU18"
  type: "ReLU"
  bottom: "Convolution20"
  top: "Convolution20"
}
layer {
  name: "Convolution21"
  type: "Convolution"
  bottom: "Convolution20"
  top: "Convolution21"
  convolution_param {
    num_output: 128
    bias_term: true
    pad: 1
    kernel_size: 3
    stride: 1
    weight_filler {
      type: "xavier"
    }
    bias_filler {
      type: "constant"
    }
  }
}
layer {
  name: "BatchNorm21"
  type: "BatchNorm"
  bottom: "Convolution21"
  top: "Convolution21"
  param {
    lr_mult: 0
    decay_mult: 0
  }
  param {
    lr_mult: 0
    decay_mult: 0
  }
  param {
    lr_mult: 0
    decay_mult: 0
  }
  batch_norm_param {
    use_global_stats: false
  }
}
layer {
  name: "Scale21"
  type: "Scale"
  bottom: "Convolution21"
  top: "Convolution21"
  scale_param {
    bias_term: true
  }
}
layer {
  name: "Eltwise9"
  type: "Eltwise"
  bottom: "Convolution21"
  bottom: "Eltwise8"
  top: "Eltwise9"
  eltwise_param {
    operation: SUM
  }
}
layer {
  name: "ReLU19"
  type: "ReLU"
  bottom: "Eltwise9"
  top: "Eltwise9"
}
layer {
  name: "Deconvolution1"
  type: "Deconvolution"
  bottom: "Eltwise9"
  top: "Deconvolution1"
  convolution_param {
    num_output: 128
    bias_term: true
    pad: 0
    kernel_size: 2
    stride: 2
    weight_filler {
      type: "xavier"
    }
    bias_filler {
      type: "constant"
    }
  }
}
layer {
  name: "BatchNorm22"
  type: "BatchNorm"
  bottom: "Deconvolution1"
  top: "Deconvolution1"
  param {
    lr_mult: 0
    decay_mult: 0
  }
  param {
    lr_mult: 0
    decay_mult: 0
  }
  param {
    lr_mult: 0
    decay_mult: 0
  }
  batch_norm_param {
    use_global_stats: false
  }
}
layer {
  name: "Scale22"
  type: "Scale"
  bottom: "Deconvolution1"
  top: "Deconvolution1"
  scale_param {
    bias_term: true
  }
}
layer {
  name: "ReLU20"
  type: "ReLU"
  bottom: "Deconvolution1"
  top: "Deconvolution1"
}
layer {
  name: "Deconvolution2"
  type: "Deconvolution"
  bottom: "Deconvolution1"
  top: "Deconvolution2"
  convolution_param {
    num_output: 64
    bias_term: true
    pad: 0
    kernel_size: 2
    stride: 2
    weight_filler {
      type: "xavier"
    }
    bias_filler {
      type: "constant"
    }
  }
}
layer {
  name: "BatchNorm23"
  type: "BatchNorm"
  bottom: "Deconvolution2"
  top: "Deconvolution2"
  param {
    lr_mult: 0
    decay_mult: 0
  }
  param {
    lr_mult: 0
    decay_mult: 0
  }
  param {
    lr_mult: 0
    decay_mult: 0
  }
  batch_norm_param {
    use_global_stats: false
  }
}
layer {
  name: "Scale23"
  type: "Scale"
  bottom: "Deconvolution2"
  top: "Deconvolution2"
  scale_param {
    bias_term: true
  }
}
layer {
  name: "ReLU21"
  type: "ReLU"
  bottom: "Deconvolution2"
  top: "Deconvolution2"
}
layer {
  name: "Deconvolution3"
  type: "Deconvolution"
  bottom: "Deconvolution2"
  top: "Deconvolution3"
  convolution_param {
    num_output: 32
    bias_term: true
    pad: 0
    kernel_size: 2
    stride: 2
    weight_filler {
      type: "xavier"
    }
    bias_filler {
      type: "constant"
    }
  }
}
layer {
  name: "BatchNorm24"
  type: "BatchNorm"
  bottom: "Deconvolution3"
  top: "Deconvolution3"
  param {
    lr_mult: 0
    decay_mult: 0
  }
  param {
    lr_mult: 0
    decay_mult: 0
  }
  param {
    lr_mult: 0
    decay_mult: 0
  }
  batch_norm_param {
    use_global_stats: false
  }
}
layer {
  name: "Scale24"
  type: "Scale"
  bottom: "Deconvolution3"
  top: "Deconvolution3"
  scale_param {
    bias_term: true
  }
}
layer {
  name: "ReLU22"
  type: "ReLU"
  bottom: "Deconvolution3"
  top: "Deconvolution3"
}
layer {
  name: "Convolution22"
  type: "Convolution"
  bottom: "Deconvolution3"
  top: "Convolution22"
  convolution_param {
    num_output: 1
    bias_term: true
    pad: 0
    kernel_size: 1
    stride: 1
    weight_filler {
      type: "xavier"
    }
    bias_filler {
      type: "constant"
    }
  }
}
layer {
  name: "ReLU23"
  type: "ReLU"
  bottom: "Convolution22"
  top: "Convolution22"
}
layer {
  name: "Loss"
  type: "EuclideanLoss"
  bottom: "Convolution22"
  bottom: "Data5"
  top: "Loss"
  propagate_down: true
  propagate_down: false
}
I0306 13:07:35.928561  9778 layer_factory.hpp:77] Creating layer Data1
I0306 13:07:35.928804  9778 db_lmdb.cpp:35] Opened lmdb /data3/lzh/1000x224x224/raw_data_photon_dis
I0306 13:07:35.928855  9778 net.cpp:84] Creating Layer Data1
I0306 13:07:35.928879  9778 net.cpp:380] Data1 -> Data1
I0306 13:07:35.928936  9778 net.cpp:380] Data1 -> Data2
I0306 13:07:35.955596  9778 data_layer.cpp:45] output data size: 24,20,224,224
I0306 13:07:36.254331  9778 net.cpp:122] Setting up Data1
I0306 13:07:36.254449  9778 net.cpp:129] Top shape: 24 20 224 224 (24084480)
I0306 13:07:36.254467  9778 net.cpp:129] Top shape: 24 (24)
I0306 13:07:36.254475  9778 net.cpp:137] Memory required for data: 96338016
I0306 13:07:36.254503  9778 layer_factory.hpp:77] Creating layer Data3
I0306 13:07:36.254683  9778 db_lmdb.cpp:35] Opened lmdb /data3/lzh/1000x224x224/raw_data_photon_flux
I0306 13:07:36.254724  9778 net.cpp:84] Creating Layer Data3
I0306 13:07:36.254739  9778 net.cpp:380] Data3 -> Data3
I0306 13:07:36.254760  9778 net.cpp:380] Data3 -> Data4
I0306 13:07:36.261420  9778 data_layer.cpp:45] output data size: 24,20,224,224
I0306 13:07:36.564343  9778 net.cpp:122] Setting up Data3
I0306 13:07:36.564435  9778 net.cpp:129] Top shape: 24 20 224 224 (24084480)
I0306 13:07:36.564450  9778 net.cpp:129] Top shape: 24 (24)
I0306 13:07:36.564460  9778 net.cpp:137] Memory required for data: 192676032
I0306 13:07:36.564512  9778 layer_factory.hpp:77] Creating layer Data5
I0306 13:07:36.564657  9778 db_lmdb.cpp:35] Opened lmdb /data3/lzh/1000x224x224/raw_data_conv
I0306 13:07:36.564700  9778 net.cpp:84] Creating Layer Data5
I0306 13:07:36.564721  9778 net.cpp:380] Data5 -> Data5
I0306 13:07:36.564748  9778 net.cpp:380] Data5 -> Data6
I0306 13:07:36.564934  9778 data_layer.cpp:45] output data size: 24,1,224,224
I0306 13:07:36.601002  9778 net.cpp:122] Setting up Data5
I0306 13:07:36.601064  9778 net.cpp:129] Top shape: 24 1 224 224 (1204224)
I0306 13:07:36.601089  9778 net.cpp:129] Top shape: 24 (24)
I0306 13:07:36.601100  9778 net.cpp:137] Memory required for data: 197493024
I0306 13:07:36.601112  9778 layer_factory.hpp:77] Creating layer Silence
I0306 13:07:36.601145  9778 net.cpp:84] Creating Layer Silence
I0306 13:07:36.601161  9778 net.cpp:406] Silence <- Data2
I0306 13:07:36.601227  9778 net.cpp:406] Silence <- Data4
I0306 13:07:36.601240  9778 net.cpp:406] Silence <- Data6
I0306 13:07:36.601251  9778 net.cpp:122] Setting up Silence
I0306 13:07:36.601260  9778 net.cpp:137] Memory required for data: 197493024
I0306 13:07:36.601269  9778 layer_factory.hpp:77] Creating layer Concat1
I0306 13:07:36.601294  9778 net.cpp:84] Creating Layer Concat1
I0306 13:07:36.601302  9778 net.cpp:406] Concat1 <- Data1
I0306 13:07:36.601311  9778 net.cpp:406] Concat1 <- Data3
I0306 13:07:36.601323  9778 net.cpp:380] Concat1 -> Concat1
I0306 13:07:36.601393  9778 net.cpp:122] Setting up Concat1
I0306 13:07:36.601409  9778 net.cpp:129] Top shape: 24 40 224 224 (48168960)
I0306 13:07:36.601418  9778 net.cpp:137] Memory required for data: 390168864
I0306 13:07:36.601434  9778 layer_factory.hpp:77] Creating layer Convolution1
I0306 13:07:36.601461  9778 net.cpp:84] Creating Layer Convolution1
I0306 13:07:36.601471  9778 net.cpp:406] Convolution1 <- Concat1
I0306 13:07:36.601485  9778 net.cpp:380] Convolution1 -> Convolution1
I0306 13:07:36.606387  9778 net.cpp:122] Setting up Convolution1
I0306 13:07:36.606469  9778 net.cpp:129] Top shape: 24 32 112 112 (9633792)
I0306 13:07:36.606482  9778 net.cpp:137] Memory required for data: 428704032
I0306 13:07:36.606510  9778 layer_factory.hpp:77] Creating layer BatchNorm1
I0306 13:07:36.606544  9778 net.cpp:84] Creating Layer BatchNorm1
I0306 13:07:36.606556  9778 net.cpp:406] BatchNorm1 <- Convolution1
I0306 13:07:36.606590  9778 net.cpp:367] BatchNorm1 -> Convolution1 (in-place)
I0306 13:07:36.606917  9778 net.cpp:122] Setting up BatchNorm1
I0306 13:07:36.606935  9778 net.cpp:129] Top shape: 24 32 112 112 (9633792)
I0306 13:07:36.606943  9778 net.cpp:137] Memory required for data: 467239200
I0306 13:07:36.606963  9778 layer_factory.hpp:77] Creating layer Scale1
I0306 13:07:36.606993  9778 net.cpp:84] Creating Layer Scale1
I0306 13:07:36.607005  9778 net.cpp:406] Scale1 <- Convolution1
I0306 13:07:36.607017  9778 net.cpp:367] Scale1 -> Convolution1 (in-place)
I0306 13:07:36.607091  9778 layer_factory.hpp:77] Creating layer Scale1
I0306 13:07:36.607283  9778 net.cpp:122] Setting up Scale1
I0306 13:07:36.607300  9778 net.cpp:129] Top shape: 24 32 112 112 (9633792)
I0306 13:07:36.607308  9778 net.cpp:137] Memory required for data: 505774368
I0306 13:07:36.607321  9778 layer_factory.hpp:77] Creating layer ReLU1
I0306 13:07:36.607342  9778 net.cpp:84] Creating Layer ReLU1
I0306 13:07:36.607350  9778 net.cpp:406] ReLU1 <- Convolution1
I0306 13:07:36.607370  9778 net.cpp:367] ReLU1 -> Convolution1 (in-place)
I0306 13:07:36.607383  9778 net.cpp:122] Setting up ReLU1
I0306 13:07:36.607394  9778 net.cpp:129] Top shape: 24 32 112 112 (9633792)
I0306 13:07:36.607403  9778 net.cpp:137] Memory required for data: 544309536
I0306 13:07:36.607424  9778 layer_factory.hpp:77] Creating layer Convolution1_ReLU1_0_split
I0306 13:07:36.607436  9778 net.cpp:84] Creating Layer Convolution1_ReLU1_0_split
I0306 13:07:36.607445  9778 net.cpp:406] Convolution1_ReLU1_0_split <- Convolution1
I0306 13:07:36.607456  9778 net.cpp:380] Convolution1_ReLU1_0_split -> Convolution1_ReLU1_0_split_0
I0306 13:07:36.607476  9778 net.cpp:380] Convolution1_ReLU1_0_split -> Convolution1_ReLU1_0_split_1
I0306 13:07:36.607568  9778 net.cpp:122] Setting up Convolution1_ReLU1_0_split
I0306 13:07:36.607583  9778 net.cpp:129] Top shape: 24 32 112 112 (9633792)
I0306 13:07:36.607594  9778 net.cpp:129] Top shape: 24 32 112 112 (9633792)
I0306 13:07:36.607601  9778 net.cpp:137] Memory required for data: 621379872
I0306 13:07:36.607609  9778 layer_factory.hpp:77] Creating layer Convolution2
I0306 13:07:36.607635  9778 net.cpp:84] Creating Layer Convolution2
I0306 13:07:36.607646  9778 net.cpp:406] Convolution2 <- Convolution1_ReLU1_0_split_0
I0306 13:07:36.607659  9778 net.cpp:380] Convolution2 -> Convolution2
I0306 13:07:36.608047  9778 net.cpp:122] Setting up Convolution2
I0306 13:07:36.608064  9778 net.cpp:129] Top shape: 24 32 112 112 (9633792)
I0306 13:07:36.608072  9778 net.cpp:137] Memory required for data: 659915040
I0306 13:07:36.608089  9778 layer_factory.hpp:77] Creating layer BatchNorm2
I0306 13:07:36.608103  9778 net.cpp:84] Creating Layer BatchNorm2
I0306 13:07:36.608114  9778 net.cpp:406] BatchNorm2 <- Convolution2
I0306 13:07:36.608125  9778 net.cpp:367] BatchNorm2 -> Convolution2 (in-place)
I0306 13:07:36.608345  9778 net.cpp:122] Setting up BatchNorm2
I0306 13:07:36.608359  9778 net.cpp:129] Top shape: 24 32 112 112 (9633792)
I0306 13:07:36.608367  9778 net.cpp:137] Memory required for data: 698450208
I0306 13:07:36.608381  9778 layer_factory.hpp:77] Creating layer Scale2
I0306 13:07:36.608403  9778 net.cpp:84] Creating Layer Scale2
I0306 13:07:36.608412  9778 net.cpp:406] Scale2 <- Convolution2
I0306 13:07:36.608433  9778 net.cpp:367] Scale2 -> Convolution2 (in-place)
I0306 13:07:36.608489  9778 layer_factory.hpp:77] Creating layer Scale2
I0306 13:07:36.608674  9778 net.cpp:122] Setting up Scale2
I0306 13:07:36.608690  9778 net.cpp:129] Top shape: 24 32 112 112 (9633792)
I0306 13:07:36.608697  9778 net.cpp:137] Memory required for data: 736985376
I0306 13:07:36.608717  9778 layer_factory.hpp:77] Creating layer ReLU2
I0306 13:07:36.608734  9778 net.cpp:84] Creating Layer ReLU2
I0306 13:07:36.608742  9778 net.cpp:406] ReLU2 <- Convolution2
I0306 13:07:36.608754  9778 net.cpp:367] ReLU2 -> Convolution2 (in-place)
I0306 13:07:36.608765  9778 net.cpp:122] Setting up ReLU2
I0306 13:07:36.608777  9778 net.cpp:129] Top shape: 24 32 112 112 (9633792)
I0306 13:07:36.608784  9778 net.cpp:137] Memory required for data: 775520544
I0306 13:07:36.608793  9778 layer_factory.hpp:77] Creating layer Convolution3
I0306 13:07:36.608814  9778 net.cpp:84] Creating Layer Convolution3
I0306 13:07:36.608824  9778 net.cpp:406] Convolution3 <- Convolution2
I0306 13:07:36.608836  9778 net.cpp:380] Convolution3 -> Convolution3
I0306 13:07:36.609220  9778 net.cpp:122] Setting up Convolution3
I0306 13:07:36.609238  9778 net.cpp:129] Top shape: 24 32 112 112 (9633792)
I0306 13:07:36.609247  9778 net.cpp:137] Memory required for data: 814055712
I0306 13:07:36.609259  9778 layer_factory.hpp:77] Creating layer BatchNorm3
I0306 13:07:36.609272  9778 net.cpp:84] Creating Layer BatchNorm3
I0306 13:07:36.609282  9778 net.cpp:406] BatchNorm3 <- Convolution3
I0306 13:07:36.609294  9778 net.cpp:367] BatchNorm3 -> Convolution3 (in-place)
I0306 13:07:36.610074  9778 net.cpp:122] Setting up BatchNorm3
I0306 13:07:36.610110  9778 net.cpp:129] Top shape: 24 32 112 112 (9633792)
I0306 13:07:36.610121  9778 net.cpp:137] Memory required for data: 852590880
I0306 13:07:36.610146  9778 layer_factory.hpp:77] Creating layer Scale3
I0306 13:07:36.610183  9778 net.cpp:84] Creating Layer Scale3
I0306 13:07:36.610193  9778 net.cpp:406] Scale3 <- Convolution3
I0306 13:07:36.610216  9778 net.cpp:367] Scale3 -> Convolution3 (in-place)
I0306 13:07:36.610281  9778 layer_factory.hpp:77] Creating layer Scale3
I0306 13:07:36.610460  9778 net.cpp:122] Setting up Scale3
I0306 13:07:36.610474  9778 net.cpp:129] Top shape: 24 32 112 112 (9633792)
I0306 13:07:36.610483  9778 net.cpp:137] Memory required for data: 891126048
I0306 13:07:36.610496  9778 layer_factory.hpp:77] Creating layer Eltwise1
I0306 13:07:36.610554  9778 net.cpp:84] Creating Layer Eltwise1
I0306 13:07:36.610566  9778 net.cpp:406] Eltwise1 <- Convolution3
I0306 13:07:36.610576  9778 net.cpp:406] Eltwise1 <- Convolution1_ReLU1_0_split_1
I0306 13:07:36.610589  9778 net.cpp:380] Eltwise1 -> Eltwise1
I0306 13:07:36.610628  9778 net.cpp:122] Setting up Eltwise1
I0306 13:07:36.610651  9778 net.cpp:129] Top shape: 24 32 112 112 (9633792)
I0306 13:07:36.610661  9778 net.cpp:137] Memory required for data: 929661216
I0306 13:07:36.610668  9778 layer_factory.hpp:77] Creating layer ReLU3
I0306 13:07:36.610680  9778 net.cpp:84] Creating Layer ReLU3
I0306 13:07:36.610689  9778 net.cpp:406] ReLU3 <- Eltwise1
I0306 13:07:36.610700  9778 net.cpp:367] ReLU3 -> Eltwise1 (in-place)
I0306 13:07:36.610711  9778 net.cpp:122] Setting up ReLU3
I0306 13:07:36.610721  9778 net.cpp:129] Top shape: 24 32 112 112 (9633792)
I0306 13:07:36.610738  9778 net.cpp:137] Memory required for data: 968196384
I0306 13:07:36.610745  9778 layer_factory.hpp:77] Creating layer Eltwise1_ReLU3_0_split
I0306 13:07:36.610757  9778 net.cpp:84] Creating Layer Eltwise1_ReLU3_0_split
I0306 13:07:36.610765  9778 net.cpp:406] Eltwise1_ReLU3_0_split <- Eltwise1
I0306 13:07:36.610786  9778 net.cpp:380] Eltwise1_ReLU3_0_split -> Eltwise1_ReLU3_0_split_0
I0306 13:07:36.610797  9778 net.cpp:380] Eltwise1_ReLU3_0_split -> Eltwise1_ReLU3_0_split_1
I0306 13:07:36.610844  9778 net.cpp:122] Setting up Eltwise1_ReLU3_0_split
I0306 13:07:36.610857  9778 net.cpp:129] Top shape: 24 32 112 112 (9633792)
I0306 13:07:36.610888  9778 net.cpp:129] Top shape: 24 32 112 112 (9633792)
I0306 13:07:36.610896  9778 net.cpp:137] Memory required for data: 1045266720
I0306 13:07:36.610904  9778 layer_factory.hpp:77] Creating layer Convolution4
I0306 13:07:36.610931  9778 net.cpp:84] Creating Layer Convolution4
I0306 13:07:36.610955  9778 net.cpp:406] Convolution4 <- Eltwise1_ReLU3_0_split_0
I0306 13:07:36.610968  9778 net.cpp:380] Convolution4 -> Convolution4
I0306 13:07:36.611330  9778 net.cpp:122] Setting up Convolution4
I0306 13:07:36.611346  9778 net.cpp:129] Top shape: 24 32 112 112 (9633792)
I0306 13:07:36.611364  9778 net.cpp:137] Memory required for data: 1083801888
I0306 13:07:36.611377  9778 layer_factory.hpp:77] Creating layer BatchNorm4
I0306 13:07:36.611392  9778 net.cpp:84] Creating Layer BatchNorm4
I0306 13:07:36.611399  9778 net.cpp:406] BatchNorm4 <- Convolution4
I0306 13:07:36.611412  9778 net.cpp:367] BatchNorm4 -> Convolution4 (in-place)
I0306 13:07:36.611649  9778 net.cpp:122] Setting up BatchNorm4
I0306 13:07:36.611665  9778 net.cpp:129] Top shape: 24 32 112 112 (9633792)
I0306 13:07:36.611673  9778 net.cpp:137] Memory required for data: 1122337056
I0306 13:07:36.611686  9778 layer_factory.hpp:77] Creating layer Scale4
I0306 13:07:36.611713  9778 net.cpp:84] Creating Layer Scale4
I0306 13:07:36.611734  9778 net.cpp:406] Scale4 <- Convolution4
I0306 13:07:36.611745  9778 net.cpp:367] Scale4 -> Convolution4 (in-place)
I0306 13:07:36.611814  9778 layer_factory.hpp:77] Creating layer Scale4
I0306 13:07:36.611977  9778 net.cpp:122] Setting up Scale4
I0306 13:07:36.611997  9778 net.cpp:129] Top shape: 24 32 112 112 (9633792)
I0306 13:07:36.612005  9778 net.cpp:137] Memory required for data: 1160872224
I0306 13:07:36.612016  9778 layer_factory.hpp:77] Creating layer ReLU4
I0306 13:07:36.612030  9778 net.cpp:84] Creating Layer ReLU4
I0306 13:07:36.612037  9778 net.cpp:406] ReLU4 <- Convolution4
I0306 13:07:36.612048  9778 net.cpp:367] ReLU4 -> Convolution4 (in-place)
I0306 13:07:36.612059  9778 net.cpp:122] Setting up ReLU4
I0306 13:07:36.612069  9778 net.cpp:129] Top shape: 24 32 112 112 (9633792)
I0306 13:07:36.612078  9778 net.cpp:137] Memory required for data: 1199407392
I0306 13:07:36.612094  9778 layer_factory.hpp:77] Creating layer Convolution5
I0306 13:07:36.612118  9778 net.cpp:84] Creating Layer Convolution5
I0306 13:07:36.612128  9778 net.cpp:406] Convolution5 <- Convolution4
I0306 13:07:36.612150  9778 net.cpp:380] Convolution5 -> Convolution5
I0306 13:07:36.612502  9778 net.cpp:122] Setting up Convolution5
I0306 13:07:36.612560  9778 net.cpp:129] Top shape: 24 32 112 112 (9633792)
I0306 13:07:36.612568  9778 net.cpp:137] Memory required for data: 1237942560
I0306 13:07:36.612581  9778 layer_factory.hpp:77] Creating layer BatchNorm5
I0306 13:07:36.612598  9778 net.cpp:84] Creating Layer BatchNorm5
I0306 13:07:36.612607  9778 net.cpp:406] BatchNorm5 <- Convolution5
I0306 13:07:36.612619  9778 net.cpp:367] BatchNorm5 -> Convolution5 (in-place)
I0306 13:07:36.612866  9778 net.cpp:122] Setting up BatchNorm5
I0306 13:07:36.612884  9778 net.cpp:129] Top shape: 24 32 112 112 (9633792)
I0306 13:07:36.612892  9778 net.cpp:137] Memory required for data: 1276477728
I0306 13:07:36.612915  9778 layer_factory.hpp:77] Creating layer Scale5
I0306 13:07:36.612928  9778 net.cpp:84] Creating Layer Scale5
I0306 13:07:36.612936  9778 net.cpp:406] Scale5 <- Convolution5
I0306 13:07:36.612947  9778 net.cpp:367] Scale5 -> Convolution5 (in-place)
I0306 13:07:36.613000  9778 layer_factory.hpp:77] Creating layer Scale5
I0306 13:07:36.613159  9778 net.cpp:122] Setting up Scale5
I0306 13:07:36.613174  9778 net.cpp:129] Top shape: 24 32 112 112 (9633792)
I0306 13:07:36.613183  9778 net.cpp:137] Memory required for data: 1315012896
I0306 13:07:36.613204  9778 layer_factory.hpp:77] Creating layer Eltwise2
I0306 13:07:36.613242  9778 net.cpp:84] Creating Layer Eltwise2
I0306 13:07:36.613263  9778 net.cpp:406] Eltwise2 <- Convolution5
I0306 13:07:36.613274  9778 net.cpp:406] Eltwise2 <- Eltwise1_ReLU3_0_split_1
I0306 13:07:36.613286  9778 net.cpp:380] Eltwise2 -> Eltwise2
I0306 13:07:36.613319  9778 net.cpp:122] Setting up Eltwise2
I0306 13:07:36.613332  9778 net.cpp:129] Top shape: 24 32 112 112 (9633792)
I0306 13:07:36.613339  9778 net.cpp:137] Memory required for data: 1353548064
I0306 13:07:36.613348  9778 layer_factory.hpp:77] Creating layer ReLU5
I0306 13:07:36.613368  9778 net.cpp:84] Creating Layer ReLU5
I0306 13:07:36.613376  9778 net.cpp:406] ReLU5 <- Eltwise2
I0306 13:07:36.613389  9778 net.cpp:367] ReLU5 -> Eltwise2 (in-place)
I0306 13:07:36.613399  9778 net.cpp:122] Setting up ReLU5
I0306 13:07:36.613410  9778 net.cpp:129] Top shape: 24 32 112 112 (9633792)
I0306 13:07:36.613418  9778 net.cpp:137] Memory required for data: 1392083232
I0306 13:07:36.613427  9778 layer_factory.hpp:77] Creating layer Eltwise2_ReLU5_0_split
I0306 13:07:36.613438  9778 net.cpp:84] Creating Layer Eltwise2_ReLU5_0_split
I0306 13:07:36.613446  9778 net.cpp:406] Eltwise2_ReLU5_0_split <- Eltwise2
I0306 13:07:36.613456  9778 net.cpp:380] Eltwise2_ReLU5_0_split -> Eltwise2_ReLU5_0_split_0
I0306 13:07:36.613467  9778 net.cpp:380] Eltwise2_ReLU5_0_split -> Eltwise2_ReLU5_0_split_1
I0306 13:07:36.613512  9778 net.cpp:122] Setting up Eltwise2_ReLU5_0_split
I0306 13:07:36.613535  9778 net.cpp:129] Top shape: 24 32 112 112 (9633792)
I0306 13:07:36.613545  9778 net.cpp:129] Top shape: 24 32 112 112 (9633792)
I0306 13:07:36.613554  9778 net.cpp:137] Memory required for data: 1469153568
I0306 13:07:36.613562  9778 layer_factory.hpp:77] Creating layer Convolution6
I0306 13:07:36.613577  9778 net.cpp:84] Creating Layer Convolution6
I0306 13:07:36.613586  9778 net.cpp:406] Convolution6 <- Eltwise2_ReLU5_0_split_0
I0306 13:07:36.613600  9778 net.cpp:380] Convolution6 -> Convolution6
I0306 13:07:36.613994  9778 net.cpp:122] Setting up Convolution6
I0306 13:07:36.614012  9778 net.cpp:129] Top shape: 24 32 112 112 (9633792)
I0306 13:07:36.614020  9778 net.cpp:137] Memory required for data: 1507688736
I0306 13:07:36.614032  9778 layer_factory.hpp:77] Creating layer BatchNorm6
I0306 13:07:36.614046  9778 net.cpp:84] Creating Layer BatchNorm6
I0306 13:07:36.614055  9778 net.cpp:406] BatchNorm6 <- Convolution6
I0306 13:07:36.614068  9778 net.cpp:367] BatchNorm6 -> Convolution6 (in-place)
I0306 13:07:36.614423  9778 net.cpp:122] Setting up BatchNorm6
I0306 13:07:36.614446  9778 net.cpp:129] Top shape: 24 32 112 112 (9633792)
I0306 13:07:36.614455  9778 net.cpp:137] Memory required for data: 1546223904
I0306 13:07:36.614470  9778 layer_factory.hpp:77] Creating layer Scale6
I0306 13:07:36.614521  9778 net.cpp:84] Creating Layer Scale6
I0306 13:07:36.614586  9778 net.cpp:406] Scale6 <- Convolution6
I0306 13:07:36.614600  9778 net.cpp:367] Scale6 -> Convolution6 (in-place)
I0306 13:07:36.614673  9778 layer_factory.hpp:77] Creating layer Scale6
I0306 13:07:36.615358  9778 net.cpp:122] Setting up Scale6
I0306 13:07:36.615386  9778 net.cpp:129] Top shape: 24 32 112 112 (9633792)
I0306 13:07:36.615392  9778 net.cpp:137] Memory required for data: 1584759072
I0306 13:07:36.615402  9778 layer_factory.hpp:77] Creating layer ReLU6
I0306 13:07:36.615413  9778 net.cpp:84] Creating Layer ReLU6
I0306 13:07:36.615419  9778 net.cpp:406] ReLU6 <- Convolution6
I0306 13:07:36.615451  9778 net.cpp:367] ReLU6 -> Convolution6 (in-place)
I0306 13:07:36.615475  9778 net.cpp:122] Setting up ReLU6
I0306 13:07:36.615484  9778 net.cpp:129] Top shape: 24 32 112 112 (9633792)
I0306 13:07:36.615491  9778 net.cpp:137] Memory required for data: 1623294240
I0306 13:07:36.615497  9778 layer_factory.hpp:77] Creating layer Convolution7
I0306 13:07:36.615516  9778 net.cpp:84] Creating Layer Convolution7
I0306 13:07:36.615525  9778 net.cpp:406] Convolution7 <- Convolution6
I0306 13:07:36.615538  9778 net.cpp:380] Convolution7 -> Convolution7
I0306 13:07:36.616156  9778 net.cpp:122] Setting up Convolution7
I0306 13:07:36.616174  9778 net.cpp:129] Top shape: 24 32 112 112 (9633792)
I0306 13:07:36.616183  9778 net.cpp:137] Memory required for data: 1661829408
I0306 13:07:36.616195  9778 layer_factory.hpp:77] Creating layer BatchNorm7
I0306 13:07:36.616212  9778 net.cpp:84] Creating Layer BatchNorm7
I0306 13:07:36.616220  9778 net.cpp:406] BatchNorm7 <- Convolution7
I0306 13:07:36.616233  9778 net.cpp:367] BatchNorm7 -> Convolution7 (in-place)
I0306 13:07:36.616590  9778 net.cpp:122] Setting up BatchNorm7
I0306 13:07:36.616605  9778 net.cpp:129] Top shape: 24 32 112 112 (9633792)
I0306 13:07:36.616612  9778 net.cpp:137] Memory required for data: 1700364576
I0306 13:07:36.616629  9778 layer_factory.hpp:77] Creating layer Scale7
I0306 13:07:36.616660  9778 net.cpp:84] Creating Layer Scale7
I0306 13:07:36.616670  9778 net.cpp:406] Scale7 <- Convolution7
I0306 13:07:36.616683  9778 net.cpp:367] Scale7 -> Convolution7 (in-place)
I0306 13:07:36.616757  9778 layer_factory.hpp:77] Creating layer Scale7
I0306 13:07:36.616971  9778 net.cpp:122] Setting up Scale7
I0306 13:07:36.616986  9778 net.cpp:129] Top shape: 24 32 112 112 (9633792)
I0306 13:07:36.616992  9778 net.cpp:137] Memory required for data: 1738899744
I0306 13:07:36.617022  9778 layer_factory.hpp:77] Creating layer Eltwise3
I0306 13:07:36.617038  9778 net.cpp:84] Creating Layer Eltwise3
I0306 13:07:36.617045  9778 net.cpp:406] Eltwise3 <- Convolution7
I0306 13:07:36.617058  9778 net.cpp:406] Eltwise3 <- Eltwise2_ReLU5_0_split_1
I0306 13:07:36.617069  9778 net.cpp:380] Eltwise3 -> Eltwise3
I0306 13:07:36.617120  9778 net.cpp:122] Setting up Eltwise3
I0306 13:07:36.617132  9778 net.cpp:129] Top shape: 24 32 112 112 (9633792)
I0306 13:07:36.617139  9778 net.cpp:137] Memory required for data: 1777434912
I0306 13:07:36.617147  9778 layer_factory.hpp:77] Creating layer ReLU7
I0306 13:07:36.617159  9778 net.cpp:84] Creating Layer ReLU7
I0306 13:07:36.617167  9778 net.cpp:406] ReLU7 <- Eltwise3
I0306 13:07:36.617178  9778 net.cpp:367] ReLU7 -> Eltwise3 (in-place)
I0306 13:07:36.617189  9778 net.cpp:122] Setting up ReLU7
I0306 13:07:36.617200  9778 net.cpp:129] Top shape: 24 32 112 112 (9633792)
I0306 13:07:36.617208  9778 net.cpp:137] Memory required for data: 1815970080
I0306 13:07:36.617215  9778 layer_factory.hpp:77] Creating layer Eltwise3_ReLU7_0_split
I0306 13:07:36.617239  9778 net.cpp:84] Creating Layer Eltwise3_ReLU7_0_split
I0306 13:07:36.617247  9778 net.cpp:406] Eltwise3_ReLU7_0_split <- Eltwise3
I0306 13:07:36.617259  9778 net.cpp:380] Eltwise3_ReLU7_0_split -> Eltwise3_ReLU7_0_split_0
I0306 13:07:36.617270  9778 net.cpp:380] Eltwise3_ReLU7_0_split -> Eltwise3_ReLU7_0_split_1
I0306 13:07:36.617329  9778 net.cpp:122] Setting up Eltwise3_ReLU7_0_split
I0306 13:07:36.617347  9778 net.cpp:129] Top shape: 24 32 112 112 (9633792)
I0306 13:07:36.617398  9778 net.cpp:129] Top shape: 24 32 112 112 (9633792)
I0306 13:07:36.617406  9778 net.cpp:137] Memory required for data: 1893040416
I0306 13:07:36.617414  9778 layer_factory.hpp:77] Creating layer Convolution8
I0306 13:07:36.617449  9778 net.cpp:84] Creating Layer Convolution8
I0306 13:07:36.617460  9778 net.cpp:406] Convolution8 <- Eltwise3_ReLU7_0_split_0
I0306 13:07:36.617473  9778 net.cpp:380] Convolution8 -> Convolution8
I0306 13:07:36.620548  9778 net.cpp:122] Setting up Convolution8
I0306 13:07:36.620616  9778 net.cpp:129] Top shape: 24 64 56 56 (4816896)
I0306 13:07:36.620637  9778 net.cpp:137] Memory required for data: 1912308000
I0306 13:07:36.620673  9778 layer_factory.hpp:77] Creating layer BatchNorm8
I0306 13:07:36.620709  9778 net.cpp:84] Creating Layer BatchNorm8
I0306 13:07:36.620733  9778 net.cpp:406] BatchNorm8 <- Convolution8
I0306 13:07:36.620759  9778 net.cpp:367] BatchNorm8 -> Convolution8 (in-place)
I0306 13:07:36.621644  9778 net.cpp:122] Setting up BatchNorm8
I0306 13:07:36.621665  9778 net.cpp:129] Top shape: 24 64 56 56 (4816896)
I0306 13:07:36.621670  9778 net.cpp:137] Memory required for data: 1931575584
I0306 13:07:36.621685  9778 layer_factory.hpp:77] Creating layer Scale8
I0306 13:07:36.621748  9778 net.cpp:84] Creating Layer Scale8
I0306 13:07:36.621767  9778 net.cpp:406] Scale8 <- Convolution8
I0306 13:07:36.621786  9778 net.cpp:367] Scale8 -> Convolution8 (in-place)
I0306 13:07:36.621902  9778 layer_factory.hpp:77] Creating layer Scale8
I0306 13:07:36.622156  9778 net.cpp:122] Setting up Scale8
I0306 13:07:36.622184  9778 net.cpp:129] Top shape: 24 64 56 56 (4816896)
I0306 13:07:36.622198  9778 net.cpp:137] Memory required for data: 1950843168
I0306 13:07:36.622216  9778 layer_factory.hpp:77] Creating layer ReLU8
I0306 13:07:36.622237  9778 net.cpp:84] Creating Layer ReLU8
I0306 13:07:36.622254  9778 net.cpp:406] ReLU8 <- Convolution8
I0306 13:07:36.622272  9778 net.cpp:367] ReLU8 -> Convolution8 (in-place)
I0306 13:07:36.622290  9778 net.cpp:122] Setting up ReLU8
I0306 13:07:36.622309  9778 net.cpp:129] Top shape: 24 64 56 56 (4816896)
I0306 13:07:36.622326  9778 net.cpp:137] Memory required for data: 1970110752
I0306 13:07:36.622359  9778 layer_factory.hpp:77] Creating layer Convolution9
I0306 13:07:36.622392  9778 net.cpp:84] Creating Layer Convolution9
I0306 13:07:36.622414  9778 net.cpp:406] Convolution9 <- Convolution8
I0306 13:07:36.622438  9778 net.cpp:380] Convolution9 -> Convolution9
I0306 13:07:36.623086  9778 net.cpp:122] Setting up Convolution9
I0306 13:07:36.623108  9778 net.cpp:129] Top shape: 24 64 56 56 (4816896)
I0306 13:07:36.623116  9778 net.cpp:137] Memory required for data: 1989378336
I0306 13:07:36.623131  9778 layer_factory.hpp:77] Creating layer BatchNorm9
I0306 13:07:36.623144  9778 net.cpp:84] Creating Layer BatchNorm9
I0306 13:07:36.623153  9778 net.cpp:406] BatchNorm9 <- Convolution9
I0306 13:07:36.623165  9778 net.cpp:367] BatchNorm9 -> Convolution9 (in-place)
I0306 13:07:36.623487  9778 net.cpp:122] Setting up BatchNorm9
I0306 13:07:36.623514  9778 net.cpp:129] Top shape: 24 64 56 56 (4816896)
I0306 13:07:36.623528  9778 net.cpp:137] Memory required for data: 2008645920
I0306 13:07:36.623549  9778 layer_factory.hpp:77] Creating layer Scale9
I0306 13:07:36.623589  9778 net.cpp:84] Creating Layer Scale9
I0306 13:07:36.623605  9778 net.cpp:406] Scale9 <- Convolution9
I0306 13:07:36.623625  9778 net.cpp:367] Scale9 -> Convolution9 (in-place)
I0306 13:07:36.623710  9778 layer_factory.hpp:77] Creating layer Scale9
I0306 13:07:36.623934  9778 net.cpp:122] Setting up Scale9
I0306 13:07:36.623958  9778 net.cpp:129] Top shape: 24 64 56 56 (4816896)
I0306 13:07:36.623972  9778 net.cpp:137] Memory required for data: 2027913504
I0306 13:07:36.623992  9778 layer_factory.hpp:77] Creating layer Convolution10
I0306 13:07:36.624018  9778 net.cpp:84] Creating Layer Convolution10
I0306 13:07:36.624037  9778 net.cpp:406] Convolution10 <- Eltwise3_ReLU7_0_split_1
I0306 13:07:36.624059  9778 net.cpp:380] Convolution10 -> Convolution10
I0306 13:07:36.624454  9778 net.cpp:122] Setting up Convolution10
I0306 13:07:36.624476  9778 net.cpp:129] Top shape: 24 64 56 56 (4816896)
I0306 13:07:36.624485  9778 net.cpp:137] Memory required for data: 2047181088
I0306 13:07:36.624516  9778 layer_factory.hpp:77] Creating layer BatchNorm10
I0306 13:07:36.624541  9778 net.cpp:84] Creating Layer BatchNorm10
I0306 13:07:36.624550  9778 net.cpp:406] BatchNorm10 <- Convolution10
I0306 13:07:36.624562  9778 net.cpp:367] BatchNorm10 -> Convolution10 (in-place)
I0306 13:07:36.624812  9778 net.cpp:122] Setting up BatchNorm10
I0306 13:07:36.624830  9778 net.cpp:129] Top shape: 24 64 56 56 (4816896)
I0306 13:07:36.624838  9778 net.cpp:137] Memory required for data: 2066448672
I0306 13:07:36.624851  9778 layer_factory.hpp:77] Creating layer Scale10
I0306 13:07:36.624874  9778 net.cpp:84] Creating Layer Scale10
I0306 13:07:36.624884  9778 net.cpp:406] Scale10 <- Convolution10
I0306 13:07:36.624909  9778 net.cpp:367] Scale10 -> Convolution10 (in-place)
I0306 13:07:36.624972  9778 layer_factory.hpp:77] Creating layer Scale10
I0306 13:07:36.625133  9778 net.cpp:122] Setting up Scale10
I0306 13:07:36.625157  9778 net.cpp:129] Top shape: 24 64 56 56 (4816896)
I0306 13:07:36.625171  9778 net.cpp:137] Memory required for data: 2085716256
I0306 13:07:36.625186  9778 layer_factory.hpp:77] Creating layer Eltwise4
I0306 13:07:36.625201  9778 net.cpp:84] Creating Layer Eltwise4
I0306 13:07:36.625213  9778 net.cpp:406] Eltwise4 <- Convolution9
I0306 13:07:36.625231  9778 net.cpp:406] Eltwise4 <- Convolution10
I0306 13:07:36.625250  9778 net.cpp:380] Eltwise4 -> Eltwise4
I0306 13:07:36.625301  9778 net.cpp:122] Setting up Eltwise4
I0306 13:07:36.625320  9778 net.cpp:129] Top shape: 24 64 56 56 (4816896)
I0306 13:07:36.625331  9778 net.cpp:137] Memory required for data: 2104983840
I0306 13:07:36.625350  9778 layer_factory.hpp:77] Creating layer ReLU9
I0306 13:07:36.625363  9778 net.cpp:84] Creating Layer ReLU9
I0306 13:07:36.625373  9778 net.cpp:406] ReLU9 <- Eltwise4
I0306 13:07:36.625389  9778 net.cpp:367] ReLU9 -> Eltwise4 (in-place)
I0306 13:07:36.625408  9778 net.cpp:122] Setting up ReLU9
I0306 13:07:36.625425  9778 net.cpp:129] Top shape: 24 64 56 56 (4816896)
I0306 13:07:36.625439  9778 net.cpp:137] Memory required for data: 2124251424
I0306 13:07:36.625452  9778 layer_factory.hpp:77] Creating layer Eltwise4_ReLU9_0_split
I0306 13:07:36.625476  9778 net.cpp:84] Creating Layer Eltwise4_ReLU9_0_split
I0306 13:07:36.625484  9778 net.cpp:406] Eltwise4_ReLU9_0_split <- Eltwise4
I0306 13:07:36.625495  9778 net.cpp:380] Eltwise4_ReLU9_0_split -> Eltwise4_ReLU9_0_split_0
I0306 13:07:36.625506  9778 net.cpp:380] Eltwise4_ReLU9_0_split -> Eltwise4_ReLU9_0_split_1
I0306 13:07:36.625553  9778 net.cpp:122] Setting up Eltwise4_ReLU9_0_split
I0306 13:07:36.625566  9778 net.cpp:129] Top shape: 24 64 56 56 (4816896)
I0306 13:07:36.625574  9778 net.cpp:129] Top shape: 24 64 56 56 (4816896)
I0306 13:07:36.625582  9778 net.cpp:137] Memory required for data: 2162786592
I0306 13:07:36.625589  9778 layer_factory.hpp:77] Creating layer Convolution11
I0306 13:07:36.625613  9778 net.cpp:84] Creating Layer Convolution11
I0306 13:07:36.625623  9778 net.cpp:406] Convolution11 <- Eltwise4_ReLU9_0_split_0
I0306 13:07:36.625635  9778 net.cpp:380] Convolution11 -> Convolution11
I0306 13:07:36.626188  9778 net.cpp:122] Setting up Convolution11
I0306 13:07:36.626209  9778 net.cpp:129] Top shape: 24 64 56 56 (4816896)
I0306 13:07:36.626217  9778 net.cpp:137] Memory required for data: 2182054176
I0306 13:07:36.626229  9778 layer_factory.hpp:77] Creating layer BatchNorm11
I0306 13:07:36.626241  9778 net.cpp:84] Creating Layer BatchNorm11
I0306 13:07:36.626250  9778 net.cpp:406] BatchNorm11 <- Convolution11
I0306 13:07:36.626261  9778 net.cpp:367] BatchNorm11 -> Convolution11 (in-place)
I0306 13:07:36.626528  9778 net.cpp:122] Setting up BatchNorm11
I0306 13:07:36.626546  9778 net.cpp:129] Top shape: 24 64 56 56 (4816896)
I0306 13:07:36.626554  9778 net.cpp:137] Memory required for data: 2201321760
I0306 13:07:36.626567  9778 layer_factory.hpp:77] Creating layer Scale11
I0306 13:07:36.626602  9778 net.cpp:84] Creating Layer Scale11
I0306 13:07:36.626611  9778 net.cpp:406] Scale11 <- Convolution11
I0306 13:07:36.626621  9778 net.cpp:367] Scale11 -> Convolution11 (in-place)
I0306 13:07:36.626673  9778 layer_factory.hpp:77] Creating layer Scale11
I0306 13:07:36.626806  9778 net.cpp:122] Setting up Scale11
I0306 13:07:36.626818  9778 net.cpp:129] Top shape: 24 64 56 56 (4816896)
I0306 13:07:36.626826  9778 net.cpp:137] Memory required for data: 2220589344
I0306 13:07:36.626847  9778 layer_factory.hpp:77] Creating layer ReLU10
I0306 13:07:36.626859  9778 net.cpp:84] Creating Layer ReLU10
I0306 13:07:36.626876  9778 net.cpp:406] ReLU10 <- Convolution11
I0306 13:07:36.626893  9778 net.cpp:367] ReLU10 -> Convolution11 (in-place)
I0306 13:07:36.626904  9778 net.cpp:122] Setting up ReLU10
I0306 13:07:36.626915  9778 net.cpp:129] Top shape: 24 64 56 56 (4816896)
I0306 13:07:36.626927  9778 net.cpp:137] Memory required for data: 2239856928
I0306 13:07:36.626940  9778 layer_factory.hpp:77] Creating layer Convolution12
I0306 13:07:36.626972  9778 net.cpp:84] Creating Layer Convolution12
I0306 13:07:36.626983  9778 net.cpp:406] Convolution12 <- Convolution11
I0306 13:07:36.626996  9778 net.cpp:380] Convolution12 -> Convolution12
I0306 13:07:36.627637  9778 net.cpp:122] Setting up Convolution12
I0306 13:07:36.627665  9778 net.cpp:129] Top shape: 24 64 56 56 (4816896)
I0306 13:07:36.627678  9778 net.cpp:137] Memory required for data: 2259124512
I0306 13:07:36.627696  9778 layer_factory.hpp:77] Creating layer BatchNorm12
I0306 13:07:36.627714  9778 net.cpp:84] Creating Layer BatchNorm12
I0306 13:07:36.627728  9778 net.cpp:406] BatchNorm12 <- Convolution12
I0306 13:07:36.627759  9778 net.cpp:367] BatchNorm12 -> Convolution12 (in-place)
I0306 13:07:36.628087  9778 net.cpp:122] Setting up BatchNorm12
I0306 13:07:36.628106  9778 net.cpp:129] Top shape: 24 64 56 56 (4816896)
I0306 13:07:36.628119  9778 net.cpp:137] Memory required for data: 2278392096
I0306 13:07:36.628139  9778 layer_factory.hpp:77] Creating layer Scale12
I0306 13:07:36.628156  9778 net.cpp:84] Creating Layer Scale12
I0306 13:07:36.628170  9778 net.cpp:406] Scale12 <- Convolution12
I0306 13:07:36.628185  9778 net.cpp:367] Scale12 -> Convolution12 (in-place)
I0306 13:07:36.628235  9778 layer_factory.hpp:77] Creating layer Scale12
I0306 13:07:36.628374  9778 net.cpp:122] Setting up Scale12
I0306 13:07:36.628387  9778 net.cpp:129] Top shape: 24 64 56 56 (4816896)
I0306 13:07:36.628394  9778 net.cpp:137] Memory required for data: 2297659680
I0306 13:07:36.628427  9778 layer_factory.hpp:77] Creating layer Eltwise5
I0306 13:07:36.628446  9778 net.cpp:84] Creating Layer Eltwise5
I0306 13:07:36.628455  9778 net.cpp:406] Eltwise5 <- Convolution12
I0306 13:07:36.628468  9778 net.cpp:406] Eltwise5 <- Eltwise4_ReLU9_0_split_1
I0306 13:07:36.628478  9778 net.cpp:380] Eltwise5 -> Eltwise5
I0306 13:07:36.628509  9778 net.cpp:122] Setting up Eltwise5
I0306 13:07:36.628520  9778 net.cpp:129] Top shape: 24 64 56 56 (4816896)
I0306 13:07:36.628527  9778 net.cpp:137] Memory required for data: 2316927264
I0306 13:07:36.628535  9778 layer_factory.hpp:77] Creating layer ReLU11
I0306 13:07:36.628545  9778 net.cpp:84] Creating Layer ReLU11
I0306 13:07:36.628553  9778 net.cpp:406] ReLU11 <- Eltwise5
I0306 13:07:36.628562  9778 net.cpp:367] ReLU11 -> Eltwise5 (in-place)
I0306 13:07:36.628572  9778 net.cpp:122] Setting up ReLU11
I0306 13:07:36.628582  9778 net.cpp:129] Top shape: 24 64 56 56 (4816896)
I0306 13:07:36.628589  9778 net.cpp:137] Memory required for data: 2336194848
I0306 13:07:36.628597  9778 layer_factory.hpp:77] Creating layer Eltwise5_ReLU11_0_split
I0306 13:07:36.628607  9778 net.cpp:84] Creating Layer Eltwise5_ReLU11_0_split
I0306 13:07:36.628614  9778 net.cpp:406] Eltwise5_ReLU11_0_split <- Eltwise5
I0306 13:07:36.628624  9778 net.cpp:380] Eltwise5_ReLU11_0_split -> Eltwise5_ReLU11_0_split_0
I0306 13:07:36.628634  9778 net.cpp:380] Eltwise5_ReLU11_0_split -> Eltwise5_ReLU11_0_split_1
I0306 13:07:36.628679  9778 net.cpp:122] Setting up Eltwise5_ReLU11_0_split
I0306 13:07:36.628710  9778 net.cpp:129] Top shape: 24 64 56 56 (4816896)
I0306 13:07:36.628718  9778 net.cpp:129] Top shape: 24 64 56 56 (4816896)
I0306 13:07:36.628726  9778 net.cpp:137] Memory required for data: 2374730016
I0306 13:07:36.628733  9778 layer_factory.hpp:77] Creating layer Convolution13
I0306 13:07:36.628747  9778 net.cpp:84] Creating Layer Convolution13
I0306 13:07:36.628756  9778 net.cpp:406] Convolution13 <- Eltwise5_ReLU11_0_split_0
I0306 13:07:36.628767  9778 net.cpp:380] Convolution13 -> Convolution13
I0306 13:07:36.629335  9778 net.cpp:122] Setting up Convolution13
I0306 13:07:36.629372  9778 net.cpp:129] Top shape: 24 64 56 56 (4816896)
I0306 13:07:36.629385  9778 net.cpp:137] Memory required for data: 2393997600
I0306 13:07:36.629415  9778 layer_factory.hpp:77] Creating layer BatchNorm13
I0306 13:07:36.629444  9778 net.cpp:84] Creating Layer BatchNorm13
I0306 13:07:36.629453  9778 net.cpp:406] BatchNorm13 <- Convolution13
I0306 13:07:36.629463  9778 net.cpp:367] BatchNorm13 -> Convolution13 (in-place)
I0306 13:07:36.629680  9778 net.cpp:122] Setting up BatchNorm13
I0306 13:07:36.629694  9778 net.cpp:129] Top shape: 24 64 56 56 (4816896)
I0306 13:07:36.629701  9778 net.cpp:137] Memory required for data: 2413265184
I0306 13:07:36.629714  9778 layer_factory.hpp:77] Creating layer Scale13
I0306 13:07:36.629734  9778 net.cpp:84] Creating Layer Scale13
I0306 13:07:36.629743  9778 net.cpp:406] Scale13 <- Convolution13
I0306 13:07:36.629755  9778 net.cpp:367] Scale13 -> Convolution13 (in-place)
I0306 13:07:36.629804  9778 layer_factory.hpp:77] Creating layer Scale13
I0306 13:07:36.629940  9778 net.cpp:122] Setting up Scale13
I0306 13:07:36.629952  9778 net.cpp:129] Top shape: 24 64 56 56 (4816896)
I0306 13:07:36.629959  9778 net.cpp:137] Memory required for data: 2432532768
I0306 13:07:36.629971  9778 layer_factory.hpp:77] Creating layer ReLU12
I0306 13:07:36.629981  9778 net.cpp:84] Creating Layer ReLU12
I0306 13:07:36.629988  9778 net.cpp:406] ReLU12 <- Convolution13
I0306 13:07:36.629998  9778 net.cpp:367] ReLU12 -> Convolution13 (in-place)
I0306 13:07:36.630008  9778 net.cpp:122] Setting up ReLU12
I0306 13:07:36.630017  9778 net.cpp:129] Top shape: 24 64 56 56 (4816896)
I0306 13:07:36.630024  9778 net.cpp:137] Memory required for data: 2451800352
I0306 13:07:36.630033  9778 layer_factory.hpp:77] Creating layer Convolution14
I0306 13:07:36.630053  9778 net.cpp:84] Creating Layer Convolution14
I0306 13:07:36.630064  9778 net.cpp:406] Convolution14 <- Convolution13
I0306 13:07:36.630075  9778 net.cpp:380] Convolution14 -> Convolution14
I0306 13:07:36.630575  9778 net.cpp:122] Setting up Convolution14
I0306 13:07:36.630590  9778 net.cpp:129] Top shape: 24 64 56 56 (4816896)
I0306 13:07:36.630597  9778 net.cpp:137] Memory required for data: 2471067936
I0306 13:07:36.630616  9778 layer_factory.hpp:77] Creating layer BatchNorm14
I0306 13:07:36.630630  9778 net.cpp:84] Creating Layer BatchNorm14
I0306 13:07:36.630636  9778 net.cpp:406] BatchNorm14 <- Convolution14
I0306 13:07:36.630648  9778 net.cpp:367] BatchNorm14 -> Convolution14 (in-place)
I0306 13:07:36.630857  9778 net.cpp:122] Setting up BatchNorm14
I0306 13:07:36.630882  9778 net.cpp:129] Top shape: 24 64 56 56 (4816896)
I0306 13:07:36.630893  9778 net.cpp:137] Memory required for data: 2490335520
I0306 13:07:36.630911  9778 layer_factory.hpp:77] Creating layer Scale14
I0306 13:07:36.630923  9778 net.cpp:84] Creating Layer Scale14
I0306 13:07:36.630931  9778 net.cpp:406] Scale14 <- Convolution14
I0306 13:07:36.630942  9778 net.cpp:367] Scale14 -> Convolution14 (in-place)
I0306 13:07:36.630992  9778 layer_factory.hpp:77] Creating layer Scale14
I0306 13:07:36.631145  9778 net.cpp:122] Setting up Scale14
I0306 13:07:36.631165  9778 net.cpp:129] Top shape: 24 64 56 56 (4816896)
I0306 13:07:36.631177  9778 net.cpp:137] Memory required for data: 2509603104
I0306 13:07:36.631194  9778 layer_factory.hpp:77] Creating layer Eltwise6
I0306 13:07:36.631222  9778 net.cpp:84] Creating Layer Eltwise6
I0306 13:07:36.631263  9778 net.cpp:406] Eltwise6 <- Convolution14
I0306 13:07:36.631278  9778 net.cpp:406] Eltwise6 <- Eltwise5_ReLU11_0_split_1
I0306 13:07:36.631294  9778 net.cpp:380] Eltwise6 -> Eltwise6
I0306 13:07:36.631340  9778 net.cpp:122] Setting up Eltwise6
I0306 13:07:36.631359  9778 net.cpp:129] Top shape: 24 64 56 56 (4816896)
I0306 13:07:36.631372  9778 net.cpp:137] Memory required for data: 2528870688
I0306 13:07:36.631386  9778 layer_factory.hpp:77] Creating layer ReLU13
I0306 13:07:36.631402  9778 net.cpp:84] Creating Layer ReLU13
I0306 13:07:36.631414  9778 net.cpp:406] ReLU13 <- Eltwise6
I0306 13:07:36.631430  9778 net.cpp:367] ReLU13 -> Eltwise6 (in-place)
I0306 13:07:36.631446  9778 net.cpp:122] Setting up ReLU13
I0306 13:07:36.631462  9778 net.cpp:129] Top shape: 24 64 56 56 (4816896)
I0306 13:07:36.631475  9778 net.cpp:137] Memory required for data: 2548138272
I0306 13:07:36.631505  9778 layer_factory.hpp:77] Creating layer Eltwise6_ReLU13_0_split
I0306 13:07:36.631533  9778 net.cpp:84] Creating Layer Eltwise6_ReLU13_0_split
I0306 13:07:36.631546  9778 net.cpp:406] Eltwise6_ReLU13_0_split <- Eltwise6
I0306 13:07:36.631562  9778 net.cpp:380] Eltwise6_ReLU13_0_split -> Eltwise6_ReLU13_0_split_0
I0306 13:07:36.631580  9778 net.cpp:380] Eltwise6_ReLU13_0_split -> Eltwise6_ReLU13_0_split_1
I0306 13:07:36.631649  9778 net.cpp:122] Setting up Eltwise6_ReLU13_0_split
I0306 13:07:36.631669  9778 net.cpp:129] Top shape: 24 64 56 56 (4816896)
I0306 13:07:36.631682  9778 net.cpp:129] Top shape: 24 64 56 56 (4816896)
I0306 13:07:36.631695  9778 net.cpp:137] Memory required for data: 2586673440
I0306 13:07:36.631709  9778 layer_factory.hpp:77] Creating layer Convolution15
I0306 13:07:36.631738  9778 net.cpp:84] Creating Layer Convolution15
I0306 13:07:36.631750  9778 net.cpp:406] Convolution15 <- Eltwise6_ReLU13_0_split_0
I0306 13:07:36.631762  9778 net.cpp:380] Convolution15 -> Convolution15
I0306 13:07:36.636176  9778 net.cpp:122] Setting up Convolution15
I0306 13:07:36.636235  9778 net.cpp:129] Top shape: 24 128 28 28 (2408448)
I0306 13:07:36.636245  9778 net.cpp:137] Memory required for data: 2596307232
I0306 13:07:36.636262  9778 layer_factory.hpp:77] Creating layer BatchNorm15
I0306 13:07:36.636284  9778 net.cpp:84] Creating Layer BatchNorm15
I0306 13:07:36.636296  9778 net.cpp:406] BatchNorm15 <- Convolution15
I0306 13:07:36.636310  9778 net.cpp:367] BatchNorm15 -> Convolution15 (in-place)
I0306 13:07:36.636557  9778 net.cpp:122] Setting up BatchNorm15
I0306 13:07:36.636574  9778 net.cpp:129] Top shape: 24 128 28 28 (2408448)
I0306 13:07:36.636580  9778 net.cpp:137] Memory required for data: 2605941024
I0306 13:07:36.636595  9778 layer_factory.hpp:77] Creating layer Scale15
I0306 13:07:36.636631  9778 net.cpp:84] Creating Layer Scale15
I0306 13:07:36.636641  9778 net.cpp:406] Scale15 <- Convolution15
I0306 13:07:36.636677  9778 net.cpp:367] Scale15 -> Convolution15 (in-place)
I0306 13:07:36.636751  9778 layer_factory.hpp:77] Creating layer Scale15
I0306 13:07:36.636880  9778 net.cpp:122] Setting up Scale15
I0306 13:07:36.636893  9778 net.cpp:129] Top shape: 24 128 28 28 (2408448)
I0306 13:07:36.636901  9778 net.cpp:137] Memory required for data: 2615574816
I0306 13:07:36.636920  9778 layer_factory.hpp:77] Creating layer ReLU14
I0306 13:07:36.636934  9778 net.cpp:84] Creating Layer ReLU14
I0306 13:07:36.636941  9778 net.cpp:406] ReLU14 <- Convolution15
I0306 13:07:36.636952  9778 net.cpp:367] ReLU14 -> Convolution15 (in-place)
I0306 13:07:36.636978  9778 net.cpp:122] Setting up ReLU14
I0306 13:07:36.636988  9778 net.cpp:129] Top shape: 24 128 28 28 (2408448)
I0306 13:07:36.636996  9778 net.cpp:137] Memory required for data: 2625208608
I0306 13:07:36.637002  9778 layer_factory.hpp:77] Creating layer Convolution16
I0306 13:07:36.637018  9778 net.cpp:84] Creating Layer Convolution16
I0306 13:07:36.637027  9778 net.cpp:406] Convolution16 <- Convolution15
I0306 13:07:36.637037  9778 net.cpp:380] Convolution16 -> Convolution16
I0306 13:07:36.638378  9778 net.cpp:122] Setting up Convolution16
I0306 13:07:36.638399  9778 net.cpp:129] Top shape: 24 128 28 28 (2408448)
I0306 13:07:36.638437  9778 net.cpp:137] Memory required for data: 2634842400
I0306 13:07:36.638449  9778 layer_factory.hpp:77] Creating layer BatchNorm16
I0306 13:07:36.638478  9778 net.cpp:84] Creating Layer BatchNorm16
I0306 13:07:36.638487  9778 net.cpp:406] BatchNorm16 <- Convolution16
I0306 13:07:36.638499  9778 net.cpp:367] BatchNorm16 -> Convolution16 (in-place)
I0306 13:07:36.638741  9778 net.cpp:122] Setting up BatchNorm16
I0306 13:07:36.638754  9778 net.cpp:129] Top shape: 24 128 28 28 (2408448)
I0306 13:07:36.638761  9778 net.cpp:137] Memory required for data: 2644476192
I0306 13:07:36.638782  9778 layer_factory.hpp:77] Creating layer Scale16
I0306 13:07:36.638794  9778 net.cpp:84] Creating Layer Scale16
I0306 13:07:36.638803  9778 net.cpp:406] Scale16 <- Convolution16
I0306 13:07:36.638813  9778 net.cpp:367] Scale16 -> Convolution16 (in-place)
I0306 13:07:36.638857  9778 layer_factory.hpp:77] Creating layer Scale16
I0306 13:07:36.639017  9778 net.cpp:122] Setting up Scale16
I0306 13:07:36.639032  9778 net.cpp:129] Top shape: 24 128 28 28 (2408448)
I0306 13:07:36.639039  9778 net.cpp:137] Memory required for data: 2654109984
I0306 13:07:36.639060  9778 layer_factory.hpp:77] Creating layer Convolution17
I0306 13:07:36.639076  9778 net.cpp:84] Creating Layer Convolution17
I0306 13:07:36.639086  9778 net.cpp:406] Convolution17 <- Eltwise6_ReLU13_0_split_1
I0306 13:07:36.639114  9778 net.cpp:380] Convolution17 -> Convolution17
I0306 13:07:36.639442  9778 net.cpp:122] Setting up Convolution17
I0306 13:07:36.639456  9778 net.cpp:129] Top shape: 24 128 28 28 (2408448)
I0306 13:07:36.639463  9778 net.cpp:137] Memory required for data: 2663743776
I0306 13:07:36.639472  9778 layer_factory.hpp:77] Creating layer BatchNorm17
I0306 13:07:36.639492  9778 net.cpp:84] Creating Layer BatchNorm17
I0306 13:07:36.639500  9778 net.cpp:406] BatchNorm17 <- Convolution17
I0306 13:07:36.639510  9778 net.cpp:367] BatchNorm17 -> Convolution17 (in-place)
I0306 13:07:36.639794  9778 net.cpp:122] Setting up BatchNorm17
I0306 13:07:36.639816  9778 net.cpp:129] Top shape: 24 128 28 28 (2408448)
I0306 13:07:36.639828  9778 net.cpp:137] Memory required for data: 2673377568
I0306 13:07:36.639848  9778 layer_factory.hpp:77] Creating layer Scale17
I0306 13:07:36.639866  9778 net.cpp:84] Creating Layer Scale17
I0306 13:07:36.639879  9778 net.cpp:406] Scale17 <- Convolution17
I0306 13:07:36.639895  9778 net.cpp:367] Scale17 -> Convolution17 (in-place)
I0306 13:07:36.639962  9778 layer_factory.hpp:77] Creating layer Scale17
I0306 13:07:36.640182  9778 net.cpp:122] Setting up Scale17
I0306 13:07:36.640203  9778 net.cpp:129] Top shape: 24 128 28 28 (2408448)
I0306 13:07:36.640215  9778 net.cpp:137] Memory required for data: 2683011360
I0306 13:07:36.640233  9778 layer_factory.hpp:77] Creating layer Eltwise7
I0306 13:07:36.640267  9778 net.cpp:84] Creating Layer Eltwise7
I0306 13:07:36.640281  9778 net.cpp:406] Eltwise7 <- Convolution16
I0306 13:07:36.640295  9778 net.cpp:406] Eltwise7 <- Convolution17
I0306 13:07:36.640313  9778 net.cpp:380] Eltwise7 -> Eltwise7
I0306 13:07:36.640360  9778 net.cpp:122] Setting up Eltwise7
I0306 13:07:36.640378  9778 net.cpp:129] Top shape: 24 128 28 28 (2408448)
I0306 13:07:36.640390  9778 net.cpp:137] Memory required for data: 2692645152
I0306 13:07:36.640403  9778 layer_factory.hpp:77] Creating layer ReLU15
I0306 13:07:36.640424  9778 net.cpp:84] Creating Layer ReLU15
I0306 13:07:36.640435  9778 net.cpp:406] ReLU15 <- Eltwise7
I0306 13:07:36.640451  9778 net.cpp:367] ReLU15 -> Eltwise7 (in-place)
I0306 13:07:36.640467  9778 net.cpp:122] Setting up ReLU15
I0306 13:07:36.640481  9778 net.cpp:129] Top shape: 24 128 28 28 (2408448)
I0306 13:07:36.640494  9778 net.cpp:137] Memory required for data: 2702278944
I0306 13:07:36.640506  9778 layer_factory.hpp:77] Creating layer Eltwise7_ReLU15_0_split
I0306 13:07:36.640523  9778 net.cpp:84] Creating Layer Eltwise7_ReLU15_0_split
I0306 13:07:36.640539  9778 net.cpp:406] Eltwise7_ReLU15_0_split <- Eltwise7
I0306 13:07:36.640556  9778 net.cpp:380] Eltwise7_ReLU15_0_split -> Eltwise7_ReLU15_0_split_0
I0306 13:07:36.640615  9778 net.cpp:380] Eltwise7_ReLU15_0_split -> Eltwise7_ReLU15_0_split_1
I0306 13:07:36.640666  9778 net.cpp:122] Setting up Eltwise7_ReLU15_0_split
I0306 13:07:36.640677  9778 net.cpp:129] Top shape: 24 128 28 28 (2408448)
I0306 13:07:36.640686  9778 net.cpp:129] Top shape: 24 128 28 28 (2408448)
I0306 13:07:36.640693  9778 net.cpp:137] Memory required for data: 2721546528
I0306 13:07:36.640700  9778 layer_factory.hpp:77] Creating layer Convolution18
I0306 13:07:36.640725  9778 net.cpp:84] Creating Layer Convolution18
I0306 13:07:36.640735  9778 net.cpp:406] Convolution18 <- Eltwise7_ReLU15_0_split_0
I0306 13:07:36.640748  9778 net.cpp:380] Convolution18 -> Convolution18
I0306 13:07:36.642272  9778 net.cpp:122] Setting up Convolution18
I0306 13:07:36.642309  9778 net.cpp:129] Top shape: 24 128 28 28 (2408448)
I0306 13:07:36.642318  9778 net.cpp:137] Memory required for data: 2731180320
I0306 13:07:36.642329  9778 layer_factory.hpp:77] Creating layer BatchNorm18
I0306 13:07:36.642343  9778 net.cpp:84] Creating Layer BatchNorm18
I0306 13:07:36.642352  9778 net.cpp:406] BatchNorm18 <- Convolution18
I0306 13:07:36.642364  9778 net.cpp:367] BatchNorm18 -> Convolution18 (in-place)
I0306 13:07:36.642571  9778 net.cpp:122] Setting up BatchNorm18
I0306 13:07:36.642585  9778 net.cpp:129] Top shape: 24 128 28 28 (2408448)
I0306 13:07:36.642592  9778 net.cpp:137] Memory required for data: 2740814112
I0306 13:07:36.642618  9778 layer_factory.hpp:77] Creating layer Scale18
I0306 13:07:36.642642  9778 net.cpp:84] Creating Layer Scale18
I0306 13:07:36.642649  9778 net.cpp:406] Scale18 <- Convolution18
I0306 13:07:36.642660  9778 net.cpp:367] Scale18 -> Convolution18 (in-place)
I0306 13:07:36.642724  9778 layer_factory.hpp:77] Creating layer Scale18
I0306 13:07:36.642849  9778 net.cpp:122] Setting up Scale18
I0306 13:07:36.642861  9778 net.cpp:129] Top shape: 24 128 28 28 (2408448)
I0306 13:07:36.642877  9778 net.cpp:137] Memory required for data: 2750447904
I0306 13:07:36.642894  9778 layer_factory.hpp:77] Creating layer ReLU16
I0306 13:07:36.642910  9778 net.cpp:84] Creating Layer ReLU16
I0306 13:07:36.642917  9778 net.cpp:406] ReLU16 <- Convolution18
I0306 13:07:36.642928  9778 net.cpp:367] ReLU16 -> Convolution18 (in-place)
I0306 13:07:36.642940  9778 net.cpp:122] Setting up ReLU16
I0306 13:07:36.642946  9778 net.cpp:129] Top shape: 24 128 28 28 (2408448)
I0306 13:07:36.642954  9778 net.cpp:137] Memory required for data: 2760081696
I0306 13:07:36.642961  9778 layer_factory.hpp:77] Creating layer Convolution19
I0306 13:07:36.642982  9778 net.cpp:84] Creating Layer Convolution19
I0306 13:07:36.642988  9778 net.cpp:406] Convolution19 <- Convolution18
I0306 13:07:36.642999  9778 net.cpp:380] Convolution19 -> Convolution19
I0306 13:07:36.644331  9778 net.cpp:122] Setting up Convolution19
I0306 13:07:36.644361  9778 net.cpp:129] Top shape: 24 128 28 28 (2408448)
I0306 13:07:36.644383  9778 net.cpp:137] Memory required for data: 2769715488
I0306 13:07:36.644402  9778 layer_factory.hpp:77] Creating layer BatchNorm19
I0306 13:07:36.644420  9778 net.cpp:84] Creating Layer BatchNorm19
I0306 13:07:36.644433  9778 net.cpp:406] BatchNorm19 <- Convolution19
I0306 13:07:36.644450  9778 net.cpp:367] BatchNorm19 -> Convolution19 (in-place)
I0306 13:07:36.644753  9778 net.cpp:122] Setting up BatchNorm19
I0306 13:07:36.644775  9778 net.cpp:129] Top shape: 24 128 28 28 (2408448)
I0306 13:07:36.644789  9778 net.cpp:137] Memory required for data: 2779349280
I0306 13:07:36.644897  9778 layer_factory.hpp:77] Creating layer Scale19
I0306 13:07:36.644930  9778 net.cpp:84] Creating Layer Scale19
I0306 13:07:36.644942  9778 net.cpp:406] Scale19 <- Convolution19
I0306 13:07:36.644953  9778 net.cpp:367] Scale19 -> Convolution19 (in-place)
I0306 13:07:36.645012  9778 layer_factory.hpp:77] Creating layer Scale19
I0306 13:07:36.645143  9778 net.cpp:122] Setting up Scale19
I0306 13:07:36.645156  9778 net.cpp:129] Top shape: 24 128 28 28 (2408448)
I0306 13:07:36.645164  9778 net.cpp:137] Memory required for data: 2788983072
I0306 13:07:36.645227  9778 layer_factory.hpp:77] Creating layer Eltwise8
I0306 13:07:36.645243  9778 net.cpp:84] Creating Layer Eltwise8
I0306 13:07:36.645251  9778 net.cpp:406] Eltwise8 <- Convolution19
I0306 13:07:36.645262  9778 net.cpp:406] Eltwise8 <- Eltwise7_ReLU15_0_split_1
I0306 13:07:36.645272  9778 net.cpp:380] Eltwise8 -> Eltwise8
I0306 13:07:36.645305  9778 net.cpp:122] Setting up Eltwise8
I0306 13:07:36.645316  9778 net.cpp:129] Top shape: 24 128 28 28 (2408448)
I0306 13:07:36.645323  9778 net.cpp:137] Memory required for data: 2798616864
I0306 13:07:36.645330  9778 layer_factory.hpp:77] Creating layer ReLU17
I0306 13:07:36.645344  9778 net.cpp:84] Creating Layer ReLU17
I0306 13:07:36.645350  9778 net.cpp:406] ReLU17 <- Eltwise8
I0306 13:07:36.645360  9778 net.cpp:367] ReLU17 -> Eltwise8 (in-place)
I0306 13:07:36.645370  9778 net.cpp:122] Setting up ReLU17
I0306 13:07:36.645380  9778 net.cpp:129] Top shape: 24 128 28 28 (2408448)
I0306 13:07:36.645386  9778 net.cpp:137] Memory required for data: 2808250656
I0306 13:07:36.645393  9778 layer_factory.hpp:77] Creating layer Eltwise8_ReLU17_0_split
I0306 13:07:36.645404  9778 net.cpp:84] Creating Layer Eltwise8_ReLU17_0_split
I0306 13:07:36.645412  9778 net.cpp:406] Eltwise8_ReLU17_0_split <- Eltwise8
I0306 13:07:36.645421  9778 net.cpp:380] Eltwise8_ReLU17_0_split -> Eltwise8_ReLU17_0_split_0
I0306 13:07:36.645432  9778 net.cpp:380] Eltwise8_ReLU17_0_split -> Eltwise8_ReLU17_0_split_1
I0306 13:07:36.645473  9778 net.cpp:122] Setting up Eltwise8_ReLU17_0_split
I0306 13:07:36.645484  9778 net.cpp:129] Top shape: 24 128 28 28 (2408448)
I0306 13:07:36.645493  9778 net.cpp:129] Top shape: 24 128 28 28 (2408448)
I0306 13:07:36.645500  9778 net.cpp:137] Memory required for data: 2827518240
I0306 13:07:36.645517  9778 layer_factory.hpp:77] Creating layer Convolution20
I0306 13:07:36.645541  9778 net.cpp:84] Creating Layer Convolution20
I0306 13:07:36.645551  9778 net.cpp:406] Convolution20 <- Eltwise8_ReLU17_0_split_0
I0306 13:07:36.645563  9778 net.cpp:380] Convolution20 -> Convolution20
I0306 13:07:36.649049  9778 net.cpp:122] Setting up Convolution20
I0306 13:07:36.649111  9778 net.cpp:129] Top shape: 24 128 28 28 (2408448)
I0306 13:07:36.649128  9778 net.cpp:137] Memory required for data: 2837152032
I0306 13:07:36.649147  9778 layer_factory.hpp:77] Creating layer BatchNorm20
I0306 13:07:36.649166  9778 net.cpp:84] Creating Layer BatchNorm20
I0306 13:07:36.649179  9778 net.cpp:406] BatchNorm20 <- Convolution20
I0306 13:07:36.649194  9778 net.cpp:367] BatchNorm20 -> Convolution20 (in-place)
I0306 13:07:36.649431  9778 net.cpp:122] Setting up BatchNorm20
I0306 13:07:36.649448  9778 net.cpp:129] Top shape: 24 128 28 28 (2408448)
I0306 13:07:36.649456  9778 net.cpp:137] Memory required for data: 2846785824
I0306 13:07:36.649469  9778 layer_factory.hpp:77] Creating layer Scale20
I0306 13:07:36.649484  9778 net.cpp:84] Creating Layer Scale20
I0306 13:07:36.649494  9778 net.cpp:406] Scale20 <- Convolution20
I0306 13:07:36.649505  9778 net.cpp:367] Scale20 -> Convolution20 (in-place)
I0306 13:07:36.649562  9778 layer_factory.hpp:77] Creating layer Scale20
I0306 13:07:36.649689  9778 net.cpp:122] Setting up Scale20
I0306 13:07:36.649701  9778 net.cpp:129] Top shape: 24 128 28 28 (2408448)
I0306 13:07:36.649709  9778 net.cpp:137] Memory required for data: 2856419616
I0306 13:07:36.649720  9778 layer_factory.hpp:77] Creating layer ReLU18
I0306 13:07:36.649734  9778 net.cpp:84] Creating Layer ReLU18
I0306 13:07:36.649741  9778 net.cpp:406] ReLU18 <- Convolution20
I0306 13:07:36.649751  9778 net.cpp:367] ReLU18 -> Convolution20 (in-place)
I0306 13:07:36.649761  9778 net.cpp:122] Setting up ReLU18
I0306 13:07:36.649770  9778 net.cpp:129] Top shape: 24 128 28 28 (2408448)
I0306 13:07:36.649778  9778 net.cpp:137] Memory required for data: 2866053408
I0306 13:07:36.649809  9778 layer_factory.hpp:77] Creating layer Convolution21
I0306 13:07:36.649838  9778 net.cpp:84] Creating Layer Convolution21
I0306 13:07:36.649848  9778 net.cpp:406] Convolution21 <- Convolution20
I0306 13:07:36.649888  9778 net.cpp:380] Convolution21 -> Convolution21
I0306 13:07:36.651427  9778 net.cpp:122] Setting up Convolution21
I0306 13:07:36.651464  9778 net.cpp:129] Top shape: 24 128 28 28 (2408448)
I0306 13:07:36.651479  9778 net.cpp:137] Memory required for data: 2875687200
I0306 13:07:36.651497  9778 layer_factory.hpp:77] Creating layer BatchNorm21
I0306 13:07:36.651520  9778 net.cpp:84] Creating Layer BatchNorm21
I0306 13:07:36.651535  9778 net.cpp:406] BatchNorm21 <- Convolution21
I0306 13:07:36.651552  9778 net.cpp:367] BatchNorm21 -> Convolution21 (in-place)
I0306 13:07:36.651787  9778 net.cpp:122] Setting up BatchNorm21
I0306 13:07:36.651800  9778 net.cpp:129] Top shape: 24 128 28 28 (2408448)
I0306 13:07:36.651808  9778 net.cpp:137] Memory required for data: 2885320992
I0306 13:07:36.651821  9778 layer_factory.hpp:77] Creating layer Scale21
I0306 13:07:36.651862  9778 net.cpp:84] Creating Layer Scale21
I0306 13:07:36.651872  9778 net.cpp:406] Scale21 <- Convolution21
I0306 13:07:36.651883  9778 net.cpp:367] Scale21 -> Convolution21 (in-place)
I0306 13:07:36.651940  9778 layer_factory.hpp:77] Creating layer Scale21
I0306 13:07:36.652101  9778 net.cpp:122] Setting up Scale21
I0306 13:07:36.652122  9778 net.cpp:129] Top shape: 24 128 28 28 (2408448)
I0306 13:07:36.652135  9778 net.cpp:137] Memory required for data: 2894954784
I0306 13:07:36.652148  9778 layer_factory.hpp:77] Creating layer Eltwise9
I0306 13:07:36.652161  9778 net.cpp:84] Creating Layer Eltwise9
I0306 13:07:36.652169  9778 net.cpp:406] Eltwise9 <- Convolution21
I0306 13:07:36.652180  9778 net.cpp:406] Eltwise9 <- Eltwise8_ReLU17_0_split_1
I0306 13:07:36.652192  9778 net.cpp:380] Eltwise9 -> Eltwise9
I0306 13:07:36.652228  9778 net.cpp:122] Setting up Eltwise9
I0306 13:07:36.652241  9778 net.cpp:129] Top shape: 24 128 28 28 (2408448)
I0306 13:07:36.652249  9778 net.cpp:137] Memory required for data: 2904588576
I0306 13:07:36.652268  9778 layer_factory.hpp:77] Creating layer ReLU19
I0306 13:07:36.652281  9778 net.cpp:84] Creating Layer ReLU19
I0306 13:07:36.652288  9778 net.cpp:406] ReLU19 <- Eltwise9
I0306 13:07:36.652298  9778 net.cpp:367] ReLU19 -> Eltwise9 (in-place)
I0306 13:07:36.652309  9778 net.cpp:122] Setting up ReLU19
I0306 13:07:36.652319  9778 net.cpp:129] Top shape: 24 128 28 28 (2408448)
I0306 13:07:36.652326  9778 net.cpp:137] Memory required for data: 2914222368
I0306 13:07:36.652334  9778 layer_factory.hpp:77] Creating layer Deconvolution1
I0306 13:07:36.652348  9778 net.cpp:84] Creating Layer Deconvolution1
I0306 13:07:36.652356  9778 net.cpp:406] Deconvolution1 <- Eltwise9
I0306 13:07:36.652369  9778 net.cpp:380] Deconvolution1 -> Deconvolution1
I0306 13:07:36.653218  9778 net.cpp:122] Setting up Deconvolution1
I0306 13:07:36.653241  9778 net.cpp:129] Top shape: 24 128 56 56 (9633792)
I0306 13:07:36.653249  9778 net.cpp:137] Memory required for data: 2952757536
I0306 13:07:36.653260  9778 layer_factory.hpp:77] Creating layer BatchNorm22
I0306 13:07:36.653285  9778 net.cpp:84] Creating Layer BatchNorm22
I0306 13:07:36.653295  9778 net.cpp:406] BatchNorm22 <- Deconvolution1
I0306 13:07:36.653306  9778 net.cpp:367] BatchNorm22 -> Deconvolution1 (in-place)
I0306 13:07:36.653518  9778 net.cpp:122] Setting up BatchNorm22
I0306 13:07:36.653532  9778 net.cpp:129] Top shape: 24 128 56 56 (9633792)
I0306 13:07:36.653539  9778 net.cpp:137] Memory required for data: 2991292704
I0306 13:07:36.653551  9778 layer_factory.hpp:77] Creating layer Scale22
I0306 13:07:36.653564  9778 net.cpp:84] Creating Layer Scale22
I0306 13:07:36.653573  9778 net.cpp:406] Scale22 <- Deconvolution1
I0306 13:07:36.653584  9778 net.cpp:367] Scale22 -> Deconvolution1 (in-place)
I0306 13:07:36.653636  9778 layer_factory.hpp:77] Creating layer Scale22
I0306 13:07:36.653767  9778 net.cpp:122] Setting up Scale22
I0306 13:07:36.653780  9778 net.cpp:129] Top shape: 24 128 56 56 (9633792)
I0306 13:07:36.653787  9778 net.cpp:137] Memory required for data: 3029827872
I0306 13:07:36.653800  9778 layer_factory.hpp:77] Creating layer ReLU20
I0306 13:07:36.653847  9778 net.cpp:84] Creating Layer ReLU20
I0306 13:07:36.653856  9778 net.cpp:406] ReLU20 <- Deconvolution1
I0306 13:07:36.653867  9778 net.cpp:367] ReLU20 -> Deconvolution1 (in-place)
I0306 13:07:36.653877  9778 net.cpp:122] Setting up ReLU20
I0306 13:07:36.653887  9778 net.cpp:129] Top shape: 24 128 56 56 (9633792)
I0306 13:07:36.653893  9778 net.cpp:137] Memory required for data: 3068363040
I0306 13:07:36.653900  9778 layer_factory.hpp:77] Creating layer Deconvolution2
I0306 13:07:36.653931  9778 net.cpp:84] Creating Layer Deconvolution2
I0306 13:07:36.653944  9778 net.cpp:406] Deconvolution2 <- Deconvolution1
I0306 13:07:36.653964  9778 net.cpp:380] Deconvolution2 -> Deconvolution2
I0306 13:07:36.654489  9778 net.cpp:122] Setting up Deconvolution2
I0306 13:07:36.654505  9778 net.cpp:129] Top shape: 24 64 112 112 (19267584)
I0306 13:07:36.654513  9778 net.cpp:137] Memory required for data: 3145433376
I0306 13:07:36.654523  9778 layer_factory.hpp:77] Creating layer BatchNorm23
I0306 13:07:36.654536  9778 net.cpp:84] Creating Layer BatchNorm23
I0306 13:07:36.654544  9778 net.cpp:406] BatchNorm23 <- Deconvolution2
I0306 13:07:36.654556  9778 net.cpp:367] BatchNorm23 -> Deconvolution2 (in-place)
I0306 13:07:36.654777  9778 net.cpp:122] Setting up BatchNorm23
I0306 13:07:36.654788  9778 net.cpp:129] Top shape: 24 64 112 112 (19267584)
I0306 13:07:36.654796  9778 net.cpp:137] Memory required for data: 3222503712
I0306 13:07:36.654808  9778 layer_factory.hpp:77] Creating layer Scale23
I0306 13:07:36.654821  9778 net.cpp:84] Creating Layer Scale23
I0306 13:07:36.654830  9778 net.cpp:406] Scale23 <- Deconvolution2
I0306 13:07:36.654839  9778 net.cpp:367] Scale23 -> Deconvolution2 (in-place)
I0306 13:07:36.654902  9778 layer_factory.hpp:77] Creating layer Scale23
I0306 13:07:36.655051  9778 net.cpp:122] Setting up Scale23
I0306 13:07:36.655066  9778 net.cpp:129] Top shape: 24 64 112 112 (19267584)
I0306 13:07:36.655072  9778 net.cpp:137] Memory required for data: 3299574048
I0306 13:07:36.655083  9778 layer_factory.hpp:77] Creating layer ReLU21
I0306 13:07:36.655105  9778 net.cpp:84] Creating Layer ReLU21
I0306 13:07:36.655114  9778 net.cpp:406] ReLU21 <- Deconvolution2
I0306 13:07:36.655124  9778 net.cpp:367] ReLU21 -> Deconvolution2 (in-place)
I0306 13:07:36.655135  9778 net.cpp:122] Setting up ReLU21
I0306 13:07:36.655144  9778 net.cpp:129] Top shape: 24 64 112 112 (19267584)
I0306 13:07:36.655153  9778 net.cpp:137] Memory required for data: 3376644384
I0306 13:07:36.655159  9778 layer_factory.hpp:77] Creating layer Deconvolution3
I0306 13:07:36.655172  9778 net.cpp:84] Creating Layer Deconvolution3
I0306 13:07:36.655179  9778 net.cpp:406] Deconvolution3 <- Deconvolution2
I0306 13:07:36.655190  9778 net.cpp:380] Deconvolution3 -> Deconvolution3
I0306 13:07:36.655555  9778 net.cpp:122] Setting up Deconvolution3
I0306 13:07:36.655570  9778 net.cpp:129] Top shape: 24 32 224 224 (38535168)
I0306 13:07:36.655577  9778 net.cpp:137] Memory required for data: 3530785056
I0306 13:07:36.655587  9778 layer_factory.hpp:77] Creating layer BatchNorm24
I0306 13:07:36.655599  9778 net.cpp:84] Creating Layer BatchNorm24
I0306 13:07:36.655607  9778 net.cpp:406] BatchNorm24 <- Deconvolution3
I0306 13:07:36.655617  9778 net.cpp:367] BatchNorm24 -> Deconvolution3 (in-place)
I0306 13:07:36.655889  9778 net.cpp:122] Setting up BatchNorm24
I0306 13:07:36.655903  9778 net.cpp:129] Top shape: 24 32 224 224 (38535168)
I0306 13:07:36.655911  9778 net.cpp:137] Memory required for data: 3684925728
I0306 13:07:36.655922  9778 layer_factory.hpp:77] Creating layer Scale24
I0306 13:07:36.655951  9778 net.cpp:84] Creating Layer Scale24
I0306 13:07:36.655961  9778 net.cpp:406] Scale24 <- Deconvolution3
I0306 13:07:36.655969  9778 net.cpp:367] Scale24 -> Deconvolution3 (in-place)
I0306 13:07:36.656015  9778 layer_factory.hpp:77] Creating layer Scale24
I0306 13:07:36.658115  9778 net.cpp:122] Setting up Scale24
I0306 13:07:36.658150  9778 net.cpp:129] Top shape: 24 32 224 224 (38535168)
I0306 13:07:36.658160  9778 net.cpp:137] Memory required for data: 3839066400
I0306 13:07:36.658200  9778 layer_factory.hpp:77] Creating layer ReLU22
I0306 13:07:36.658217  9778 net.cpp:84] Creating Layer ReLU22
I0306 13:07:36.658227  9778 net.cpp:406] ReLU22 <- Deconvolution3
I0306 13:07:36.658239  9778 net.cpp:367] ReLU22 -> Deconvolution3 (in-place)
I0306 13:07:36.658252  9778 net.cpp:122] Setting up ReLU22
I0306 13:07:36.658262  9778 net.cpp:129] Top shape: 24 32 224 224 (38535168)
I0306 13:07:36.658269  9778 net.cpp:137] Memory required for data: 3993207072
I0306 13:07:36.658277  9778 layer_factory.hpp:77] Creating layer Convolution22
I0306 13:07:36.658294  9778 net.cpp:84] Creating Layer Convolution22
I0306 13:07:36.658303  9778 net.cpp:406] Convolution22 <- Deconvolution3
I0306 13:07:36.658316  9778 net.cpp:380] Convolution22 -> Convolution22
I0306 13:07:36.658694  9778 net.cpp:122] Setting up Convolution22
I0306 13:07:36.658710  9778 net.cpp:129] Top shape: 24 1 224 224 (1204224)
I0306 13:07:36.658718  9778 net.cpp:137] Memory required for data: 3998023968
I0306 13:07:36.658730  9778 layer_factory.hpp:77] Creating layer ReLU23
I0306 13:07:36.658741  9778 net.cpp:84] Creating Layer ReLU23
I0306 13:07:36.658749  9778 net.cpp:406] ReLU23 <- Convolution22
I0306 13:07:36.658761  9778 net.cpp:367] ReLU23 -> Convolution22 (in-place)
I0306 13:07:36.658771  9778 net.cpp:122] Setting up ReLU23
I0306 13:07:36.658780  9778 net.cpp:129] Top shape: 24 1 224 224 (1204224)
I0306 13:07:36.658788  9778 net.cpp:137] Memory required for data: 4002840864
I0306 13:07:36.658795  9778 layer_factory.hpp:77] Creating layer Loss
I0306 13:07:36.658825  9778 net.cpp:84] Creating Layer Loss
I0306 13:07:36.658835  9778 net.cpp:406] Loss <- Convolution22
I0306 13:07:36.658844  9778 net.cpp:406] Loss <- Data5
I0306 13:07:36.658859  9778 net.cpp:380] Loss -> Loss
…
