…
  data_param {
    source: "/data3/lzh/1000x224x224/raw_data_photon_dis"
    batch_size: 24
    backend: LMDB
  }
}
layer {
  name: "Data3"
  type: "Data"
  top: "Data3"
  top: "Data4"
  transform_param {
    scale: 1
  }
  data_param {
    source: "/data3/lzh/1000x224x224/raw_data_photon_flux"
    batch_size: 24
    backend: LMDB
  }
}
layer {
  name: "Data5"
  type: "Data"
  top: "Data5"
  top: "Data6"
  transform_param {
    scale: 0.00390625
  }
  data_param {
    source: "/data3/lzh/1000x224x224/raw_data_conv"
    batch_size: 24
    backend: LMDB
  }
}
layer {
  name: "Silence"
  type: "Silence"
  bottom: "Data2"
  bottom: "Data4"
  bottom: "Data6"
}
layer {
  name: "Concat1"
  type: "Concat"
  bottom: "Data1"
  bottom: "Data3"
  top: "Concat1"
}
layer {
  name: "Convolution1"
  type: "Convolution"
  bottom: "Concat1"
  top: "Convolution1"
  convolution_param {
    num_output: 32
    bias_term: true
    pad: 3
    kernel_size: 7
    stride: 2
    weight_filler {
      type: "xavier"
    }
    bias_filler {
      type: "constant"
    }
  }
}
layer {
  name: "BatchNorm1"
  type: "BatchNorm"
  bottom: "Convolution1"
  top: "Convolution1"
  param {
    lr_mult: 0
    decay_mult: 0
  }
  param {
    lr_mult: 0
    decay_mult: 0
  }
  param {
    lr_mult: 0
    decay_mult: 0
  }
  batch_norm_param {
    use_global_stats: false
  }
}
layer {
  name: "Scale1"
  type: "Scale"
  bottom: "Convolution1"
  top: "Convolution1"
  scale_param {
    bias_term: true
  }
}
layer {
  name: "Convolution2"
  type: "Convolution"
  bottom: "Convolution1"
  top: "Convolution2"
  convolution_param {
    num_output: 32
    bias_term: true
    pad: 1
    kernel_size: 3
    stride: 1
    weight_filler {
      type: "xavier"
    }
    bias_filler {
      type: "constant"
    }
  }
}
layer {
  name: "BatchNorm2"
  type: "BatchNorm"
  bottom: "Convolution2"
  top: "Convolution2"
  param {
    lr_mult: 0
    decay_mult: 0
  }
  param {
    lr_mult: 0
    decay_mult: 0
  }
  param {
    lr_mult: 0
    decay_mult: 0
  }
  batch_norm_param {
    use_global_stats: false
  }
}
layer {
  name: "Scale2"
  type: "Scale"
  bottom: "Convolution2"
  top: "Convolution2"
  scale_param {
    bias_term: true
  }
}
layer {
  name: "ReLU1"
  type: "ReLU"
  bottom: "Convolution2"
  top: "Convolution2"
}
layer {
  name: "Convolution3"
  type: "Convolution"
  bottom: "Convolution2"
  top: "Convolution3"
  convolution_param {
    num_output: 32
    bias_term: true
    pad: 1
    kernel_size: 3
    stride: 1
    weight_filler {
      type: "xavier"
    }
    bias_filler {
      type: "constant"
    }
  }
}
layer {
  name: "BatchNorm3"
  type: "BatchNorm"
  bottom: "Convolution3"
  top: "Convolution3"
  param {
    lr_mult: 0
    decay_mult: 0
  }
  param {
    lr_mult: 0
    decay_mult: 0
  }
  param {
    lr_mult: 0
    decay_mult: 0
  }
  batch_norm_param {
    use_global_stats: false
  }
}
layer {
  name: "Scale3"
  type: "Scale"
  bottom: "Convolution3"
  top: "Convolution3"
  scale_param {
    bias_term: true
  }
}
layer {
  name: "Eltwise1"
  type: "Eltwise"
  bottom: "Convolution3"
  bottom: "Convolution1"
  top: "Eltwise1"
  eltwise_param {
    operation: SUM
  }
}
layer {
  name: "ReLU2"
  type: "ReLU"
  bottom: "Eltwise1"
  top: "Eltwise1"
}
layer {
  name: "Convolution4"
  type: "Convolution"
  bottom: "Eltwise1"
  top: "Convolution4"
  convolution_param {
    num_output: 32
    bias_term: true
    pad: 1
    kernel_size: 3
    stride: 1
    weight_filler {
      type: "xavier"
    }
    bias_filler {
      type: "constant"
    }
  }
}
layer {
  name: "BatchNorm4"
  type: "BatchNorm"
  bottom: "Convolution4"
  top: "Convolution4"
  param {
    lr_mult: 0
    decay_mult: 0
  }
  param {
    lr_mult: 0
    decay_mult: 0
  }
  param {
    lr_mult: 0
    decay_mult: 0
  }
  batch_norm_param {
    use_global_stats: false
  }
}
layer {
  name: "Scale4"
  type: "Scale"
  bottom: "Convolution4"
  top: "Convolution4"
  scale_param {
    bias_term: true
  }
}
layer {
  name: "ReLU3"
  type: "ReLU"
  bottom: "Convolution4"
  top: "Convolution4"
}
layer {
  name: "Convolution5"
  type: "Convolution"
  bottom: "Convolution4"
  top: "Convolution5"
  convolution_param {
    num_output: 32
    bias_term: true
    pad: 1
    kernel_size: 3
    stride: 1
    weight_filler {
      type: "xavier"
    }
    bias_filler {
      type: "constant"
    }
  }
}
layer {
  name: "BatchNorm5"
  type: "BatchNorm"
  bottom: "Convolution5"
  top: "Convolution5"
  param {
    lr_mult: 0
    decay_mult: 0
  }
  param {
    lr_mult: 0
    decay_mult: 0
  }
  param {
    lr_mult: 0
    decay_mult: 0
  }
  batch_norm_param {
    use_global_stats: false
  }
}
layer {
  name: "Scale5"
  type: "Scale"
  bottom: "Convolution5"
  top: "Convolution5"
  scale_param {
    bias_term: true
  }
}
layer {
  name: "Eltwise2"
  type: "Eltwise"
  bottom: "Convolution5"
  bottom: "Eltwise1"
  top: "Eltwise2"
  eltwise_param {
    operation: SUM
  }
}
layer {
  name: "ReLU4"
  type: "ReLU"
  bottom: "Eltwise2"
  top: "Eltwise2"
}
layer {
  name: "Convolution6"
  type: "Convolution"
  bottom: "Eltwise2"
  top: "Convolution6"
  convolution_param {
    num_output: 32
    bias_term: true
    pad: 1
    kernel_size: 3
    stride: 1
    weight_filler {
      type: "xavier"
    }
    bias_filler {
      type: "constant"
    }
  }
}
layer {
  name: "BatchNorm6"
  type: "BatchNorm"
  bottom: "Convolution6"
  top: "Convolution6"
  param {
    lr_mult: 0
    decay_mult: 0
  }
  param {
    lr_mult: 0
    decay_mult: 0
  }
  param {
    lr_mult: 0
    decay_mult: 0
  }
  batch_norm_param {
    use_global_stats: false
  }
}
layer {
  name: "Scale6"
  type: "Scale"
  bottom: "Convolution6"
  top: "Convolution6"
  scale_param {
    bias_term: true
  }
}
layer {
  name: "ReLU5"
  type: "ReLU"
  bottom: "Convolution6"
  top: "Convolution6"
}
layer {
  name: "Convolution7"
  type: "Convolution"
  bottom: "Convolution6"
  top: "Convolution7"
  convolution_param {
    num_output: 32
    bias_term: true
    pad: 1
    kernel_size: 3
    stride: 1
    weight_filler {
      type: "xavier"
    }
    bias_filler {
      type: "constant"
    }
  }
}
layer {
  name: "BatchNorm7"
  type: "BatchNorm"
  bottom: "Convolution7"
  top: "Convolution7"
  param {
    lr_mult: 0
    decay_mult: 0
  }
  param {
    lr_mult: 0
    decay_mult: 0
  }
  param {
    lr_mult: 0
    decay_mult: 0
  }
  batch_norm_param {
    use_global_stats: false
  }
}
layer {
  name: "Scale7"
  type: "Scale"
  bottom: "Convolution7"
  top: "Convolution7"
  scale_param {
    bias_term: true
  }
}
layer {
  name: "Eltwise3"
  type: "Eltwise"
  bottom: "Convolution7"
  bottom: "Eltwise2"
  top: "Eltwise3"
  eltwise_param {
    operation: SUM
  }
}
layer {
  name: "ReLU6"
  type: "ReLU"
  bottom: "Eltwise3"
  top: "Eltwise3"
}
layer {
  name: "Convolution8"
  type: "Convolution"
  bottom: "Eltwise3"
  top: "Convolution8"
  convolution_param {
    num_output: 64
    bias_term: true
    pad: 1
    kernel_size: 3
    stride: 2
    weight_filler {
      type: "xavier"
    }
    bias_filler {
      type: "constant"
    }
  }
}
layer {
  name: "BatchNorm8"
  type: "BatchNorm"
  bottom: "Convolution8"
  top: "Convolution8"
  param {
    lr_mult: 0
    decay_mult: 0
  }
  param {
    lr_mult: 0
    decay_mult: 0
  }
  param {
    lr_mult: 0
    decay_mult: 0
  }
  batch_norm_param {
    use_global_stats: false
  }
}
layer {
  name: "Scale8"
  type: "Scale"
  bottom: "Convolution8"
  top: "Convolution8"
  scale_param {
    bias_term: true
  }
}
layer {
  name: "ReLU7"
  type: "ReLU"
  bottom: "Convolution8"
  top: "Convolution8"
}
layer {
  name: "Convolution9"
  type: "Convolution"
  bottom: "Convolution8"
  top: "Convolution9"
  convolution_param {
    num_output: 64
    bias_term: true
    pad: 1
    kernel_size: 3
    stride: 1
    weight_filler {
      type: "xavier"
    }
    bias_filler {
      type: "constant"
    }
  }
}
layer {
  name: "BatchNorm9"
  type: "BatchNorm"
  bottom: "Convolution9"
  top: "Convolution9"
  param {
    lr_mult: 0
    decay_mult: 0
  }
  param {
    lr_mult: 0
    decay_mult: 0
  }
  param {
    lr_mult: 0
    decay_mult: 0
  }
  batch_norm_param {
    use_global_stats: false
  }
}
layer {
  name: "Scale9"
  type: "Scale"
  bottom: "Convolution9"
  top: "Convolution9"
  scale_param {
    bias_term: true
  }
}
layer {
  name: "Convolution10"
  type: "Convolution"
  bottom: "Eltwise3"
  top: "Convolution10"
  convolution_param {
    num_output: 64
    bias_term: true
    pad: 0
    kernel_size: 1
    stride: 2
    weight_filler {
      type: "xavier"
    }
    bias_filler {
      type: "constant"
    }
  }
}
layer {
  name: "BatchNorm10"
  type: "BatchNorm"
  bottom: "Convolution10"
  top: "Convolution10"
  param {
    lr_mult: 0
    decay_mult: 0
  }
  param {
    lr_mult: 0
    decay_mult: 0
  }
  param {
    lr_mult: 0
    decay_mult: 0
  }
  batch_norm_param {
    use_global_stats: false
  }
}
layer {
  name: "Scale10"
  type: "Scale"
  bottom: "Convolution10"
  top: "Convolution10"
  scale_param {
    bias_term: true
  }
}
layer {
  name: "Eltwise4"
  type: "Eltwise"
  bottom: "Convolution9"
  bottom: "Convolution10"
  top: "Eltwise4"
  eltwise_param {
    operation: SUM
  }
}
layer {
  name: "ReLU8"
  type: "ReLU"
  bottom: "Eltwise4"
  top: "Eltwise4"
}
layer {
  name: "Convolution11"
  type: "Convolution"
  bottom: "Eltwise4"
  top: "Convolution11"
  convolution_param {
    num_output: 64
    bias_term: true
    pad: 1
    kernel_size: 3
    stride: 1
    weight_filler {
      type: "xavier"
    }
    bias_filler {
      type: "constant"
    }
  }
}
layer {
  name: "BatchNorm11"
  type: "BatchNorm"
  bottom: "Convolution11"
  top: "Convolution11"
  param {
    lr_mult: 0
    decay_mult: 0
  }
  param {
    lr_mult: 0
    decay_mult: 0
  }
  param {
    lr_mult: 0
    decay_mult: 0
  }
  batch_norm_param {
    use_global_stats: false
  }
}
layer {
  name: "Scale11"
  type: "Scale"
  bottom: "Convolution11"
  top: "Convolution11"
  scale_param {
    bias_term: true
  }
}
layer {
  name: "ReLU9"
  type: "ReLU"
  bottom: "Convolution11"
  top: "Convolution11"
}
layer {
  name: "Convolution12"
  type: "Convolution"
  bottom: "Convolution11"
  top: "Convolution12"
  convolution_param {
    num_output: 64
    bias_term: true
    pad: 1
    kernel_size: 3
    stride: 1
    weight_filler {
      type: "xavier"
    }
    bias_filler {
      type: "constant"
    }
  }
}
layer {
  name: "BatchNorm12"
  type: "BatchNorm"
  bottom: "Convolution12"
  top: "Convolution12"
  param {
    lr_mult: 0
    decay_mult: 0
  }
  param {
    lr_mult: 0
    decay_mult: 0
  }
  param {
    lr_mult: 0
    decay_mult: 0
  }
  batch_norm_param {
    use_global_stats: false
  }
}
layer {
  name: "Scale12"
  type: "Scale"
  bottom: "Convolution12"
  top: "Convolution12"
  scale_param {
    bias_term: true
  }
}
layer {
  name: "Eltwise5"
  type: "Eltwise"
  bottom: "Convolution12"
  bottom: "Eltwise4"
  top: "Eltwise5"
  eltwise_param {
    operation: SUM
  }
}
layer {
  name: "ReLU10"
  type: "ReLU"
  bottom: "Eltwise5"
  top: "Eltwise5"
}
layer {
  name: "Convolution13"
  type: "Convolution"
  bottom: "Eltwise5"
  top: "Convolution13"
  convolution_param {
    num_output: 64
    bias_term: true
    pad: 1
    kernel_size: 3
    stride: 1
    weight_filler {
      type: "xavier"
    }
    bias_filler {
      type: "constant"
    }
  }
}
layer {
  name: "BatchNorm13"
  type: "BatchNorm"
  bottom: "Convolution13"
  top: "Convolution13"
  param {
    lr_mult: 0
    decay_mult: 0
  }
  param {
    lr_mult: 0
    decay_mult: 0
  }
  param {
    lr_mult: 0
    decay_mult: 0
  }
  batch_norm_param {
    use_global_stats: false
  }
}
layer {
  name: "Scale13"
  type: "Scale"
  bottom: "Convolution13"
  top: "Convolution13"
  scale_param {
    bias_term: true
  }
}
layer {
  name: "ReLU11"
  type: "ReLU"
  bottom: "Convolution13"
  top: "Convolution13"
}
layer {
  name: "Convolution14"
  type: "Convolution"
  bottom: "Convolution13"
  top: "Convolution14"
  convolution_param {
    num_output: 64
    bias_term: true
    pad: 1
    kernel_size: 3
    stride: 1
    weight_filler {
      type: "xavier"
    }
    bias_filler {
      type: "constant"
    }
  }
}
layer {
  name: "BatchNorm14"
  type: "BatchNorm"
  bottom: "Convolution14"
  top: "Convolution14"
  param {
    lr_mult: 0
    decay_mult: 0
  }
  param {
    lr_mult: 0
    decay_mult: 0
  }
  param {
    lr_mult: 0
    decay_mult: 0
  }
  batch_norm_param {
    use_global_stats: false
  }
}
layer {
  name: "Scale14"
  type: "Scale"
  bottom: "Convolution14"
  top: "Convolution14"
  scale_param {
    bias_term: true
  }
}
layer {
  name: "Eltwise6"
  type: "Eltwise"
  bottom: "Convolution14"
  bottom: "Eltwise5"
  top: "Eltwise6"
  eltwise_param {
    operation: SUM
  }
}
layer {
  name: "ReLU12"
  type: "ReLU"
  bottom: "Eltwise6"
  top: "Eltwise6"
}
layer {
  name: "Convolution15"
  type: "Convolution"
  bottom: "Eltwise6"
  top: "Convolution15"
  convolution_param {
    num_output: 128
    bias_term: true
    pad: 1
    kernel_size: 3
    stride: 2
    weight_filler {
      type: "xavier"
    }
    bias_filler {
      type: "constant"
    }
  }
}
layer {
  name: "BatchNorm15"
  type: "BatchNorm"
  bottom: "Convolution15"
  top: "Convolution15"
  param {
    lr_mult: 0
    decay_mult: 0
  }
  param {
    lr_mult: 0
    decay_mult: 0
  }
  param {
    lr_mult: 0
    decay_mult: 0
  }
  batch_norm_param {
    use_global_stats: false
  }
}
layer {
  name: "Scale15"
  type: "Scale"
  bottom: "Convolution15"
  top: "Convolution15"
  scale_param {
    bias_term: true
  }
}
layer {
  name: "ReLU13"
  type: "ReLU"
  bottom: "Convolution15"
  top: "Convolution15"
}
layer {
  name: "Convolution16"
  type: "Convolution"
  bottom: "Convolution15"
  top: "Convolution16"
  convolution_param {
    num_output: 128
    bias_term: true
    pad: 1
    kernel_size: 3
    stride: 1
    weight_filler {
      type: "xavier"
    }
    bias_filler {
      type: "constant"
    }
  }
}
layer {
  name: "BatchNorm16"
  type: "BatchNorm"
  bottom: "Convolution16"
  top: "Convolution16"
  param {
    lr_mult: 0
    decay_mult: 0
  }
  param {
    lr_mult: 0
    decay_mult: 0
  }
  param {
    lr_mult: 0
    decay_mult: 0
  }
  batch_norm_param {
    use_global_stats: false
  }
}
layer {
  name: "Scale16"
  type: "Scale"
  bottom: "Convolution16"
  top: "Convolution16"
  scale_param {
    bias_term: true
  }
}
layer {
  name: "Convolution17"
  type: "Convolution"
  bottom: "Eltwise6"
  top: "Convolution17"
  convolution_param {
    num_output: 128
    bias_term: true
    pad: 0
    kernel_size: 1
    stride: 2
    weight_filler {
      type: "xavier"
    }
    bias_filler {
      type: "constant"
    }
  }
}
layer {
  name: "BatchNorm17"
  type: "BatchNorm"
  bottom: "Convolution17"
  top: "Convolution17"
  param {
    lr_mult: 0
    decay_mult: 0
  }
  param {
    lr_mult: 0
    decay_mult: 0
  }
  param {
    lr_mult: 0
    decay_mult: 0
  }
  batch_norm_param {
    use_global_stats: false
  }
}
layer {
  name: "Scale17"
  type: "Scale"
  bottom: "Convolution17"
  top: "Convolution17"
  scale_param {
    bias_term: true
  }
}
layer {
  name: "Eltwise7"
  type: "Eltwise"
  bottom: "Convolution16"
  bottom: "Convolution17"
  top: "Eltwise7"
  eltwise_param {
    operation: SUM
  }
}
layer {
  name: "ReLU14"
  type: "ReLU"
  bottom: "Eltwise7"
  top: "Eltwise7"
}
layer {
  name: "Convolution18"
  type: "Convolution"
  bottom: "Eltwise7"
  top: "Convolution18"
  convolution_param {
    num_output: 128
    bias_term: true
    pad: 1
    kernel_size: 3
    stride: 1
    weight_filler {
      type: "xavier"
    }
    bias_filler {
      type: "constant"
    }
  }
}
layer {
  name: "BatchNorm18"
  type: "BatchNorm"
  bottom: "Convolution18"
  top: "Convolution18"
  param {
    lr_mult: 0
    decay_mult: 0
  }
  param {
    lr_mult: 0
    decay_mult: 0
  }
  param {
    lr_mult: 0
    decay_mult: 0
  }
  batch_norm_param {
    use_global_stats: false
  }
}
layer {
  name: "Scale18"
  type: "Scale"
  bottom: "Convolution18"
  top: "Convolution18"
  scale_param {
    bias_term: true
  }
}
layer {
  name: "ReLU15"
  type: "ReLU"
  bottom: "Convolution18"
  top: "Convolution18"
}
layer {
  name: "Convolution19"
  type: "Convolution"
  bottom: "Convolution18"
  top: "Convolution19"
  convolution_param {
    num_output: 128
    bias_term: true
    pad: 1
    kernel_size: 3
    stride: 1
    weight_filler {
      type: "xavier"
    }
    bias_filler {
      type: "constant"
    }
  }
}
layer {
  name: "BatchNorm19"
  type: "BatchNorm"
  bottom: "Convolution19"
  top: "Convolution19"
  param {
    lr_mult: 0
    decay_mult: 0
  }
  param {
    lr_mult: 0
    decay_mult: 0
  }
  param {
    lr_mult: 0
    decay_mult: 0
  }
  batch_norm_param {
    use_global_stats: false
  }
}
layer {
  name: "Scale19"
  type: "Scale"
  bottom: "Convolution19"
  top: "Convolution19"
  scale_param {
    bias_term: true
  }
}
layer {
  name: "Eltwise8"
  type: "Eltwise"
  bottom: "Convolution19"
  bottom: "Eltwise7"
  top: "Eltwise8"
  eltwise_param {
    operation: SUM
  }
}
layer {
  name: "ReLU16"
  type: "ReLU"
  bottom: "Eltwise8"
  top: "Eltwise8"
}
layer {
  name: "Convolution20"
  type: "Convolution"
  bottom: "Eltwise8"
  top: "Convolution20"
  convolution_param {
    num_output: 128
    bias_term: true
    pad: 1
    kernel_size: 3
    stride: 1
    weight_filler {
      type: "xavier"
    }
    bias_filler {
      type: "constant"
    }
  }
}
layer {
  name: "BatchNorm20"
  type: "BatchNorm"
  bottom: "Convolution20"
  top: "Convolution20"
  param {
    lr_mult: 0
    decay_mult: 0
  }
  param {
    lr_mult: 0
    decay_mult: 0
  }
  param {
    lr_mult: 0
    decay_mult: 0
  }
  batch_norm_param {
    use_global_stats: false
  }
}
layer {
  name: "Scale20"
  type: "Scale"
  bottom: "Convolution20"
  top: "Convolution20"
  scale_param {
    bias_term: true
  }
}
layer {
  name: "ReLU17"
  type: "ReLU"
  bottom: "Convolution20"
  top: "Convolution20"
}
layer {
  name: "Convolution21"
  type: "Convolution"
  bottom: "Convolution20"
  top: "Convolution21"
  convolution_param {
    num_output: 128
    bias_term: true
    pad: 1
    kernel_size: 3
    stride: 1
    weight_filler {
      type: "xavier"
    }
    bias_filler {
      type: "constant"
    }
  }
}
layer {
  name: "BatchNorm21"
  type: "BatchNorm"
  bottom: "Convolution21"
  top: "Convolution21"
  param {
    lr_mult: 0
    decay_mult: 0
  }
  param {
    lr_mult: 0
    decay_mult: 0
  }
  param {
    lr_mult: 0
    decay_mult: 0
  }
  batch_norm_param {
    use_global_stats: false
  }
}
layer {
  name: "Scale21"
  type: "Scale"
  bottom: "Convolution21"
  top: "Convolution21"
  scale_param {
    bias_term: true
  }
}
layer {
  name: "Eltwise9"
  type: "Eltwise"
  bottom: "Convolution21"
  bottom: "Eltwise8"
  top: "Eltwise9"
  eltwise_param {
    operation: SUM
  }
}
layer {
  name: "ReLU18"
  type: "ReLU"
  bottom: "Eltwise9"
  top: "Eltwise9"
}
layer {
  name: "Deconvolution1"
  type: "Deconvolution"
  bottom: "Eltwise9"
  top: "Deconvolution1"
  convolution_param {
    num_output: 128
    bias_term: true
    pad: 0
    kernel_size: 2
    stride: 2
    weight_filler {
      type: "xavier"
    }
    bias_filler {
      type: "constant"
    }
  }
}
layer {
  name: "BatchNorm22"
  type: "BatchNorm"
  bottom: "Deconvolution1"
  top: "Deconvolution1"
  param {
    lr_mult: 0
    decay_mult: 0
  }
  param {
    lr_mult: 0
    decay_mult: 0
  }
  param {
    lr_mult: 0
    decay_mult: 0
  }
  batch_norm_param {
    use_global_stats: false
  }
}
layer {
  name: "Scale22"
  type: "Scale"
  bottom: "Deconvolution1"
  top: "Deconvolution1"
  scale_param {
    bias_term: true
  }
}
layer {
  name: "ReLU19"
  type: "ReLU"
  bottom: "Deconvolution1"
  top: "Deconvolution1"
}
layer {
  name: "Deconvolution2"
  type: "Deconvolution"
  bottom: "Deconvolution1"
  top: "Deconvolution2"
  convolution_param {
    num_output: 64
    bias_term: true
    pad: 0
    kernel_size: 2
    stride: 2
    weight_filler {
      type: "xavier"
    }
    bias_filler {
      type: "constant"
    }
  }
}
layer {
  name: "BatchNorm23"
  type: "BatchNorm"
  bottom: "Deconvolution2"
  top: "Deconvolution2"
  param {
    lr_mult: 0
    decay_mult: 0
  }
  param {
    lr_mult: 0
    decay_mult: 0
  }
  param {
    lr_mult: 0
    decay_mult: 0
  }
  batch_norm_param {
    use_global_stats: false
  }
}
layer {
  name: "Scale23"
  type: "Scale"
  bottom: "Deconvolution2"
  top: "Deconvolution2"
  scale_param {
    bias_term: true
  }
}
layer {
  name: "ReLU20"
  type: "ReLU"
  bottom: "Deconvolution2"
  top: "Deconvolution2"
}
layer {
  name: "Deconvolution3"
  type: "Deconvolution"
  bottom: "Deconvolution2"
  top: "Deconvolution3"
  convolution_param {
    num_output: 32
    bias_term: true
    pad: 0
    kernel_size: 2
    stride: 2
    weight_filler {
      type: "xavier"
    }
    bias_filler {
      type: "constant"
    }
  }
}
layer {
  name: "BatchNorm24"
  type: "BatchNorm"
  bottom: "Deconvolution3"
  top: "Deconvolution3"
  param {
    lr_mult: 0
    decay_mult: 0
  }
  param {
    lr_mult: 0
    decay_mult: 0
  }
  param {
    lr_mult: 0
    decay_mult: 0
  }
  batch_norm_param {
    use_global_stats: false
  }
}
layer {
  name: "Scale24"
  type: "Scale"
  bottom: "Deconvolution3"
  top: "Deconvolution3"
  scale_param {
    bias_term: true
  }
}
layer {
  name: "ReLU21"
  type: "ReLU"
  bottom: "Deconvolution3"
  top: "Deconvolution3"
}
layer {
  name: "Convolution22"
  type: "Convolution"
  bottom: "Deconvolution3"
  top: "Convolution22"
  convolution_param {
    num_output: 1
    bias_term: true
    pad: 0
    kernel_size: 1
    stride: 1
    weight_filler {
      type: "xavier"
    }
    bias_filler {
      type: "constant"
    }
  }
}
layer {
  name: "ReLU22"
  type: "ReLU"
  bottom: "Convolution22"
  top: "Convolution22"
}
layer {
  name: "Loss"
  type: "EuclideanLoss"
  bottom: "Convolution22"
  bottom: "Data5"
  top: "Loss"
  propagate_down: true
  propagate_down: false
}
I0305 17:56:49.594418 21892 layer_factory.hpp:77] Creating layer Data1
I0305 17:56:49.594614 21892 db_lmdb.cpp:35] Opened lmdb /data3/lzh/1000x224x224/raw_data_photon_dis
I0305 17:56:49.594648 21892 net.cpp:84] Creating Layer Data1
I0305 17:56:49.594662 21892 net.cpp:380] Data1 -> Data1
I0305 17:56:49.594709 21892 net.cpp:380] Data1 -> Data2
I0305 17:56:49.613857 21892 data_layer.cpp:45] output data size: 24,20,224,224
I0305 17:56:49.945933 21892 net.cpp:122] Setting up Data1
I0305 17:56:49.946048 21892 net.cpp:129] Top shape: 24 20 224 224 (24084480)
I0305 17:56:49.946071 21892 net.cpp:129] Top shape: 24 (24)
I0305 17:56:49.946087 21892 net.cpp:137] Memory required for data: 96338016
I0305 17:56:49.946120 21892 layer_factory.hpp:77] Creating layer Data3
I0305 17:56:49.946280 21892 db_lmdb.cpp:35] Opened lmdb /data3/lzh/1000x224x224/raw_data_photon_flux
I0305 17:56:49.946326 21892 net.cpp:84] Creating Layer Data3
I0305 17:56:49.946347 21892 net.cpp:380] Data3 -> Data3
I0305 17:56:49.946377 21892 net.cpp:380] Data3 -> Data4
I0305 17:56:49.954502 21892 data_layer.cpp:45] output data size: 24,20,224,224
I0305 17:56:50.253620 21892 net.cpp:122] Setting up Data3
I0305 17:56:50.253727 21892 net.cpp:129] Top shape: 24 20 224 224 (24084480)
I0305 17:56:50.253748 21892 net.cpp:129] Top shape: 24 (24)
I0305 17:56:50.253767 21892 net.cpp:137] Memory required for data: 192676032
I0305 17:56:50.253782 21892 layer_factory.hpp:77] Creating layer Data5
I0305 17:56:50.253968 21892 db_lmdb.cpp:35] Opened lmdb /data3/lzh/1000x224x224/raw_data_conv
I0305 17:56:50.254007 21892 net.cpp:84] Creating Layer Data5
I0305 17:56:50.254026 21892 net.cpp:380] Data5 -> Data5
I0305 17:56:50.254055 21892 net.cpp:380] Data5 -> Data6
I0305 17:56:50.254251 21892 data_layer.cpp:45] output data size: 24,1,224,224
I0305 17:56:50.293728 21892 net.cpp:122] Setting up Data5
I0305 17:56:50.293784 21892 net.cpp:129] Top shape: 24 1 224 224 (1204224)
I0305 17:56:50.293794 21892 net.cpp:129] Top shape: 24 (24)
I0305 17:56:50.293799 21892 net.cpp:137] Memory required for data: 197493024
I0305 17:56:50.293808 21892 layer_factory.hpp:77] Creating layer Silence
I0305 17:56:50.293859 21892 net.cpp:84] Creating Layer Silence
I0305 17:56:50.293875 21892 net.cpp:406] Silence <- Data2
I0305 17:56:50.293932 21892 net.cpp:406] Silence <- Data4
I0305 17:56:50.293951 21892 net.cpp:406] Silence <- Data6
I0305 17:56:50.293965 21892 net.cpp:122] Setting up Silence
I0305 17:56:50.293999 21892 net.cpp:137] Memory required for data: 197493024
I0305 17:56:50.294006 21892 layer_factory.hpp:77] Creating layer Concat1
I0305 17:56:50.294034 21892 net.cpp:84] Creating Layer Concat1
I0305 17:56:50.294042 21892 net.cpp:406] Concat1 <- Data1
I0305 17:56:50.294067 21892 net.cpp:406] Concat1 <- Data3
I0305 17:56:50.294078 21892 net.cpp:380] Concat1 -> Concat1
I0305 17:56:50.294145 21892 net.cpp:122] Setting up Concat1
I0305 17:56:50.294153 21892 net.cpp:129] Top shape: 24 40 224 224 (48168960)
I0305 17:56:50.294158 21892 net.cpp:137] Memory required for data: 390168864
I0305 17:56:50.294162 21892 layer_factory.hpp:77] Creating layer Convolution1
I0305 17:56:50.294184 21892 net.cpp:84] Creating Layer Convolution1
I0305 17:56:50.294189 21892 net.cpp:406] Convolution1 <- Concat1
I0305 17:56:50.294242 21892 net.cpp:380] Convolution1 -> Convolution1
I0305 17:56:50.299185 21892 net.cpp:122] Setting up Convolution1
I0305 17:56:50.299230 21892 net.cpp:129] Top shape: 24 32 112 112 (9633792)
I0305 17:56:50.299240 21892 net.cpp:137] Memory required for data: 428704032
I0305 17:56:50.299274 21892 layer_factory.hpp:77] Creating layer BatchNorm1
I0305 17:56:50.299315 21892 net.cpp:84] Creating Layer BatchNorm1
I0305 17:56:50.299331 21892 net.cpp:406] BatchNorm1 <- Convolution1
I0305 17:56:50.299360 21892 net.cpp:367] BatchNorm1 -> Convolution1 (in-place)
I0305 17:56:50.299669 21892 net.cpp:122] Setting up BatchNorm1
I0305 17:56:50.299695 21892 net.cpp:129] Top shape: 24 32 112 112 (9633792)
I0305 17:56:50.299708 21892 net.cpp:137] Memory required for data: 467239200
I0305 17:56:50.299734 21892 layer_factory.hpp:77] Creating layer Scale1
I0305 17:56:50.299772 21892 net.cpp:84] Creating Layer Scale1
I0305 17:56:50.299782 21892 net.cpp:406] Scale1 <- Convolution1
I0305 17:56:50.299793 21892 net.cpp:367] Scale1 -> Convolution1 (in-place)
I0305 17:56:50.299897 21892 layer_factory.hpp:77] Creating layer Scale1
I0305 17:56:50.300109 21892 net.cpp:122] Setting up Scale1
I0305 17:56:50.300127 21892 net.cpp:129] Top shape: 24 32 112 112 (9633792)
I0305 17:56:50.300137 21892 net.cpp:137] Memory required for data: 505774368
I0305 17:56:50.300148 21892 layer_factory.hpp:77] Creating layer Convolution1_Scale1_0_split
I0305 17:56:50.300174 21892 net.cpp:84] Creating Layer Convolution1_Scale1_0_split
I0305 17:56:50.300194 21892 net.cpp:406] Convolution1_Scale1_0_split <- Convolution1
I0305 17:56:50.300210 21892 net.cpp:380] Convolution1_Scale1_0_split -> Convolution1_Scale1_0_split_0
I0305 17:56:50.300231 21892 net.cpp:380] Convolution1_Scale1_0_split -> Convolution1_Scale1_0_split_1
I0305 17:56:50.300302 21892 net.cpp:122] Setting up Convolution1_Scale1_0_split
I0305 17:56:50.300343 21892 net.cpp:129] Top shape: 24 32 112 112 (9633792)
I0305 17:56:50.300357 21892 net.cpp:129] Top shape: 24 32 112 112 (9633792)
I0305 17:56:50.300371 21892 net.cpp:137] Memory required for data: 582844704
I0305 17:56:50.300385 21892 layer_factory.hpp:77] Creating layer Convolution2
I0305 17:56:50.300420 21892 net.cpp:84] Creating Layer Convolution2
I0305 17:56:50.300433 21892 net.cpp:406] Convolution2 <- Convolution1_Scale1_0_split_0
I0305 17:56:50.300475 21892 net.cpp:380] Convolution2 -> Convolution2
I0305 17:56:50.300945 21892 net.cpp:122] Setting up Convolution2
I0305 17:56:50.300968 21892 net.cpp:129] Top shape: 24 32 112 112 (9633792)
I0305 17:56:50.300977 21892 net.cpp:137] Memory required for data: 621379872
I0305 17:56:50.300992 21892 layer_factory.hpp:77] Creating layer BatchNorm2
I0305 17:56:50.301034 21892 net.cpp:84] Creating Layer BatchNorm2
I0305 17:56:50.301051 21892 net.cpp:406] BatchNorm2 <- Convolution2
I0305 17:56:50.301077 21892 net.cpp:367] BatchNorm2 -> Convolution2 (in-place)
I0305 17:56:50.301401 21892 net.cpp:122] Setting up BatchNorm2
I0305 17:56:50.301424 21892 net.cpp:129] Top shape: 24 32 112 112 (9633792)
I0305 17:56:50.301439 21892 net.cpp:137] Memory required for data: 659915040
I0305 17:56:50.301457 21892 layer_factory.hpp:77] Creating layer Scale2
I0305 17:56:50.301488 21892 net.cpp:84] Creating Layer Scale2
I0305 17:56:50.301497 21892 net.cpp:406] Scale2 <- Convolution2
I0305 17:56:50.301507 21892 net.cpp:367] Scale2 -> Convolution2 (in-place)
I0305 17:56:50.301575 21892 layer_factory.hpp:77] Creating layer Scale2
I0305 17:56:50.301764 21892 net.cpp:122] Setting up Scale2
I0305 17:56:50.301802 21892 net.cpp:129] Top shape: 24 32 112 112 (9633792)
I0305 17:56:50.301815 21892 net.cpp:137] Memory required for data: 698450208
I0305 17:56:50.301828 21892 layer_factory.hpp:77] Creating layer ReLU1
I0305 17:56:50.301839 21892 net.cpp:84] Creating Layer ReLU1
I0305 17:56:50.301847 21892 net.cpp:406] ReLU1 <- Convolution2
I0305 17:56:50.301857 21892 net.cpp:367] ReLU1 -> Convolution2 (in-place)
I0305 17:56:50.301868 21892 net.cpp:122] Setting up ReLU1
I0305 17:56:50.301877 21892 net.cpp:129] Top shape: 24 32 112 112 (9633792)
I0305 17:56:50.301887 21892 net.cpp:137] Memory required for data: 736985376
I0305 17:56:50.301900 21892 layer_factory.hpp:77] Creating layer Convolution3
I0305 17:56:50.301944 21892 net.cpp:84] Creating Layer Convolution3
I0305 17:56:50.301960 21892 net.cpp:406] Convolution3 <- Convolution2
I0305 17:56:50.301978 21892 net.cpp:380] Convolution3 -> Convolution3
I0305 17:56:50.302778 21892 net.cpp:122] Setting up Convolution3
I0305 17:56:50.302811 21892 net.cpp:129] Top shape: 24 32 112 112 (9633792)
I0305 17:56:50.302825 21892 net.cpp:137] Memory required for data: 775520544
I0305 17:56:50.302845 21892 layer_factory.hpp:77] Creating layer BatchNorm3
I0305 17:56:50.302883 21892 net.cpp:84] Creating Layer BatchNorm3
I0305 17:56:50.302899 21892 net.cpp:406] BatchNorm3 <- Convolution3
I0305 17:56:50.302917 21892 net.cpp:367] BatchNorm3 -> Convolution3 (in-place)
I0305 17:56:50.303217 21892 net.cpp:122] Setting up BatchNorm3
I0305 17:56:50.303256 21892 net.cpp:129] Top shape: 24 32 112 112 (9633792)
I0305 17:56:50.303270 21892 net.cpp:137] Memory required for data: 814055712
I0305 17:56:50.303298 21892 layer_factory.hpp:77] Creating layer Scale3
I0305 17:56:50.303311 21892 net.cpp:84] Creating Layer Scale3
I0305 17:56:50.303319 21892 net.cpp:406] Scale3 <- Convolution3
I0305 17:56:50.303329 21892 net.cpp:367] Scale3 -> Convolution3 (in-place)
I0305 17:56:50.303393 21892 layer_factory.hpp:77] Creating layer Scale3
I0305 17:56:50.303578 21892 net.cpp:122] Setting up Scale3
I0305 17:56:50.303599 21892 net.cpp:129] Top shape: 24 32 112 112 (9633792)
I0305 17:56:50.303612 21892 net.cpp:137] Memory required for data: 852590880
I0305 17:56:50.303629 21892 layer_factory.hpp:77] Creating layer Eltwise1
I0305 17:56:50.303658 21892 net.cpp:84] Creating Layer Eltwise1
I0305 17:56:50.303668 21892 net.cpp:406] Eltwise1 <- Convolution3
I0305 17:56:50.303676 21892 net.cpp:406] Eltwise1 <- Convolution1_Scale1_0_split_1
I0305 17:56:50.303689 21892 net.cpp:380] Eltwise1 -> Eltwise1
I0305 17:56:50.303742 21892 net.cpp:122] Setting up Eltwise1
I0305 17:56:50.303761 21892 net.cpp:129] Top shape: 24 32 112 112 (9633792)
I0305 17:56:50.303772 21892 net.cpp:137] Memory required for data: 891126048
I0305 17:56:50.303784 21892 layer_factory.hpp:77] Creating layer ReLU2
I0305 17:56:50.303818 21892 net.cpp:84] Creating Layer ReLU2
I0305 17:56:50.303828 21892 net.cpp:406] ReLU2 <- Eltwise1
I0305 17:56:50.303838 21892 net.cpp:367] ReLU2 -> Eltwise1 (in-place)
I0305 17:56:50.303848 21892 net.cpp:122] Setting up ReLU2
I0305 17:56:50.303856 21892 net.cpp:129] Top shape: 24 32 112 112 (9633792)
I0305 17:56:50.303864 21892 net.cpp:137] Memory required for data: 929661216
I0305 17:56:50.303886 21892 layer_factory.hpp:77] Creating layer Eltwise1_ReLU2_0_split
I0305 17:56:50.303905 21892 net.cpp:84] Creating Layer Eltwise1_ReLU2_0_split
I0305 17:56:50.303918 21892 net.cpp:406] Eltwise1_ReLU2_0_split <- Eltwise1
I0305 17:56:50.303933 21892 net.cpp:380] Eltwise1_ReLU2_0_split -> Eltwise1_ReLU2_0_split_0
I0305 17:56:50.303951 21892 net.cpp:380] Eltwise1_ReLU2_0_split -> Eltwise1_ReLU2_0_split_1
I0305 17:56:50.304003 21892 net.cpp:122] Setting up Eltwise1_ReLU2_0_split
I0305 17:56:50.304013 21892 net.cpp:129] Top shape: 24 32 112 112 (9633792)
I0305 17:56:50.304023 21892 net.cpp:129] Top shape: 24 32 112 112 (9633792)
I0305 17:56:50.304029 21892 net.cpp:137] Memory required for data: 1006731552
I0305 17:56:50.304038 21892 layer_factory.hpp:77] Creating layer Convolution4
I0305 17:56:50.304057 21892 net.cpp:84] Creating Layer Convolution4
I0305 17:56:50.304070 21892 net.cpp:406] Convolution4 <- Eltwise1_ReLU2_0_split_0
I0305 17:56:50.304088 21892 net.cpp:380] Convolution4 -> Convolution4
I0305 17:56:50.304502 21892 net.cpp:122] Setting up Convolution4
I0305 17:56:50.304517 21892 net.cpp:129] Top shape: 24 32 112 112 (9633792)
I0305 17:56:50.304524 21892 net.cpp:137] Memory required for data: 1045266720
I0305 17:56:50.304535 21892 layer_factory.hpp:77] Creating layer BatchNorm4
I0305 17:56:50.304546 21892 net.cpp:84] Creating Layer BatchNorm4
I0305 17:56:50.304558 21892 net.cpp:406] BatchNorm4 <- Convolution4
I0305 17:56:50.304574 21892 net.cpp:367] BatchNorm4 -> Convolution4 (in-place)
I0305 17:56:50.304891 21892 net.cpp:122] Setting up BatchNorm4
I0305 17:56:50.304905 21892 net.cpp:129] Top shape: 24 32 112 112 (9633792)
I0305 17:56:50.304913 21892 net.cpp:137] Memory required for data: 1083801888
I0305 17:56:50.304924 21892 layer_factory.hpp:77] Creating layer Scale4
I0305 17:56:50.304950 21892 net.cpp:84] Creating Layer Scale4
I0305 17:56:50.304965 21892 net.cpp:406] Scale4 <- Convolution4
I0305 17:56:50.304980 21892 net.cpp:367] Scale4 -> Convolution4 (in-place)
I0305 17:56:50.305047 21892 layer_factory.hpp:77] Creating layer Scale4
I0305 17:56:50.305245 21892 net.cpp:122] Setting up Scale4
I0305 17:56:50.305258 21892 net.cpp:129] Top shape: 24 32 112 112 (9633792)
I0305 17:56:50.305265 21892 net.cpp:137] Memory required for data: 1122337056
I0305 17:56:50.305284 21892 layer_factory.hpp:77] Creating layer ReLU3
I0305 17:56:50.305295 21892 net.cpp:84] Creating Layer ReLU3
I0305 17:56:50.305310 21892 net.cpp:406] ReLU3 <- Convolution4
I0305 17:56:50.305323 21892 net.cpp:367] ReLU3 -> Convolution4 (in-place)
I0305 17:56:50.305338 21892 net.cpp:122] Setting up ReLU3
I0305 17:56:50.305352 21892 net.cpp:129] Top shape: 24 32 112 112 (9633792)
I0305 17:56:50.305363 21892 net.cpp:137] Memory required for data: 1160872224
I0305 17:56:50.305375 21892 layer_factory.hpp:77] Creating layer Convolution5
I0305 17:56:50.305393 21892 net.cpp:84] Creating Layer Convolution5
I0305 17:56:50.305405 21892 net.cpp:406] Convolution5 <- Convolution4
I0305 17:56:50.305428 21892 net.cpp:380] Convolution5 -> Convolution5
I0305 17:56:50.305860 21892 net.cpp:122] Setting up Convolution5
I0305 17:56:50.305883 21892 net.cpp:129] Top shape: 24 32 112 112 (9633792)
I0305 17:56:50.305896 21892 net.cpp:137] Memory required for data: 1199407392
I0305 17:56:50.305913 21892 layer_factory.hpp:77] Creating layer BatchNorm5
I0305 17:56:50.305943 21892 net.cpp:84] Creating Layer BatchNorm5
I0305 17:56:50.305953 21892 net.cpp:406] BatchNorm5 <- Convolution5
I0305 17:56:50.305963 21892 net.cpp:367] BatchNorm5 -> Convolution5 (in-place)
I0305 17:56:50.306246 21892 net.cpp:122] Setting up BatchNorm5
I0305 17:56:50.306267 21892 net.cpp:129] Top shape: 24 32 112 112 (9633792)
I0305 17:56:50.306290 21892 net.cpp:137] Memory required for data: 1237942560
I0305 17:56:50.306310 21892 layer_factory.hpp:77] Creating layer Scale5
I0305 17:56:50.306321 21892 net.cpp:84] Creating Layer Scale5
I0305 17:56:50.306329 21892 net.cpp:406] Scale5 <- Convolution5
I0305 17:56:50.306344 21892 net.cpp:367] Scale5 -> Convolution5 (in-place)
I0305 17:56:50.306414 21892 layer_factory.hpp:77] Creating layer Scale5
I0305 17:56:50.306599 21892 net.cpp:122] Setting up Scale5
I0305 17:56:50.306619 21892 net.cpp:129] Top shape: 24 32 112 112 (9633792)
I0305 17:56:50.306632 21892 net.cpp:137] Memory required for data: 1276477728
I0305 17:56:50.306658 21892 layer_factory.hpp:77] Creating layer Eltwise2
I0305 17:56:50.306670 21892 net.cpp:84] Creating Layer Eltwise2
I0305 17:56:50.306679 21892 net.cpp:406] Eltwise2 <- Convolution5
I0305 17:56:50.306687 21892 net.cpp:406] Eltwise2 <- Eltwise1_ReLU2_0_split_1
I0305 17:56:50.306699 21892 net.cpp:380] Eltwise2 -> Eltwise2
I0305 17:56:50.306746 21892 net.cpp:122] Setting up Eltwise2
I0305 17:56:50.306764 21892 net.cpp:129] Top shape: 24 32 112 112 (9633792)
I0305 17:56:50.306777 21892 net.cpp:137] Memory required for data: 1315012896
I0305 17:56:50.306789 21892 layer_factory.hpp:77] Creating layer ReLU4
I0305 17:56:50.306805 21892 net.cpp:84] Creating Layer ReLU4
I0305 17:56:50.306814 21892 net.cpp:406] ReLU4 <- Eltwise2
I0305 17:56:50.306825 21892 net.cpp:367] ReLU4 -> Eltwise2 (in-place)
I0305 17:56:50.306834 21892 net.cpp:122] Setting up ReLU4
I0305 17:56:50.306843 21892 net.cpp:129] Top shape: 24 32 112 112 (9633792)
I0305 17:56:50.306850 21892 net.cpp:137] Memory required for data: 1353548064
I0305 17:56:50.306859 21892 layer_factory.hpp:77] Creating layer Eltwise2_ReLU4_0_split
I0305 17:56:50.306879 21892 net.cpp:84] Creating Layer Eltwise2_ReLU4_0_split
I0305 17:56:50.306896 21892 net.cpp:406] Eltwise2_ReLU4_0_split <- Eltwise2
I0305 17:56:50.306912 21892 net.cpp:380] Eltwise2_ReLU4_0_split -> Eltwise2_ReLU4_0_split_0
I0305 17:56:50.306929 21892 net.cpp:380] Eltwise2_ReLU4_0_split -> Eltwise2_ReLU4_0_split_1
I0305 17:56:50.306990 21892 net.cpp:122] Setting up Eltwise2_ReLU4_0_split
I0305 17:56:50.307001 21892 net.cpp:129] Top shape: 24 32 112 112 (9633792)
I0305 17:56:50.307011 21892 net.cpp:129] Top shape: 24 32 112 112 (9633792)
I0305 17:56:50.307018 21892 net.cpp:137] Memory required for data: 1430618400
I0305 17:56:50.307025 21892 layer_factory.hpp:77] Creating layer Convolution6
I0305 17:56:50.307059 21892 net.cpp:84] Creating Layer Convolution6
I0305 17:56:50.307073 21892 net.cpp:406] Convolution6 <- Eltwise2_ReLU4_0_split_0
I0305 17:56:50.307090 21892 net.cpp:380] Convolution6 -> Convolution6
I0305 17:56:50.307559 21892 net.cpp:122] Setting up Convolution6
I0305 17:56:50.307585 21892 net.cpp:129] Top shape: 24 32 112 112 (9633792)
I0305 17:56:50.307597 21892 net.cpp:137] Memory required for data: 1469153568
I0305 17:56:50.307616 21892 layer_factory.hpp:77] Creating layer BatchNorm6
I0305 17:56:50.307633 21892 net.cpp:84] Creating Layer BatchNorm6
I0305 17:56:50.307647 21892 net.cpp:406] BatchNorm6 <- Convolution6
I0305 17:56:50.307663 21892 net.cpp:367] BatchNorm6 -> Convolution6 (in-place)
I0305 17:56:50.308365 21892 net.cpp:122] Setting up BatchNorm6
I0305 17:56:50.308387 21892 net.cpp:129] Top shape: 24 32 112 112 (9633792)
I0305 17:56:50.308398 21892 net.cpp:137] Memory required for data: 1507688736
I0305 17:56:50.308411 21892 layer_factory.hpp:77] Creating layer Scale6
I0305 17:56:50.308434 21892 net.cpp:84] Creating Layer Scale6
I0305 17:56:50.308445 21892 net.cpp:406] Scale6 <- Convolution6
I0305 17:56:50.308462 21892 net.cpp:367] Scale6 -> Convolution6 (in-place)
I0305 17:56:50.308545 21892 layer_factory.hpp:77] Creating layer Scale6
I0305 17:56:50.308742 21892 net.cpp:122] Setting up Scale6
I0305 17:56:50.308756 21892 net.cpp:129] Top shape: 24 32 112 112 (9633792)
I0305 17:56:50.308780 21892 net.cpp:137] Memory required for data: 1546223904
I0305 17:56:50.308827 21892 layer_factory.hpp:77] Creating layer ReLU5
I0305 17:56:50.308869 21892 net.cpp:84] Creating Layer ReLU5
I0305 17:56:50.308903 21892 net.cpp:406] ReLU5 <- Convolution6
I0305 17:56:50.308919 21892 net.cpp:367] ReLU5 -> Convolution6 (in-place)
I0305 17:56:50.308933 21892 net.cpp:122] Setting up ReLU5
I0305 17:56:50.308944 21892 net.cpp:129] Top shape: 24 32 112 112 (9633792)
I0305 17:56:50.308951 21892 net.cpp:137] Memory required for data: 1584759072
I0305 17:56:50.308959 21892 layer_factory.hpp:77] Creating layer Convolution7
I0305 17:56:50.308981 21892 net.cpp:84] Creating Layer Convolution7
I0305 17:56:50.308995 21892 net.cpp:406] Convolution7 <- Convolution6
I0305 17:56:50.309012 21892 net.cpp:380] Convolution7 -> Convolution7
I0305 17:56:50.309461 21892 net.cpp:122] Setting up Convolution7
I0305 17:56:50.309481 21892 net.cpp:129] Top shape: 24 32 112 112 (9633792)
I0305 17:56:50.309494 21892 net.cpp:137] Memory required for data: 1623294240
I0305 17:56:50.309514 21892 layer_factory.hpp:77] Creating layer BatchNorm7
I0305 17:56:50.309530 21892 net.cpp:84] Creating Layer BatchNorm7
I0305 17:56:50.309543 21892 net.cpp:406] BatchNorm7 <- Convolution7
I0305 17:56:50.309561 21892 net.cpp:367] BatchNorm7 -> Convolution7 (in-place)
I0305 17:56:50.309862 21892 net.cpp:122] Setting up BatchNorm7
I0305 17:56:50.309888 21892 net.cpp:129] Top shape: 24 32 112 112 (9633792)
I0305 17:56:50.309901 21892 net.cpp:137] Memory required for data: 1661829408
I0305 17:56:50.309921 21892 layer_factory.hpp:77] Creating layer Scale7
I0305 17:56:50.309954 21892 net.cpp:84] Creating Layer Scale7
I0305 17:56:50.309964 21892 net.cpp:406] Scale7 <- Convolution7
I0305 17:56:50.309993 21892 net.cpp:367] Scale7 -> Convolution7 (in-place)
I0305 17:56:50.310055 21892 layer_factory.hpp:77] Creating layer Scale7
I0305 17:56:50.310241 21892 net.cpp:122] Setting up Scale7
I0305 17:56:50.310261 21892 net.cpp:129] Top shape: 24 32 112 112 (9633792)
I0305 17:56:50.310272 21892 net.cpp:137] Memory required for data: 1700364576
I0305 17:56:50.310287 21892 layer_factory.hpp:77] Creating layer Eltwise3
I0305 17:56:50.310300 21892 net.cpp:84] Creating Layer Eltwise3
I0305 17:56:50.310308 21892 net.cpp:406] Eltwise3 <- Convolution7
I0305 17:56:50.310317 21892 net.cpp:406] Eltwise3 <- Eltwise2_ReLU4_0_split_1
I0305 17:56:50.310326 21892 net.cpp:380] Eltwise3 -> Eltwise3
I0305 17:56:50.310362 21892 net.cpp:122] Setting up Eltwise3
I0305 17:56:50.310379 21892 net.cpp:129] Top shape: 24 32 112 112 (9633792)
I0305 17:56:50.310390 21892 net.cpp:137] Memory required for data: 1738899744
I0305 17:56:50.310418 21892 layer_factory.hpp:77] Creating layer ReLU6
I0305 17:56:50.310446 21892 net.cpp:84] Creating Layer ReLU6
I0305 17:56:50.310459 21892 net.cpp:406] ReLU6 <- Eltwise3
I0305 17:56:50.310472 21892 net.cpp:367] ReLU6 -> Eltwise3 (in-place)
I0305 17:56:50.310482 21892 net.cpp:122] Setting up ReLU6
I0305 17:56:50.310492 21892 net.cpp:129] Top shape: 24 32 112 112 (9633792)
I0305 17:56:50.310498 21892 net.cpp:137] Memory required for data: 1777434912
I0305 17:56:50.310506 21892 layer_factory.hpp:77] Creating layer Eltwise3_ReLU6_0_split
I0305 17:56:50.310515 21892 net.cpp:84] Creating Layer Eltwise3_ReLU6_0_split
I0305 17:56:50.310525 21892 net.cpp:406] Eltwise3_ReLU6_0_split <- Eltwise3
I0305 17:56:50.310541 21892 net.cpp:380] Eltwise3_ReLU6_0_split -> Eltwise3_ReLU6_0_split_0
I0305 17:56:50.310559 21892 net.cpp:380] Eltwise3_ReLU6_0_split -> Eltwise3_ReLU6_0_split_1
I0305 17:56:50.310622 21892 net.cpp:122] Setting up Eltwise3_ReLU6_0_split
I0305 17:56:50.310637 21892 net.cpp:129] Top shape: 24 32 112 112 (9633792)
I0305 17:56:50.310647 21892 net.cpp:129] Top shape: 24 32 112 112 (9633792)
I0305 17:56:50.310653 21892 net.cpp:137] Memory required for data: 1854505248
I0305 17:56:50.310660 21892 layer_factory.hpp:77] Creating layer Convolution8
I0305 17:56:50.310683 21892 net.cpp:84] Creating Layer Convolution8
I0305 17:56:50.310693 21892 net.cpp:406] Convolution8 <- Eltwise3_ReLU6_0_split_0
I0305 17:56:50.310710 21892 net.cpp:380] Convolution8 -> Convolution8
I0305 17:56:50.319759 21892 net.cpp:122] Setting up Convolution8
I0305 17:56:50.319864 21892 net.cpp:129] Top shape: 24 64 56 56 (4816896)
I0305 17:56:50.319875 21892 net.cpp:137] Memory required for data: 1873772832
I0305 17:56:50.319892 21892 layer_factory.hpp:77] Creating layer BatchNorm8
I0305 17:56:50.319936 21892 net.cpp:84] Creating Layer BatchNorm8
I0305 17:56:50.319952 21892 net.cpp:406] BatchNorm8 <- Convolution8
I0305 17:56:50.319970 21892 net.cpp:367] BatchNorm8 -> Convolution8 (in-place)
I0305 17:56:50.320340 21892 net.cpp:122] Setting up BatchNorm8
I0305 17:56:50.320359 21892 net.cpp:129] Top shape: 24 64 56 56 (4816896)
I0305 17:56:50.320369 21892 net.cpp:137] Memory required for data: 1893040416
I0305 17:56:50.320421 21892 layer_factory.hpp:77] Creating layer Scale8
I0305 17:56:50.320447 21892 net.cpp:84] Creating Layer Scale8
I0305 17:56:50.320461 21892 net.cpp:406] Scale8 <- Convolution8
I0305 17:56:50.320479 21892 net.cpp:367] Scale8 -> Convolution8 (in-place)
I0305 17:56:50.320930 21892 layer_factory.hpp:77] Creating layer Scale8
I0305 17:56:50.321193 21892 net.cpp:122] Setting up Scale8
I0305 17:56:50.321223 21892 net.cpp:129] Top shape: 24 64 56 56 (4816896)
I0305 17:56:50.321239 21892 net.cpp:137] Memory required for data: 1912308000
I0305 17:56:50.321259 21892 layer_factory.hpp:77] Creating layer ReLU7
I0305 17:56:50.321296 21892 net.cpp:84] Creating Layer ReLU7
I0305 17:56:50.321312 21892 net.cpp:406] ReLU7 <- Convolution8
I0305 17:56:50.321323 21892 net.cpp:367] ReLU7 -> Convolution8 (in-place)
I0305 17:56:50.321336 21892 net.cpp:122] Setting up ReLU7
I0305 17:56:50.321353 21892 net.cpp:129] Top shape: 24 64 56 56 (4816896)
I0305 17:56:50.321367 21892 net.cpp:137] Memory required for data: 1931575584
I0305 17:56:50.321379 21892 layer_factory.hpp:77] Creating layer Convolution9
I0305 17:56:50.321403 21892 net.cpp:84] Creating Layer Convolution9
I0305 17:56:50.321418 21892 net.cpp:406] Convolution9 <- Convolution8
I0305 17:56:50.321435 21892 net.cpp:380] Convolution9 -> Convolution9
I0305 17:56:50.322186 21892 net.cpp:122] Setting up Convolution9
I0305 17:56:50.322212 21892 net.cpp:129] Top shape: 24 64 56 56 (4816896)
I0305 17:56:50.322227 21892 net.cpp:137] Memory required for data: 1950843168
I0305 17:56:50.322247 21892 layer_factory.hpp:77] Creating layer BatchNorm9
I0305 17:56:50.322268 21892 net.cpp:84] Creating Layer BatchNorm9
I0305 17:56:50.322280 21892 net.cpp:406] BatchNorm9 <- Convolution9
I0305 17:56:50.322299 21892 net.cpp:367] BatchNorm9 -> Convolution9 (in-place)
I0305 17:56:50.322582 21892 net.cpp:122] Setting up BatchNorm9
I0305 17:56:50.322603 21892 net.cpp:129] Top shape: 24 64 56 56 (4816896)
I0305 17:56:50.322615 21892 net.cpp:137] Memory required for data: 1970110752
I0305 17:56:50.322654 21892 layer_factory.hpp:77] Creating layer Scale9
I0305 17:56:50.322677 21892 net.cpp:84] Creating Layer Scale9
I0305 17:56:50.322686 21892 net.cpp:406] Scale9 <- Convolution9
I0305 17:56:50.322698 21892 net.cpp:367] Scale9 -> Convolution9 (in-place)
I0305 17:56:50.322779 21892 layer_factory.hpp:77] Creating layer Scale9
I0305 17:56:50.322989 21892 net.cpp:122] Setting up Scale9
I0305 17:56:50.323004 21892 net.cpp:129] Top shape: 24 64 56 56 (4816896)
I0305 17:56:50.323012 21892 net.cpp:137] Memory required for data: 1989378336
I0305 17:56:50.323022 21892 layer_factory.hpp:77] Creating layer Convolution10
I0305 17:56:50.323042 21892 net.cpp:84] Creating Layer Convolution10
I0305 17:56:50.323057 21892 net.cpp:406] Convolution10 <- Eltwise3_ReLU6_0_split_1
I0305 17:56:50.323077 21892 net.cpp:380] Convolution10 -> Convolution10
I0305 17:56:50.323449 21892 net.cpp:122] Setting up Convolution10
I0305 17:56:50.323477 21892 net.cpp:129] Top shape: 24 64 56 56 (4816896)
I0305 17:56:50.323489 21892 net.cpp:137] Memory required for data: 2008645920
I0305 17:56:50.323518 21892 layer_factory.hpp:77] Creating layer BatchNorm10
I0305 17:56:50.323532 21892 net.cpp:84] Creating Layer BatchNorm10
I0305 17:56:50.323541 21892 net.cpp:406] BatchNorm10 <- Convolution10
I0305 17:56:50.323557 21892 net.cpp:367] BatchNorm10 -> Convolution10 (in-place)
I0305 17:56:50.323848 21892 net.cpp:122] Setting up BatchNorm10
I0305 17:56:50.323895 21892 net.cpp:129] Top shape: 24 64 56 56 (4816896)
I0305 17:56:50.323911 21892 net.cpp:137] Memory required for data: 2027913504
I0305 17:56:50.323932 21892 layer_factory.hpp:77] Creating layer Scale10
I0305 17:56:50.323989 21892 net.cpp:84] Creating Layer Scale10
I0305 17:56:50.324003 21892 net.cpp:406] Scale10 <- Convolution10
I0305 17:56:50.324017 21892 net.cpp:367] Scale10 -> Convolution10 (in-place)
I0305 17:56:50.324103 21892 layer_factory.hpp:77] Creating layer Scale10
I0305 17:56:50.324287 21892 net.cpp:122] Setting up Scale10
I0305 17:56:50.324312 21892 net.cpp:129] Top shape: 24 64 56 56 (4816896)
I0305 17:56:50.324326 21892 net.cpp:137] Memory required for data: 2047181088
I0305 17:56:50.324354 21892 layer_factory.hpp:77] Creating layer Eltwise4
I0305 17:56:50.324376 21892 net.cpp:84] Creating Layer Eltwise4
I0305 17:56:50.324384 21892 net.cpp:406] Eltwise4 <- Convolution9
I0305 17:56:50.324393 21892 net.cpp:406] Eltwise4 <- Convolution10
I0305 17:56:50.324405 21892 net.cpp:380] Eltwise4 -> Eltwise4
I0305 17:56:50.324453 21892 net.cpp:122] Setting up Eltwise4
I0305 17:56:50.324472 21892 net.cpp:129] Top shape: 24 64 56 56 (4816896)
I0305 17:56:50.324484 21892 net.cpp:137] Memory required for data: 2066448672
I0305 17:56:50.324496 21892 layer_factory.hpp:77] Creating layer ReLU8
I0305 17:56:50.324514 21892 net.cpp:84] Creating Layer ReLU8
I0305 17:56:50.324523 21892 net.cpp:406] ReLU8 <- Eltwise4
I0305 17:56:50.324533 21892 net.cpp:367] ReLU8 -> Eltwise4 (in-place)
I0305 17:56:50.324543 21892 net.cpp:122] Setting up ReLU8
I0305 17:56:50.324553 21892 net.cpp:129] Top shape: 24 64 56 56 (4816896)
I0305 17:56:50.324559 21892 net.cpp:137] Memory required for data: 2085716256
I0305 17:56:50.324566 21892 layer_factory.hpp:77] Creating layer Eltwise4_ReLU8_0_split
I0305 17:56:50.324580 21892 net.cpp:84] Creating Layer Eltwise4_ReLU8_0_split
I0305 17:56:50.324609 21892 net.cpp:406] Eltwise4_ReLU8_0_split <- Eltwise4
I0305 17:56:50.324625 21892 net.cpp:380] Eltwise4_ReLU8_0_split -> Eltwise4_ReLU8_0_split_0
I0305 17:56:50.324641 21892 net.cpp:380] Eltwise4_ReLU8_0_split -> Eltwise4_ReLU8_0_split_1
I0305 17:56:50.324717 21892 net.cpp:122] Setting up Eltwise4_ReLU8_0_split
I0305 17:56:50.324728 21892 net.cpp:129] Top shape: 24 64 56 56 (4816896)
I0305 17:56:50.324736 21892 net.cpp:129] Top shape: 24 64 56 56 (4816896)
I0305 17:56:50.324743 21892 net.cpp:137] Memory required for data: 2124251424
I0305 17:56:50.324750 21892 layer_factory.hpp:77] Creating layer Convolution11
I0305 17:56:50.324765 21892 net.cpp:84] Creating Layer Convolution11
I0305 17:56:50.324776 21892 net.cpp:406] Convolution11 <- Eltwise4_ReLU8_0_split_0
I0305 17:56:50.324795 21892 net.cpp:380] Convolution11 -> Convolution11
I0305 17:56:50.325537 21892 net.cpp:122] Setting up Convolution11
I0305 17:56:50.325564 21892 net.cpp:129] Top shape: 24 64 56 56 (4816896)
I0305 17:56:50.325573 21892 net.cpp:137] Memory required for data: 2143519008
I0305 17:56:50.325595 21892 layer_factory.hpp:77] Creating layer BatchNorm11
I0305 17:56:50.325615 21892 net.cpp:84] Creating Layer BatchNorm11
I0305 17:56:50.325623 21892 net.cpp:406] BatchNorm11 <- Convolution11
I0305 17:56:50.325639 21892 net.cpp:367] BatchNorm11 -> Convolution11 (in-place)
I0305 17:56:50.325918 21892 net.cpp:122] Setting up BatchNorm11
I0305 17:56:50.325937 21892 net.cpp:129] Top shape: 24 64 56 56 (4816896)
I0305 17:56:50.325945 21892 net.cpp:137] Memory required for data: 2162786592
I0305 17:56:50.325960 21892 layer_factory.hpp:77] Creating layer Scale11
I0305 17:56:50.325978 21892 net.cpp:84] Creating Layer Scale11
I0305 17:56:50.325991 21892 net.cpp:406] Scale11 <- Convolution11
I0305 17:56:50.326006 21892 net.cpp:367] Scale11 -> Convolution11 (in-place)
I0305 17:56:50.326074 21892 layer_factory.hpp:77] Creating layer Scale11
I0305 17:56:50.326246 21892 net.cpp:122] Setting up Scale11
I0305 17:56:50.326266 21892 net.cpp:129] Top shape: 24 64 56 56 (4816896)
I0305 17:56:50.326273 21892 net.cpp:137] Memory required for data: 2182054176
I0305 17:56:50.326284 21892 layer_factory.hpp:77] Creating layer ReLU9
I0305 17:56:50.326331 21892 net.cpp:84] Creating Layer ReLU9
I0305 17:56:50.326344 21892 net.cpp:406] ReLU9 <- Convolution11
I0305 17:56:50.326359 21892 net.cpp:367] ReLU9 -> Convolution11 (in-place)
I0305 17:56:50.326375 21892 net.cpp:122] Setting up ReLU9
I0305 17:56:50.326388 21892 net.cpp:129] Top shape: 24 64 56 56 (4816896)
I0305 17:56:50.326395 21892 net.cpp:137] Memory required for data: 2201321760
I0305 17:56:50.326402 21892 layer_factory.hpp:77] Creating layer Convolution12
I0305 17:56:50.326431 21892 net.cpp:84] Creating Layer Convolution12
I0305 17:56:50.326442 21892 net.cpp:406] Convolution12 <- Convolution11
I0305 17:56:50.326458 21892 net.cpp:380] Convolution12 -> Convolution12
I0305 17:56:50.327183 21892 net.cpp:122] Setting up Convolution12
I0305 17:56:50.327215 21892 net.cpp:129] Top shape: 24 64 56 56 (4816896)
I0305 17:56:50.327225 21892 net.cpp:137] Memory required for data: 2220589344
I0305 17:56:50.327246 21892 layer_factory.hpp:77] Creating layer BatchNorm12
I0305 17:56:50.327260 21892 net.cpp:84] Creating Layer BatchNorm12
I0305 17:56:50.327268 21892 net.cpp:406] BatchNorm12 <- Convolution12
I0305 17:56:50.327286 21892 net.cpp:367] BatchNorm12 -> Convolution12 (in-place)
I0305 17:56:50.327589 21892 net.cpp:122] Setting up BatchNorm12
I0305 17:56:50.327605 21892 net.cpp:129] Top shape: 24 64 56 56 (4816896)
I0305 17:56:50.327616 21892 net.cpp:137] Memory required for data: 2239856928
I0305 17:56:50.327636 21892 layer_factory.hpp:77] Creating layer Scale12
I0305 17:56:50.327656 21892 net.cpp:84] Creating Layer Scale12
I0305 17:56:50.327668 21892 net.cpp:406] Scale12 <- Convolution12
I0305 17:56:50.327682 21892 net.cpp:367] Scale12 -> Convolution12 (in-place)
I0305 17:56:50.327742 21892 layer_factory.hpp:77] Creating layer Scale12
I0305 17:56:50.327917 21892 net.cpp:122] Setting up Scale12
I0305 17:56:50.327939 21892 net.cpp:129] Top shape: 24 64 56 56 (4816896)
I0305 17:56:50.327956 21892 net.cpp:137] Memory required for data: 2259124512
I0305 17:56:50.327972 21892 layer_factory.hpp:77] Creating layer Eltwise5
I0305 17:56:50.328001 21892 net.cpp:84] Creating Layer Eltwise5
I0305 17:56:50.328016 21892 net.cpp:406] Eltwise5 <- Convolution12
I0305 17:56:50.328029 21892 net.cpp:406] Eltwise5 <- Eltwise4_ReLU8_0_split_1
I0305 17:56:50.328042 21892 net.cpp:380] Eltwise5 -> Eltwise5
I0305 17:56:50.328083 21892 net.cpp:122] Setting up Eltwise5
I0305 17:56:50.328097 21892 net.cpp:129] Top shape: 24 64 56 56 (4816896)
I0305 17:56:50.328109 21892 net.cpp:137] Memory required for data: 2278392096
I0305 17:56:50.328121 21892 layer_factory.hpp:77] Creating layer ReLU10
I0305 17:56:50.328136 21892 net.cpp:84] Creating Layer ReLU10
I0305 17:56:50.328148 21892 net.cpp:406] ReLU10 <- Eltwise5
I0305 17:56:50.328163 21892 net.cpp:367] ReLU10 -> Eltwise5 (in-place)
I0305 17:56:50.328178 21892 net.cpp:122] Setting up ReLU10
I0305 17:56:50.328191 21892 net.cpp:129] Top shape: 24 64 56 56 (4816896)
I0305 17:56:50.328199 21892 net.cpp:137] Memory required for data: 2297659680
I0305 17:56:50.328217 21892 layer_factory.hpp:77] Creating layer Eltwise5_ReLU10_0_split
I0305 17:56:50.328228 21892 net.cpp:84] Creating Layer Eltwise5_ReLU10_0_split
I0305 17:56:50.328235 21892 net.cpp:406] Eltwise5_ReLU10_0_split <- Eltwise5
I0305 17:56:50.328245 21892 net.cpp:380] Eltwise5_ReLU10_0_split -> Eltwise5_ReLU10_0_split_0
I0305 17:56:50.328259 21892 net.cpp:380] Eltwise5_ReLU10_0_split -> Eltwise5_ReLU10_0_split_1
I0305 17:56:50.328321 21892 net.cpp:122] Setting up Eltwise5_ReLU10_0_split
I0305 17:56:50.328337 21892 net.cpp:129] Top shape: 24 64 56 56 (4816896)
I0305 17:56:50.328351 21892 net.cpp:129] Top shape: 24 64 56 56 (4816896)
I0305 17:56:50.328361 21892 net.cpp:137] Memory required for data: 2336194848
I0305 17:56:50.328368 21892 layer_factory.hpp:77] Creating layer Convolution13
I0305 17:56:50.328382 21892 net.cpp:84] Creating Layer Convolution13
I0305 17:56:50.328390 21892 net.cpp:406] Convolution13 <- Eltwise5_ReLU10_0_split_0
I0305 17:56:50.328402 21892 net.cpp:380] Convolution13 -> Convolution13
I0305 17:56:50.329071 21892 net.cpp:122] Setting up Convolution13
I0305 17:56:50.329092 21892 net.cpp:129] Top shape: 24 64 56 56 (4816896)
I0305 17:56:50.329104 21892 net.cpp:137] Memory required for data: 2355462432
I0305 17:56:50.329120 21892 layer_factory.hpp:77] Creating layer BatchNorm13
I0305 17:56:50.329138 21892 net.cpp:84] Creating Layer BatchNorm13
I0305 17:56:50.329149 21892 net.cpp:406] BatchNorm13 <- Convolution13
I0305 17:56:50.329164 21892 net.cpp:367] BatchNorm13 -> Convolution13 (in-place)
I0305 17:56:50.329428 21892 net.cpp:122] Setting up BatchNorm13
I0305 17:56:50.329447 21892 net.cpp:129] Top shape: 24 64 56 56 (4816896)
I0305 17:56:50.329460 21892 net.cpp:137] Memory required for data: 2374730016
I0305 17:56:50.329479 21892 layer_factory.hpp:77] Creating layer Scale13
I0305 17:56:50.329512 21892 net.cpp:84] Creating Layer Scale13
I0305 17:56:50.329521 21892 net.cpp:406] Scale13 <- Convolution13
I0305 17:56:50.329531 21892 net.cpp:367] Scale13 -> Convolution13 (in-place)
I0305 17:56:50.329596 21892 layer_factory.hpp:77] Creating layer Scale13
I0305 17:56:50.329772 21892 net.cpp:122] Setting up Scale13
I0305 17:56:50.329793 21892 net.cpp:129] Top shape: 24 64 56 56 (4816896)
I0305 17:56:50.329805 21892 net.cpp:137] Memory required for data: 2393997600
I0305 17:56:50.329818 21892 layer_factory.hpp:77] Creating layer ReLU11
I0305 17:56:50.329838 21892 net.cpp:84] Creating Layer ReLU11
I0305 17:56:50.329846 21892 net.cpp:406] ReLU11 <- Convolution13
I0305 17:56:50.329855 21892 net.cpp:367] ReLU11 -> Convolution13 (in-place)
I0305 17:56:50.329864 21892 net.cpp:122] Setting up ReLU11
I0305 17:56:50.329877 21892 net.cpp:129] Top shape: 24 64 56 56 (4816896)
I0305 17:56:50.329890 21892 net.cpp:137] Memory required for data: 2413265184
I0305 17:56:50.329900 21892 layer_factory.hpp:77] Creating layer Convolution14
I0305 17:56:50.329919 21892 net.cpp:84] Creating Layer Convolution14
I0305 17:56:50.329931 21892 net.cpp:406] Convolution14 <- Convolution13
I0305 17:56:50.329948 21892 net.cpp:380] Convolution14 -> Convolution14
I0305 17:56:50.330683 21892 net.cpp:122] Setting up Convolution14
I0305 17:56:50.330700 21892 net.cpp:129] Top shape: 24 64 56 56 (4816896)
I0305 17:56:50.330724 21892 net.cpp:137] Memory required for data: 2432532768
I0305 17:56:50.330740 21892 layer_factory.hpp:77] Creating layer BatchNorm14
I0305 17:56:50.330770 21892 net.cpp:84] Creating Layer BatchNorm14
I0305 17:56:50.330785 21892 net.cpp:406] BatchNorm14 <- Convolution14
I0305 17:56:50.330806 21892 net.cpp:367] BatchNorm14 -> Convolution14 (in-place)
I0305 17:56:50.331087 21892 net.cpp:122] Setting up BatchNorm14
I0305 17:56:50.331109 21892 net.cpp:129] Top shape: 24 64 56 56 (4816896)
I0305 17:56:50.331120 21892 net.cpp:137] Memory required for data: 2451800352
I0305 17:56:50.331140 21892 layer_factory.hpp:77] Creating layer Scale14
I0305 17:56:50.331157 21892 net.cpp:84] Creating Layer Scale14
I0305 17:56:50.331169 21892 net.cpp:406] Scale14 <- Convolution14
I0305 17:56:50.331182 21892 net.cpp:367] Scale14 -> Convolution14 (in-place)
I0305 17:56:50.331234 21892 layer_factory.hpp:77] Creating layer Scale14
I0305 17:56:50.331466 21892 net.cpp:122] Setting up Scale14
I0305 17:56:50.331485 21892 net.cpp:129] Top shape: 24 64 56 56 (4816896)
I0305 17:56:50.331498 21892 net.cpp:137] Memory required for data: 2471067936
I0305 17:56:50.331521 21892 layer_factory.hpp:77] Creating layer Eltwise6
I0305 17:56:50.331533 21892 net.cpp:84] Creating Layer Eltwise6
I0305 17:56:50.331542 21892 net.cpp:406] Eltwise6 <- Convolution14
I0305 17:56:50.331552 21892 net.cpp:406] Eltwise6 <- Eltwise5_ReLU10_0_split_1
I0305 17:56:50.331568 21892 net.cpp:380] Eltwise6 -> Eltwise6
I0305 17:56:50.331612 21892 net.cpp:122] Setting up Eltwise6
I0305 17:56:50.331629 21892 net.cpp:129] Top shape: 24 64 56 56 (4816896)
I0305 17:56:50.331641 21892 net.cpp:137] Memory required for data: 2490335520
I0305 17:56:50.331653 21892 layer_factory.hpp:77] Creating layer ReLU12
I0305 17:56:50.331668 21892 net.cpp:84] Creating Layer ReLU12
I0305 17:56:50.331707 21892 net.cpp:406] ReLU12 <- Eltwise6
I0305 17:56:50.331717 21892 net.cpp:367] ReLU12 -> Eltwise6 (in-place)
I0305 17:56:50.331732 21892 net.cpp:122] Setting up ReLU12
I0305 17:56:50.331765 21892 net.cpp:129] Top shape: 24 64 56 56 (4816896)
I0305 17:56:50.331794 21892 net.cpp:137] Memory required for data: 2509603104
I0305 17:56:50.331805 21892 layer_factory.hpp:77] Creating layer Eltwise6_ReLU12_0_split
I0305 17:56:50.331820 21892 net.cpp:84] Creating Layer Eltwise6_ReLU12_0_split
I0305 17:56:50.331832 21892 net.cpp:406] Eltwise6_ReLU12_0_split <- Eltwise6
I0305 17:56:50.331847 21892 net.cpp:380] Eltwise6_ReLU12_0_split -> Eltwise6_ReLU12_0_split_0
I0305 17:56:50.331879 21892 net.cpp:380] Eltwise6_ReLU12_0_split -> Eltwise6_ReLU12_0_split_1
I0305 17:56:50.331928 21892 net.cpp:122] Setting up Eltwise6_ReLU12_0_split
I0305 17:56:50.331945 21892 net.cpp:129] Top shape: 24 64 56 56 (4816896)
I0305 17:56:50.331959 21892 net.cpp:129] Top shape: 24 64 56 56 (4816896)
I0305 17:56:50.331971 21892 net.cpp:137] Memory required for data: 2548138272
I0305 17:56:50.331984 21892 layer_factory.hpp:77] Creating layer Convolution15
I0305 17:56:50.332013 21892 net.cpp:84] Creating Layer Convolution15
I0305 17:56:50.332027 21892 net.cpp:406] Convolution15 <- Eltwise6_ReLU12_0_split_0
I0305 17:56:50.332039 21892 net.cpp:380] Convolution15 -> Convolution15
I0305 17:56:50.337893 21892 net.cpp:122] Setting up Convolution15
I0305 17:56:50.337960 21892 net.cpp:129] Top shape: 24 128 28 28 (2408448)
I0305 17:56:50.337973 21892 net.cpp:137] Memory required for data: 2557772064
I0305 17:56:50.338006 21892 layer_factory.hpp:77] Creating layer BatchNorm15
I0305 17:56:50.338034 21892 net.cpp:84] Creating Layer BatchNorm15
I0305 17:56:50.338050 21892 net.cpp:406] BatchNorm15 <- Convolution15
I0305 17:56:50.338070 21892 net.cpp:367] BatchNorm15 -> Convolution15 (in-place)
I0305 17:56:50.338390 21892 net.cpp:122] Setting up BatchNorm15
I0305 17:56:50.338416 21892 net.cpp:129] Top shape: 24 128 28 28 (2408448)
I0305 17:56:50.338428 21892 net.cpp:137] Memory required for data: 2567405856
I0305 17:56:50.338443 21892 layer_factory.hpp:77] Creating layer Scale15
I0305 17:56:50.338467 21892 net.cpp:84] Creating Layer Scale15
I0305 17:56:50.338490 21892 net.cpp:406] Scale15 <- Convolution15
I0305 17:56:50.338506 21892 net.cpp:367] Scale15 -> Convolution15 (in-place)
I0305 17:56:50.338589 21892 layer_factory.hpp:77] Creating layer Scale15
I0305 17:56:50.338758 21892 net.cpp:122] Setting up Scale15
I0305 17:56:50.338773 21892 net.cpp:129] Top shape: 24 128 28 28 (2408448)
I0305 17:56:50.338781 21892 net.cpp:137] Memory required for data: 2577039648
I0305 17:56:50.338793 21892 layer_factory.hpp:77] Creating layer ReLU13
I0305 17:56:50.338804 21892 net.cpp:84] Creating Layer ReLU13
I0305 17:56:50.338812 21892 net.cpp:406] ReLU13 <- Convolution15
I0305 17:56:50.338838 21892 net.cpp:367] ReLU13 -> Convolution15 (in-place)
I0305 17:56:50.338855 21892 net.cpp:122] Setting up ReLU13
I0305 17:56:50.338881 21892 net.cpp:129] Top shape: 24 128 28 28 (2408448)
I0305 17:56:50.338906 21892 net.cpp:137] Memory required for data: 2586673440
I0305 17:56:50.338918 21892 layer_factory.hpp:77] Creating layer Convolution16
I0305 17:56:50.338940 21892 net.cpp:84] Creating Layer Convolution16
I0305 17:56:50.338955 21892 net.cpp:406] Convolution16 <- Convolution15
I0305 17:56:50.338968 21892 net.cpp:380] Convolution16 -> Convolution16
I0305 17:56:50.340747 21892 net.cpp:122] Setting up Convolution16
I0305 17:56:50.340772 21892 net.cpp:129] Top shape: 24 128 28 28 (2408448)
I0305 17:56:50.340781 21892 net.cpp:137] Memory required for data: 2596307232
I0305 17:56:50.340816 21892 layer_factory.hpp:77] Creating layer BatchNorm16
I0305 17:56:50.340847 21892 net.cpp:84] Creating Layer BatchNorm16
I0305 17:56:50.340860 21892 net.cpp:406] BatchNorm16 <- Convolution16
I0305 17:56:50.340878 21892 net.cpp:367] BatchNorm16 -> Convolution16 (in-place)
I0305 17:56:50.341173 21892 net.cpp:122] Setting up BatchNorm16
I0305 17:56:50.341205 21892 net.cpp:129] Top shape: 24 128 28 28 (2408448)
I0305 17:56:50.341269 21892 net.cpp:137] Memory required for data: 2605941024
I0305 17:56:50.341284 21892 layer_factory.hpp:77] Creating layer Scale16
I0305 17:56:50.341305 21892 net.cpp:84] Creating Layer Scale16
I0305 17:56:50.341312 21892 net.cpp:406] Scale16 <- Convolution16
I0305 17:56:50.341323 21892 net.cpp:367] Scale16 -> Convolution16 (in-place)
I0305 17:56:50.341390 21892 layer_factory.hpp:77] Creating layer Scale16
I0305 17:56:50.341539 21892 net.cpp:122] Setting up Scale16
I0305 17:56:50.341559 21892 net.cpp:129] Top shape: 24 128 28 28 (2408448)
I0305 17:56:50.341572 21892 net.cpp:137] Memory required for data: 2615574816
I0305 17:56:50.341586 21892 layer_factory.hpp:77] Creating layer Convolution17
I0305 17:56:50.341600 21892 net.cpp:84] Creating Layer Convolution17
I0305 17:56:50.341609 21892 net.cpp:406] Convolution17 <- Eltwise6_ReLU12_0_split_1
I0305 17:56:50.341620 21892 net.cpp:380] Convolution17 -> Convolution17
I0305 17:56:50.342034 21892 net.cpp:122] Setting up Convolution17
I0305 17:56:50.342059 21892 net.cpp:129] Top shape: 24 128 28 28 (2408448)
I0305 17:56:50.342070 21892 net.cpp:137] Memory required for data: 2625208608
I0305 17:56:50.342079 21892 layer_factory.hpp:77] Creating layer BatchNorm17
I0305 17:56:50.342092 21892 net.cpp:84] Creating Layer BatchNorm17
I0305 17:56:50.342103 21892 net.cpp:406] BatchNorm17 <- Convolution17
I0305 17:56:50.342113 21892 net.cpp:367] BatchNorm17 -> Convolution17 (in-place)
I0305 17:56:50.342414 21892 net.cpp:122] Setting up BatchNorm17
I0305 17:56:50.342428 21892 net.cpp:129] Top shape: 24 128 28 28 (2408448)
I0305 17:56:50.342437 21892 net.cpp:137] Memory required for data: 2634842400
I0305 17:56:50.342458 21892 layer_factory.hpp:77] Creating layer Scale17
I0305 17:56:50.342478 21892 net.cpp:84] Creating Layer Scale17
I0305 17:56:50.342492 21892 net.cpp:406] Scale17 <- Convolution17
I0305 17:56:50.342525 21892 net.cpp:367] Scale17 -> Convolution17 (in-place)
I0305 17:56:50.342609 21892 layer_factory.hpp:77] Creating layer Scale17
I0305 17:56:50.342774 21892 net.cpp:122] Setting up Scale17
I0305 17:56:50.342789 21892 net.cpp:129] Top shape: 24 128 28 28 (2408448)
I0305 17:56:50.342798 21892 net.cpp:137] Memory required for data: 2644476192
I0305 17:56:50.342808 21892 layer_factory.hpp:77] Creating layer Eltwise7
I0305 17:56:50.342820 21892 net.cpp:84] Creating Layer Eltwise7
I0305 17:56:50.342828 21892 net.cpp:406] Eltwise7 <- Convolution16
I0305 17:56:50.342844 21892 net.cpp:406] Eltwise7 <- Convolution17
I0305 17:56:50.342864 21892 net.cpp:380] Eltwise7 -> Eltwise7
I0305 17:56:50.342927 21892 net.cpp:122] Setting up Eltwise7
I0305 17:56:50.342945 21892 net.cpp:129] Top shape: 24 128 28 28 (2408448)
I0305 17:56:50.342957 21892 net.cpp:137] Memory required for data: 2654109984
I0305 17:56:50.342967 21892 layer_factory.hpp:77] Creating layer ReLU14
I0305 17:56:50.342979 21892 net.cpp:84] Creating Layer ReLU14
I0305 17:56:50.342988 21892 net.cpp:406] ReLU14 <- Eltwise7
I0305 17:56:50.342996 21892 net.cpp:367] ReLU14 -> Eltwise7 (in-place)
I0305 17:56:50.343008 21892 net.cpp:122] Setting up ReLU14
I0305 17:56:50.343019 21892 net.cpp:129] Top shape: 24 128 28 28 (2408448)
I0305 17:56:50.343031 21892 net.cpp:137] Memory required for data: 2663743776
I0305 17:56:50.343053 21892 layer_factory.hpp:77] Creating layer Eltwise7_ReLU14_0_split
I0305 17:56:50.343070 21892 net.cpp:84] Creating Layer Eltwise7_ReLU14_0_split
I0305 17:56:50.343082 21892 net.cpp:406] Eltwise7_ReLU14_0_split <- Eltwise7
I0305 17:56:50.343097 21892 net.cpp:380] Eltwise7_ReLU14_0_split -> Eltwise7_ReLU14_0_split_0
I0305 17:56:50.343114 21892 net.cpp:380] Eltwise7_ReLU14_0_split -> Eltwise7_ReLU14_0_split_1
I0305 17:56:50.343189 21892 net.cpp:122] Setting up Eltwise7_ReLU14_0_split
I0305 17:56:50.343206 21892 net.cpp:129] Top shape: 24 128 28 28 (2408448)
I0305 17:56:50.343220 21892 net.cpp:129] Top shape: 24 128 28 28 (2408448)
I0305 17:56:50.343232 21892 net.cpp:137] Memory required for data: 2683011360
I0305 17:56:50.343255 21892 layer_factory.hpp:77] Creating layer Convolution18
I0305 17:56:50.343302 21892 net.cpp:84] Creating Layer Convolution18
I0305 17:56:50.343312 21892 net.cpp:406] Convolution18 <- Eltwise7_ReLU14_0_split_0
I0305 17:56:50.343323 21892 net.cpp:380] Convolution18 -> Convolution18
I0305 17:56:50.345026 21892 net.cpp:122] Setting up Convolution18
I0305 17:56:50.345052 21892 net.cpp:129] Top shape: 24 128 28 28 (2408448)
I0305 17:56:50.345073 21892 net.cpp:137] Memory required for data: 2692645152
I0305 17:56:50.345091 21892 layer_factory.hpp:77] Creating layer BatchNorm18
I0305 17:56:50.345106 21892 net.cpp:84] Creating Layer BatchNorm18
I0305 17:56:50.345114 21892 net.cpp:406] BatchNorm18 <- Convolution18
I0305 17:56:50.345124 21892 net.cpp:367] BatchNorm18 -> Convolution18 (in-place)
I0305 17:56:50.345420 21892 net.cpp:122] Setting up BatchNorm18
I0305 17:56:50.345445 21892 net.cpp:129] Top shape: 24 128 28 28 (2408448)
I0305 17:56:50.345453 21892 net.cpp:137] Memory required for data: 2702278944
I0305 17:56:50.345465 21892 layer_factory.hpp:77] Creating layer Scale18
I0305 17:56:50.345494 21892 net.cpp:84] Creating Layer Scale18
I0305 17:56:50.345501 21892 net.cpp:406] Scale18 <- Convolution18
I0305 17:56:50.345516 21892 net.cpp:367] Scale18 -> Convolution18 (in-place)
I0305 17:56:50.345587 21892 layer_factory.hpp:77] Creating layer Scale18
I0305 17:56:50.345764 21892 net.cpp:122] Setting up Scale18
I0305 17:56:50.345784 21892 net.cpp:129] Top shape: 24 128 28 28 (2408448)
I0305 17:56:50.345793 21892 net.cpp:137] Memory required for data: 2711912736
I0305 17:56:50.345803 21892 layer_factory.hpp:77] Creating layer ReLU15
I0305 17:56:50.345824 21892 net.cpp:84] Creating Layer ReLU15
I0305 17:56:50.345834 21892 net.cpp:406] ReLU15 <- Convolution18
I0305 17:56:50.345844 21892 net.cpp:367] ReLU15 -> Convolution18 (in-place)
I0305 17:56:50.345860 21892 net.cpp:122] Setting up ReLU15
I0305 17:56:50.345875 21892 net.cpp:129] Top shape: 24 128 28 28 (2408448)
I0305 17:56:50.345887 21892 net.cpp:137] Memory required for data: 2721546528
I0305 17:56:50.345912 21892 layer_factory.hpp:77] Creating layer Convolution19
I0305 17:56:50.345933 21892 net.cpp:84] Creating Layer Convolution19
I0305 17:56:50.345947 21892 net.cpp:406] Convolution19 <- Convolution18
I0305 17:56:50.345960 21892 net.cpp:380] Convolution19 -> Convolution19
I0305 17:56:50.347645 21892 net.cpp:122] Setting up Convolution19
I0305 17:56:50.347671 21892 net.cpp:129] Top shape: 24 128 28 28 (2408448)
I0305 17:56:50.347685 21892 net.cpp:137] Memory required for data: 2731180320
I0305 17:56:50.347702 21892 layer_factory.hpp:77] Creating layer BatchNorm19
I0305 17:56:50.347720 21892 net.cpp:84] Creating Layer BatchNorm19
I0305 17:56:50.347733 21892 net.cpp:406] BatchNorm19 <- Convolution19
I0305 17:56:50.347748 21892 net.cpp:367] BatchNorm19 -> Convolution19 (in-place)
I0305 17:56:50.348027 21892 net.cpp:122] Setting up BatchNorm19
I0305 17:56:50.348058 21892 net.cpp:129] Top shape: 24 128 28 28 (2408448)
I0305 17:56:50.348071 21892 net.cpp:137] Memory required for data: 2740814112
I0305 17:56:50.348116 21892 layer_factory.hpp:77] Creating layer Scale19
I0305 17:56:50.348140 21892 net.cpp:84] Creating Layer Scale19
I0305 17:56:50.348152 21892 net.cpp:406] Scale19 <- Convolution19
I0305 17:56:50.348170 21892 net.cpp:367] Scale19 -> Convolution19 (in-place)
I0305 17:56:50.348255 21892 layer_factory.hpp:77] Creating layer Scale19
I0305 17:56:50.348423 21892 net.cpp:122] Setting up Scale19
I0305 17:56:50.348438 21892 net.cpp:129] Top shape: 24 128 28 28 (2408448)
I0305 17:56:50.348444 21892 net.cpp:137] Memory required for data: 2750447904
I0305 17:56:50.348454 21892 layer_factory.hpp:77] Creating layer Eltwise8
I0305 17:56:50.348466 21892 net.cpp:84] Creating Layer Eltwise8
I0305 17:56:50.348475 21892 net.cpp:406] Eltwise8 <- Convolution19
I0305 17:56:50.348484 21892 net.cpp:406] Eltwise8 <- Eltwise7_ReLU14_0_split_1
I0305 17:56:50.348500 21892 net.cpp:380] Eltwise8 -> Eltwise8
I0305 17:56:50.348556 21892 net.cpp:122] Setting up Eltwise8
I0305 17:56:50.348573 21892 net.cpp:129] Top shape: 24 128 28 28 (2408448)
I0305 17:56:50.348585 21892 net.cpp:137] Memory required for data: 2760081696
I0305 17:56:50.348624 21892 layer_factory.hpp:77] Creating layer ReLU16
I0305 17:56:50.348637 21892 net.cpp:84] Creating Layer ReLU16
I0305 17:56:50.348645 21892 net.cpp:406] ReLU16 <- Eltwise8
I0305 17:56:50.348659 21892 net.cpp:367] ReLU16 -> Eltwise8 (in-place)
I0305 17:56:50.348676 21892 net.cpp:122] Setting up ReLU16
I0305 17:56:50.348691 21892 net.cpp:129] Top shape: 24 128 28 28 (2408448)
I0305 17:56:50.348703 21892 net.cpp:137] Memory required for data: 2769715488
I0305 17:56:50.348716 21892 layer_factory.hpp:77] Creating layer Eltwise8_ReLU16_0_split
I0305 17:56:50.348731 21892 net.cpp:84] Creating Layer Eltwise8_ReLU16_0_split
I0305 17:56:50.348743 21892 net.cpp:406] Eltwise8_ReLU16_0_split <- Eltwise8
I0305 17:56:50.348758 21892 net.cpp:380] Eltwise8_ReLU16_0_split -> Eltwise8_ReLU16_0_split_0
I0305 17:56:50.348769 21892 net.cpp:380] Eltwise8_ReLU16_0_split -> Eltwise8_ReLU16_0_split_1
I0305 17:56:50.348832 21892 net.cpp:122] Setting up Eltwise8_ReLU16_0_split
I0305 17:56:50.348850 21892 net.cpp:129] Top shape: 24 128 28 28 (2408448)
I0305 17:56:50.348865 21892 net.cpp:129] Top shape: 24 128 28 28 (2408448)
I0305 17:56:50.348877 21892 net.cpp:137] Memory required for data: 2788983072
I0305 17:56:50.348889 21892 layer_factory.hpp:77] Creating layer Convolution20
I0305 17:56:50.348911 21892 net.cpp:84] Creating Layer Convolution20
I0305 17:56:50.348922 21892 net.cpp:406] Convolution20 <- Eltwise8_ReLU16_0_split_0
I0305 17:56:50.348937 21892 net.cpp:380] Convolution20 -> Convolution20
I0305 17:56:50.352651 21892 net.cpp:122] Setting up Convolution20
I0305 17:56:50.352705 21892 net.cpp:129] Top shape: 24 128 28 28 (2408448)
I0305 17:56:50.352715 21892 net.cpp:137] Memory required for data: 2798616864
I0305 17:56:50.352726 21892 layer_factory.hpp:77] Creating layer BatchNorm20
I0305 17:56:50.352767 21892 net.cpp:84] Creating Layer BatchNorm20
I0305 17:56:50.352785 21892 net.cpp:406] BatchNorm20 <- Convolution20
I0305 17:56:50.352805 21892 net.cpp:367] BatchNorm20 -> Convolution20 (in-place)
I0305 17:56:50.353081 21892 net.cpp:122] Setting up BatchNorm20
I0305 17:56:50.353103 21892 net.cpp:129] Top shape: 24 128 28 28 (2408448)
I0305 17:56:50.353116 21892 net.cpp:137] Memory required for data: 2808250656
I0305 17:56:50.353137 21892 layer_factory.hpp:77] Creating layer Scale20
I0305 17:56:50.353157 21892 net.cpp:84] Creating Layer Scale20
I0305 17:56:50.353170 21892 net.cpp:406] Scale20 <- Convolution20
I0305 17:56:50.353186 21892 net.cpp:367] Scale20 -> Convolution20 (in-place)
I0305 17:56:50.353240 21892 layer_factory.hpp:77] Creating layer Scale20
I0305 17:56:50.353410 21892 net.cpp:122] Setting up Scale20
I0305 17:56:50.353430 21892 net.cpp:129] Top shape: 24 128 28 28 (2408448)
I0305 17:56:50.353442 21892 net.cpp:137] Memory required for data: 2817884448
I0305 17:56:50.353459 21892 layer_factory.hpp:77] Creating layer ReLU17
I0305 17:56:50.353476 21892 net.cpp:84] Creating Layer ReLU17
I0305 17:56:50.353487 21892 net.cpp:406] ReLU17 <- Convolution20
I0305 17:56:50.353503 21892 net.cpp:367] ReLU17 -> Convolution20 (in-place)
I0305 17:56:50.353518 21892 net.cpp:122] Setting up ReLU17
I0305 17:56:50.353528 21892 net.cpp:129] Top shape: 24 128 28 28 (2408448)
I0305 17:56:50.353535 21892 net.cpp:137] Memory required for data: 2827518240
I0305 17:56:50.353543 21892 layer_factory.hpp:77] Creating layer Convolution21
I0305 17:56:50.353570 21892 net.cpp:84] Creating Layer Convolution21
I0305 17:56:50.353588 21892 net.cpp:406] Convolution21 <- Convolution20
I0305 17:56:50.353608 21892 net.cpp:380] Convolution21 -> Convolution21
I0305 17:56:50.355270 21892 net.cpp:122] Setting up Convolution21
I0305 17:56:50.355288 21892 net.cpp:129] Top shape: 24 128 28 28 (2408448)
I0305 17:56:50.355298 21892 net.cpp:137] Memory required for data: 2837152032
I0305 17:56:50.355315 21892 layer_factory.hpp:77] Creating layer BatchNorm21
I0305 17:56:50.355347 21892 net.cpp:84] Creating Layer BatchNorm21
I0305 17:56:50.355360 21892 net.cpp:406] BatchNorm21 <- Convolution21
I0305 17:56:50.355376 21892 net.cpp:367] BatchNorm21 -> Convolution21 (in-place)
I0305 17:56:50.355680 21892 net.cpp:122] Setting up BatchNorm21
I0305 17:56:50.355700 21892 net.cpp:129] Top shape: 24 128 28 28 (2408448)
I0305 17:56:50.355708 21892 net.cpp:137] Memory required for data: 2846785824
I0305 17:56:50.355720 21892 layer_factory.hpp:77] Creating layer Scale21
I0305 17:56:50.355732 21892 net.cpp:84] Creating Layer Scale21
I0305 17:56:50.355741 21892 net.cpp:406] Scale21 <- Convolution21
I0305 17:56:50.355749 21892 net.cpp:367] Scale21 -> Convolution21 (in-place)
I0305 17:56:50.355810 21892 layer_factory.hpp:77] Creating layer Scale21
I0305 17:56:50.355979 21892 net.cpp:122] Setting up Scale21
I0305 17:56:50.355998 21892 net.cpp:129] Top shape: 24 128 28 28 (2408448)
I0305 17:56:50.356020 21892 net.cpp:137] Memory required for data: 2856419616
I0305 17:56:50.356031 21892 layer_factory.hpp:77] Creating layer Eltwise9
I0305 17:56:50.356051 21892 net.cpp:84] Creating Layer Eltwise9
I0305 17:56:50.356060 21892 net.cpp:406] Eltwise9 <- Convolution21
I0305 17:56:50.356067 21892 net.cpp:406] Eltwise9 <- Eltwise8_ReLU16_0_split_1
I0305 17:56:50.356077 21892 net.cpp:380] Eltwise9 -> Eltwise9
I0305 17:56:50.356137 21892 net.cpp:122] Setting up Eltwise9
I0305 17:56:50.356153 21892 net.cpp:129] Top shape: 24 128 28 28 (2408448)
I0305 17:56:50.356164 21892 net.cpp:137] Memory required for data: 2866053408
I0305 17:56:50.356175 21892 layer_factory.hpp:77] Creating layer ReLU18
I0305 17:56:50.356190 21892 net.cpp:84] Creating Layer ReLU18
I0305 17:56:50.356199 21892 net.cpp:406] ReLU18 <- Eltwise9
I0305 17:56:50.356209 21892 net.cpp:367] ReLU18 -> Eltwise9 (in-place)
I0305 17:56:50.356218 21892 net.cpp:122] Setting up ReLU18
I0305 17:56:50.356226 21892 net.cpp:129] Top shape: 24 128 28 28 (2408448)
I0305 17:56:50.356233 21892 net.cpp:137] Memory required for data: 2875687200
I0305 17:56:50.356240 21892 layer_factory.hpp:77] Creating layer Deconvolution1
I0305 17:56:50.356266 21892 net.cpp:84] Creating Layer Deconvolution1
I0305 17:56:50.356278 21892 net.cpp:406] Deconvolution1 <- Eltwise9
I0305 17:56:50.356297 21892 net.cpp:380] Deconvolution1 -> Deconvolution1
I0305 17:56:50.357199 21892 net.cpp:122] Setting up Deconvolution1
I0305 17:56:50.357239 21892 net.cpp:129] Top shape: 24 128 56 56 (9633792)
I0305 17:56:50.357251 21892 net.cpp:137] Memory required for data: 2914222368
I0305 17:56:50.357270 21892 layer_factory.hpp:77] Creating layer BatchNorm22
I0305 17:56:50.357290 21892 net.cpp:84] Creating Layer BatchNorm22
I0305 17:56:50.357303 21892 net.cpp:406] BatchNorm22 <- Deconvolution1
I0305 17:56:50.357313 21892 net.cpp:367] BatchNorm22 -> Deconvolution1 (in-place)
I0305 17:56:50.357590 21892 net.cpp:122] Setting up BatchNorm22
I0305 17:56:50.357606 21892 net.cpp:129] Top shape: 24 128 56 56 (9633792)
I0305 17:56:50.357614 21892 net.cpp:137] Memory required for data: 2952757536
I0305 17:56:50.357626 21892 layer_factory.hpp:77] Creating layer Scale22
I0305 17:56:50.357638 21892 net.cpp:84] Creating Layer Scale22
I0305 17:56:50.357652 21892 net.cpp:406] Scale22 <- Deconvolution1
I0305 17:56:50.357667 21892 net.cpp:367] Scale22 -> Deconvolution1 (in-place)
I0305 17:56:50.357735 21892 layer_factory.hpp:77] Creating layer Scale22
I0305 17:56:50.357902 21892 net.cpp:122] Setting up Scale22
I0305 17:56:50.357913 21892 net.cpp:129] Top shape: 24 128 56 56 (9633792)
I0305 17:56:50.357921 21892 net.cpp:137] Memory required for data: 2991292704
I0305 17:56:50.357933 21892 layer_factory.hpp:77] Creating layer ReLU19
I0305 17:56:50.357942 21892 net.cpp:84] Creating Layer ReLU19
I0305 17:56:50.357951 21892 net.cpp:406] ReLU19 <- Deconvolution1
I0305 17:56:50.357966 21892 net.cpp:367] ReLU19 -> Deconvolution1 (in-place)
I0305 17:56:50.357981 21892 net.cpp:122] Setting up ReLU19
I0305 17:56:50.357995 21892 net.cpp:129] Top shape: 24 128 56 56 (9633792)
I0305 17:56:50.358006 21892 net.cpp:137] Memory required for data: 3029827872
I0305 17:56:50.358018 21892 layer_factory.hpp:77] Creating layer Deconvolution2
I0305 17:56:50.358047 21892 net.cpp:84] Creating Layer Deconvolution2
I0305 17:56:50.358070 21892 net.cpp:406] Deconvolution2 <- Deconvolution1
I0305 17:56:50.358083 21892 net.cpp:380] Deconvolution2 -> Deconvolution2
I0305 17:56:50.358727 21892 net.cpp:122] Setting up Deconvolution2
I0305 17:56:50.358753 21892 net.cpp:129] Top shape: 24 64 112 112 (19267584)
I0305 17:56:50.358767 21892 net.cpp:137] Memory required for data: 3106898208
I0305 17:56:50.358783 21892 layer_factory.hpp:77] Creating layer BatchNorm23
I0305 17:56:50.358799 21892 net.cpp:84] Creating Layer BatchNorm23
I0305 17:56:50.358811 21892 net.cpp:406] BatchNorm23 <- Deconvolution2
I0305 17:56:50.358826 21892 net.cpp:367] BatchNorm23 -> Deconvolution2 (in-place)
I0305 17:56:50.359123 21892 net.cpp:122] Setting up BatchNorm23
I0305 17:56:50.359140 21892 net.cpp:129] Top shape: 24 64 112 112 (19267584)
I0305 17:56:50.359148 21892 net.cpp:137] Memory required for data: 3183968544
I0305 17:56:50.359169 21892 layer_factory.hpp:77] Creating layer Scale23
I0305 17:56:50.359179 21892 net.cpp:84] Creating Layer Scale23
I0305 17:56:50.359190 21892 net.cpp:406] Scale23 <- Deconvolution2
I0305 17:56:50.359205 21892 net.cpp:367] Scale23 -> Deconvolution2 (in-place)
I0305 17:56:50.359272 21892 layer_factory.hpp:77] Creating layer Scale23
I0305 17:56:50.359447 21892 net.cpp:122] Setting up Scale23
I0305 17:56:50.359458 21892 net.cpp:129] Top shape: 24 64 112 112 (19267584)
I0305 17:56:50.359465 21892 net.cpp:137] Memory required for data: 3261038880
I0305 17:56:50.359477 21892 layer_factory.hpp:77] Creating layer ReLU20
I0305 17:56:50.359486 21892 net.cpp:84] Creating Layer ReLU20
I0305 17:56:50.359498 21892 net.cpp:406] ReLU20 <- Deconvolution2
I0305 17:56:50.359511 21892 net.cpp:367] ReLU20 -> Deconvolution2 (in-place)
I0305 17:56:50.359526 21892 net.cpp:122] Setting up ReLU20
I0305 17:56:50.359539 21892 net.cpp:129] Top shape: 24 64 112 112 (19267584)
I0305 17:56:50.359550 21892 net.cpp:137] Memory required for data: 3338109216
I0305 17:56:50.359561 21892 layer_factory.hpp:77] Creating layer Deconvolution3
I0305 17:56:50.359591 21892 net.cpp:84] Creating Layer Deconvolution3
I0305 17:56:50.359601 21892 net.cpp:406] Deconvolution3 <- Deconvolution2
I0305 17:56:50.359611 21892 net.cpp:380] Deconvolution3 -> Deconvolution3
I0305 17:56:50.360076 21892 net.cpp:122] Setting up Deconvolution3
I0305 17:56:50.360093 21892 net.cpp:129] Top shape: 24 32 224 224 (38535168)
I0305 17:56:50.360102 21892 net.cpp:137] Memory required for data: 3492249888
I0305 17:56:50.360118 21892 layer_factory.hpp:77] Creating layer BatchNorm24
I0305 17:56:50.360136 21892 net.cpp:84] Creating Layer BatchNorm24
I0305 17:56:50.360147 21892 net.cpp:406] BatchNorm24 <- Deconvolution3
I0305 17:56:50.360162 21892 net.cpp:367] BatchNorm24 -> Deconvolution3 (in-place)
I0305 17:56:50.360494 21892 net.cpp:122] Setting up BatchNorm24
I0305 17:56:50.360510 21892 net.cpp:129] Top shape: 24 32 224 224 (38535168)
I0305 17:56:50.360518 21892 net.cpp:137] Memory required for data: 3646390560
I0305 17:56:50.360529 21892 layer_factory.hpp:77] Creating layer Scale24
I0305 17:56:50.360540 21892 net.cpp:84] Creating Layer Scale24
I0305 17:56:50.360548 21892 net.cpp:406] Scale24 <- Deconvolution3
I0305 17:56:50.360564 21892 net.cpp:367] Scale24 -> Deconvolution3 (in-place)
I0305 17:56:50.360631 21892 layer_factory.hpp:77] Creating layer Scale24
I0305 17:56:50.364593 21892 net.cpp:122] Setting up Scale24
I0305 17:56:50.364619 21892 net.cpp:129] Top shape: 24 32 224 224 (38535168)
I0305 17:56:50.364625 21892 net.cpp:137] Memory required for data: 3800531232
I0305 17:56:50.364642 21892 layer_factory.hpp:77] Creating layer ReLU21
I0305 17:56:50.364670 21892 net.cpp:84] Creating Layer ReLU21
I0305 17:56:50.364676 21892 net.cpp:406] ReLU21 <- Deconvolution3
I0305 17:56:50.364686 21892 net.cpp:367] ReLU21 -> Deconvolution3 (in-place)
I0305 17:56:50.364694 21892 net.cpp:122] Setting up ReLU21
I0305 17:56:50.364701 21892 net.cpp:129] Top shape: 24 32 224 224 (38535168)
I0305 17:56:50.364706 21892 net.cpp:137] Memory required for data: 3954671904
I0305 17:56:50.364709 21892 layer_factory.hpp:77] Creating layer Convolution22
I0305 17:56:50.364748 21892 net.cpp:84] Creating Layer Convolution22
I0305 17:56:50.364753 21892 net.cpp:406] Convolution22 <- Deconvolution3
I0305 17:56:50.364763 21892 net.cpp:380] Convolution22 -> Convolution22
I0305 17:56:50.365093 21892 net.cpp:122] Setting up Convolution22
I0305 17:56:50.365103 21892 net.cpp:129] Top shape: 24 1 224 224 (1204224)
I0305 17:56:50.365108 21892 net.cpp:137] Memory required for data: 3959488800
I0305 17:56:50.365115 21892 layer_factory.hpp:77] Creating layer ReLU22
I0305 17:56:50.365123 21892 net.cpp:84] Creating Layer ReLU22
I0305 17:56:50.365128 21892 net.cpp:406] ReLU22 <- Convolution22
I0305 17:56:50.365135 21892 net.cpp:367] ReLU22 -> Convolution22 (in-place)
I0305 17:56:50.365142 21892 net.cpp:122] Setting up ReLU22
I0305 17:56:50.365149 21892 net.cpp:129] Top shape: 24 1 224 224 (1204224)
I0305 17:56:50.365152 21892 net.cpp:137] Memory required for data: 3964305696
I0305 17:56:50.365157 21892 layer_factory.hpp:77] Creating layer Loss
I0305 17:56:50.365175 21892 net.cpp:84] Creating Layer Loss
I0305 17:56:50.365180 21892 net.cpp:406] Loss <- Convolution22
I0305 17:56:50.365186 21892 net.cpp:406] Loss <- Data5
I0305 17:56:50.365196 21892 net.cpp:380] Loss -> Loss
…
