…
  data_param {
    source: "/data3/lzh/1000x224x224/raw_data_photon_dis"
    batch_size: 16
    backend: LMDB
  }
}
layer {
  name: "Data3"
  type: "Data"
  top: "Data3"
  top: "Data4"
  transform_param {
    scale: 1
  }
  data_param {
    source: "/data3/lzh/1000x224x224/raw_data_photon_flux"
    batch_size: 16
    backend: LMDB
  }
}
layer {
  name: "Data5"
  type: "Data"
  top: "Data5"
  top: "Data6"
  transform_param {
    scale: 0.00390625
  }
  data_param {
    source: "/data3/lzh/1000x224x224/raw_data_conv"
    batch_size: 16
    backend: LMDB
  }
}
layer {
  name: "Silence"
  type: "Silence"
  bottom: "Data2"
  bottom: "Data4"
  bottom: "Data6"
}
layer {
  name: "Concat1"
  type: "Concat"
  bottom: "Data1"
  bottom: "Data3"
  top: "Concat1"
}
layer {
  name: "Convolution1"
  type: "Convolution"
  bottom: "Concat1"
  top: "Convolution1"
  convolution_param {
    num_output: 32
    bias_term: true
    pad: 3
    kernel_size: 7
    stride: 2
    weight_filler {
      type: "xavier"
    }
    bias_filler {
      type: "constant"
    }
  }
}
layer {
  name: "BatchNorm1"
  type: "BatchNorm"
  bottom: "Convolution1"
  top: "Convolution1"
  param {
    lr_mult: 0
    decay_mult: 0
  }
  param {
    lr_mult: 0
    decay_mult: 0
  }
  param {
    lr_mult: 0
    decay_mult: 0
  }
  batch_norm_param {
    use_global_stats: false
  }
}
layer {
  name: "Scale1"
  type: "Scale"
  bottom: "Convolution1"
  top: "Convolution1"
  scale_param {
    bias_term: true
  }
}
layer {
  name: "ReLU1"
  type: "ReLU"
  bottom: "Convolution1"
  top: "Convolution1"
}
layer {
  name: "Convolution2"
  type: "Convolution"
  bottom: "Convolution1"
  top: "Convolution2"
  convolution_param {
    num_output: 32
    bias_term: true
    pad: 1
    kernel_size: 3
    stride: 1
    weight_filler {
      type: "xavier"
    }
    bias_filler {
      type: "constant"
    }
  }
}
layer {
  name: "BatchNorm2"
  type: "BatchNorm"
  bottom: "Convolution2"
  top: "Convolution2"
  param {
    lr_mult: 0
    decay_mult: 0
  }
  param {
    lr_mult: 0
    decay_mult: 0
  }
  param {
    lr_mult: 0
    decay_mult: 0
  }
  batch_norm_param {
    use_global_stats: false
  }
}
layer {
  name: "Scale2"
  type: "Scale"
  bottom: "Convolution2"
  top: "Convolution2"
  scale_param {
    bias_term: true
  }
}
layer {
  name: "ReLU2"
  type: "ReLU"
  bottom: "Convolution2"
  top: "Convolution2"
}
layer {
  name: "Convolution3"
  type: "Convolution"
  bottom: "Convolution2"
  top: "Convolution3"
  convolution_param {
    num_output: 32
    bias_term: true
    pad: 1
    kernel_size: 3
    stride: 1
    weight_filler {
      type: "xavier"
    }
    bias_filler {
      type: "constant"
    }
  }
}
layer {
  name: "BatchNorm3"
  type: "BatchNorm"
  bottom: "Convolution3"
  top: "Convolution3"
  param {
    lr_mult: 0
    decay_mult: 0
  }
  param {
    lr_mult: 0
    decay_mult: 0
  }
  param {
    lr_mult: 0
    decay_mult: 0
  }
  batch_norm_param {
    use_global_stats: false
  }
}
layer {
  name: "Scale3"
  type: "Scale"
  bottom: "Convolution3"
  top: "Convolution3"
  scale_param {
    bias_term: true
  }
}
layer {
  name: "Eltwise1"
  type: "Eltwise"
  bottom: "Convolution3"
  bottom: "Convolution1"
  top: "Eltwise1"
  eltwise_param {
    operation: SUM
  }
}
layer {
  name: "ReLU3"
  type: "ReLU"
  bottom: "Eltwise1"
  top: "Eltwise1"
}
layer {
  name: "Convolution4"
  type: "Convolution"
  bottom: "Eltwise1"
  top: "Convolution4"
  convolution_param {
    num_output: 32
    bias_term: true
    pad: 1
    kernel_size: 3
    stride: 1
    weight_filler {
      type: "xavier"
    }
    bias_filler {
      type: "constant"
    }
  }
}
layer {
  name: "BatchNorm4"
  type: "BatchNorm"
  bottom: "Convolution4"
  top: "Convolution4"
  param {
    lr_mult: 0
    decay_mult: 0
  }
  param {
    lr_mult: 0
    decay_mult: 0
  }
  param {
    lr_mult: 0
    decay_mult: 0
  }
  batch_norm_param {
    use_global_stats: false
  }
}
layer {
  name: "Scale4"
  type: "Scale"
  bottom: "Convolution4"
  top: "Convolution4"
  scale_param {
    bias_term: true
  }
}
layer {
  name: "ReLU4"
  type: "ReLU"
  bottom: "Convolution4"
  top: "Convolution4"
}
layer {
  name: "Convolution5"
  type: "Convolution"
  bottom: "Convolution4"
  top: "Convolution5"
  convolution_param {
    num_output: 32
    bias_term: true
    pad: 1
    kernel_size: 3
    stride: 1
    weight_filler {
      type: "xavier"
    }
    bias_filler {
      type: "constant"
    }
  }
}
layer {
  name: "BatchNorm5"
  type: "BatchNorm"
  bottom: "Convolution5"
  top: "Convolution5"
  param {
    lr_mult: 0
    decay_mult: 0
  }
  param {
    lr_mult: 0
    decay_mult: 0
  }
  param {
    lr_mult: 0
    decay_mult: 0
  }
  batch_norm_param {
    use_global_stats: false
  }
}
layer {
  name: "Scale5"
  type: "Scale"
  bottom: "Convolution5"
  top: "Convolution5"
  scale_param {
    bias_term: true
  }
}
layer {
  name: "Eltwise2"
  type: "Eltwise"
  bottom: "Convolution5"
  bottom: "Eltwise1"
  top: "Eltwise2"
  eltwise_param {
    operation: SUM
  }
}
layer {
  name: "ReLU5"
  type: "ReLU"
  bottom: "Eltwise2"
  top: "Eltwise2"
}
layer {
  name: "Convolution6"
  type: "Convolution"
  bottom: "Eltwise2"
  top: "Convolution6"
  convolution_param {
    num_output: 32
    bias_term: true
    pad: 1
    kernel_size: 3
    stride: 1
    weight_filler {
      type: "xavier"
    }
    bias_filler {
      type: "constant"
    }
  }
}
layer {
  name: "BatchNorm6"
  type: "BatchNorm"
  bottom: "Convolution6"
  top: "Convolution6"
  param {
    lr_mult: 0
    decay_mult: 0
  }
  param {
    lr_mult: 0
    decay_mult: 0
  }
  param {
    lr_mult: 0
    decay_mult: 0
  }
  batch_norm_param {
    use_global_stats: false
  }
}
layer {
  name: "Scale6"
  type: "Scale"
  bottom: "Convolution6"
  top: "Convolution6"
  scale_param {
    bias_term: true
  }
}
layer {
  name: "ReLU6"
  type: "ReLU"
  bottom: "Convolution6"
  top: "Convolution6"
}
layer {
  name: "Convolution7"
  type: "Convolution"
  bottom: "Convolution6"
  top: "Convolution7"
  convolution_param {
    num_output: 32
    bias_term: true
    pad: 1
    kernel_size: 3
    stride: 1
    weight_filler {
      type: "xavier"
    }
    bias_filler {
      type: "constant"
    }
  }
}
layer {
  name: "BatchNorm7"
  type: "BatchNorm"
  bottom: "Convolution7"
  top: "Convolution7"
  param {
    lr_mult: 0
    decay_mult: 0
  }
  param {
    lr_mult: 0
    decay_mult: 0
  }
  param {
    lr_mult: 0
    decay_mult: 0
  }
  batch_norm_param {
    use_global_stats: false
  }
}
layer {
  name: "Scale7"
  type: "Scale"
  bottom: "Convolution7"
  top: "Convolution7"
  scale_param {
    bias_term: true
  }
}
layer {
  name: "Eltwise3"
  type: "Eltwise"
  bottom: "Convolution7"
  bottom: "Eltwise2"
  top: "Eltwise3"
  eltwise_param {
    operation: SUM
  }
}
layer {
  name: "ReLU7"
  type: "ReLU"
  bottom: "Eltwise3"
  top: "Eltwise3"
}
layer {
  name: "Convolution8"
  type: "Convolution"
  bottom: "Eltwise3"
  top: "Convolution8"
  convolution_param {
    num_output: 32
    bias_term: true
    pad: 1
    kernel_size: 3
    stride: 1
    weight_filler {
      type: "xavier"
    }
    bias_filler {
      type: "constant"
    }
  }
}
layer {
  name: "BatchNorm8"
  type: "BatchNorm"
  bottom: "Convolution8"
  top: "Convolution8"
  param {
    lr_mult: 0
    decay_mult: 0
  }
  param {
    lr_mult: 0
    decay_mult: 0
  }
  param {
    lr_mult: 0
    decay_mult: 0
  }
  batch_norm_param {
    use_global_stats: false
  }
}
layer {
  name: "Scale8"
  type: "Scale"
  bottom: "Convolution8"
  top: "Convolution8"
  scale_param {
    bias_term: true
  }
}
layer {
  name: "ReLU8"
  type: "ReLU"
  bottom: "Convolution8"
  top: "Convolution8"
}
layer {
  name: "Convolution9"
  type: "Convolution"
  bottom: "Convolution8"
  top: "Convolution9"
  convolution_param {
    num_output: 32
    bias_term: true
    pad: 1
    kernel_size: 3
    stride: 1
    weight_filler {
      type: "xavier"
    }
    bias_filler {
      type: "constant"
    }
  }
}
layer {
  name: "BatchNorm9"
  type: "BatchNorm"
  bottom: "Convolution9"
  top: "Convolution9"
  param {
    lr_mult: 0
    decay_mult: 0
  }
  param {
    lr_mult: 0
    decay_mult: 0
  }
  param {
    lr_mult: 0
    decay_mult: 0
  }
  batch_norm_param {
    use_global_stats: false
  }
}
layer {
  name: "Scale9"
  type: "Scale"
  bottom: "Convolution9"
  top: "Convolution9"
  scale_param {
    bias_term: true
  }
}
layer {
  name: "Eltwise4"
  type: "Eltwise"
  bottom: "Convolution9"
  bottom: "Eltwise3"
  top: "Eltwise4"
  eltwise_param {
    operation: SUM
  }
}
layer {
  name: "ReLU9"
  type: "ReLU"
  bottom: "Eltwise4"
  top: "Eltwise4"
}
layer {
  name: "Convolution10"
  type: "Convolution"
  bottom: "Eltwise4"
  top: "Convolution10"
  convolution_param {
    num_output: 32
    bias_term: true
    pad: 1
    kernel_size: 3
    stride: 1
    weight_filler {
      type: "xavier"
    }
    bias_filler {
      type: "constant"
    }
  }
}
layer {
  name: "BatchNorm10"
  type: "BatchNorm"
  bottom: "Convolution10"
  top: "Convolution10"
  param {
    lr_mult: 0
    decay_mult: 0
  }
  param {
    lr_mult: 0
    decay_mult: 0
  }
  param {
    lr_mult: 0
    decay_mult: 0
  }
  batch_norm_param {
    use_global_stats: false
  }
}
layer {
  name: "Scale10"
  type: "Scale"
  bottom: "Convolution10"
  top: "Convolution10"
  scale_param {
    bias_term: true
  }
}
layer {
  name: "ReLU10"
  type: "ReLU"
  bottom: "Convolution10"
  top: "Convolution10"
}
layer {
  name: "Convolution11"
  type: "Convolution"
  bottom: "Convolution10"
  top: "Convolution11"
  convolution_param {
    num_output: 32
    bias_term: true
    pad: 1
    kernel_size: 3
    stride: 1
    weight_filler {
      type: "xavier"
    }
    bias_filler {
      type: "constant"
    }
  }
}
layer {
  name: "BatchNorm11"
  type: "BatchNorm"
  bottom: "Convolution11"
  top: "Convolution11"
  param {
    lr_mult: 0
    decay_mult: 0
  }
  param {
    lr_mult: 0
    decay_mult: 0
  }
  param {
    lr_mult: 0
    decay_mult: 0
  }
  batch_norm_param {
    use_global_stats: false
  }
}
layer {
  name: "Scale11"
  type: "Scale"
  bottom: "Convolution11"
  top: "Convolution11"
  scale_param {
    bias_term: true
  }
}
layer {
  name: "Eltwise5"
  type: "Eltwise"
  bottom: "Convolution11"
  bottom: "Eltwise4"
  top: "Eltwise5"
  eltwise_param {
    operation: SUM
  }
}
layer {
  name: "ReLU11"
  type: "ReLU"
  bottom: "Eltwise5"
  top: "Eltwise5"
}
layer {
  name: "Convolution12"
  type: "Convolution"
  bottom: "Eltwise5"
  top: "Convolution12"
  convolution_param {
    num_output: 64
    bias_term: true
    pad: 1
    kernel_size: 3
    stride: 2
    weight_filler {
      type: "xavier"
    }
    bias_filler {
      type: "constant"
    }
  }
}
layer {
  name: "BatchNorm12"
  type: "BatchNorm"
  bottom: "Convolution12"
  top: "Convolution12"
  param {
    lr_mult: 0
    decay_mult: 0
  }
  param {
    lr_mult: 0
    decay_mult: 0
  }
  param {
    lr_mult: 0
    decay_mult: 0
  }
  batch_norm_param {
    use_global_stats: false
  }
}
layer {
  name: "Scale12"
  type: "Scale"
  bottom: "Convolution12"
  top: "Convolution12"
  scale_param {
    bias_term: true
  }
}
layer {
  name: "ReLU12"
  type: "ReLU"
  bottom: "Convolution12"
  top: "Convolution12"
}
layer {
  name: "Convolution13"
  type: "Convolution"
  bottom: "Convolution12"
  top: "Convolution13"
  convolution_param {
    num_output: 64
    bias_term: true
    pad: 1
    kernel_size: 3
    stride: 1
    weight_filler {
      type: "xavier"
    }
    bias_filler {
      type: "constant"
    }
  }
}
layer {
  name: "BatchNorm13"
  type: "BatchNorm"
  bottom: "Convolution13"
  top: "Convolution13"
  param {
    lr_mult: 0
    decay_mult: 0
  }
  param {
    lr_mult: 0
    decay_mult: 0
  }
  param {
    lr_mult: 0
    decay_mult: 0
  }
  batch_norm_param {
    use_global_stats: false
  }
}
layer {
  name: "Scale13"
  type: "Scale"
  bottom: "Convolution13"
  top: "Convolution13"
  scale_param {
    bias_term: true
  }
}
layer {
  name: "Convolution14"
  type: "Convolution"
  bottom: "Eltwise5"
  top: "Convolution14"
  convolution_param {
    num_output: 64
    bias_term: true
    pad: 0
    kernel_size: 1
    stride: 2
    weight_filler {
      type: "xavier"
    }
    bias_filler {
      type: "constant"
    }
  }
}
layer {
  name: "BatchNorm14"
  type: "BatchNorm"
  bottom: "Convolution14"
  top: "Convolution14"
  param {
    lr_mult: 0
    decay_mult: 0
  }
  param {
    lr_mult: 0
    decay_mult: 0
  }
  param {
    lr_mult: 0
    decay_mult: 0
  }
  batch_norm_param {
    use_global_stats: false
  }
}
layer {
  name: "Scale14"
  type: "Scale"
  bottom: "Convolution14"
  top: "Convolution14"
  scale_param {
    bias_term: true
  }
}
layer {
  name: "Eltwise6"
  type: "Eltwise"
  bottom: "Convolution13"
  bottom: "Convolution14"
  top: "Eltwise6"
  eltwise_param {
    operation: SUM
  }
}
layer {
  name: "ReLU13"
  type: "ReLU"
  bottom: "Eltwise6"
  top: "Eltwise6"
}
layer {
  name: "Convolution15"
  type: "Convolution"
  bottom: "Eltwise6"
  top: "Convolution15"
  convolution_param {
    num_output: 64
    bias_term: true
    pad: 1
    kernel_size: 3
    stride: 1
    weight_filler {
      type: "xavier"
    }
    bias_filler {
      type: "constant"
    }
  }
}
layer {
  name: "BatchNorm15"
  type: "BatchNorm"
  bottom: "Convolution15"
  top: "Convolution15"
  param {
    lr_mult: 0
    decay_mult: 0
  }
  param {
    lr_mult: 0
    decay_mult: 0
  }
  param {
    lr_mult: 0
    decay_mult: 0
  }
  batch_norm_param {
    use_global_stats: false
  }
}
layer {
  name: "Scale15"
  type: "Scale"
  bottom: "Convolution15"
  top: "Convolution15"
  scale_param {
    bias_term: true
  }
}
layer {
  name: "ReLU14"
  type: "ReLU"
  bottom: "Convolution15"
  top: "Convolution15"
}
layer {
  name: "Convolution16"
  type: "Convolution"
  bottom: "Convolution15"
  top: "Convolution16"
  convolution_param {
    num_output: 64
    bias_term: true
    pad: 1
    kernel_size: 3
    stride: 1
    weight_filler {
      type: "xavier"
    }
    bias_filler {
      type: "constant"
    }
  }
}
layer {
  name: "BatchNorm16"
  type: "BatchNorm"
  bottom: "Convolution16"
  top: "Convolution16"
  param {
    lr_mult: 0
    decay_mult: 0
  }
  param {
    lr_mult: 0
    decay_mult: 0
  }
  param {
    lr_mult: 0
    decay_mult: 0
  }
  batch_norm_param {
    use_global_stats: false
  }
}
layer {
  name: "Scale16"
  type: "Scale"
  bottom: "Convolution16"
  top: "Convolution16"
  scale_param {
    bias_term: true
  }
}
layer {
  name: "Eltwise7"
  type: "Eltwise"
  bottom: "Convolution16"
  bottom: "Eltwise6"
  top: "Eltwise7"
  eltwise_param {
    operation: SUM
  }
}
layer {
  name: "ReLU15"
  type: "ReLU"
  bottom: "Eltwise7"
  top: "Eltwise7"
}
layer {
  name: "Convolution17"
  type: "Convolution"
  bottom: "Eltwise7"
  top: "Convolution17"
  convolution_param {
    num_output: 64
    bias_term: true
    pad: 1
    kernel_size: 3
    stride: 1
    weight_filler {
      type: "xavier"
    }
    bias_filler {
      type: "constant"
    }
  }
}
layer {
  name: "BatchNorm17"
  type: "BatchNorm"
  bottom: "Convolution17"
  top: "Convolution17"
  param {
    lr_mult: 0
    decay_mult: 0
  }
  param {
    lr_mult: 0
    decay_mult: 0
  }
  param {
    lr_mult: 0
    decay_mult: 0
  }
  batch_norm_param {
    use_global_stats: false
  }
}
layer {
  name: "Scale17"
  type: "Scale"
  bottom: "Convolution17"
  top: "Convolution17"
  scale_param {
    bias_term: true
  }
}
layer {
  name: "ReLU16"
  type: "ReLU"
  bottom: "Convolution17"
  top: "Convolution17"
}
layer {
  name: "Convolution18"
  type: "Convolution"
  bottom: "Convolution17"
  top: "Convolution18"
  convolution_param {
    num_output: 64
    bias_term: true
    pad: 1
    kernel_size: 3
    stride: 1
    weight_filler {
      type: "xavier"
    }
    bias_filler {
      type: "constant"
    }
  }
}
layer {
  name: "BatchNorm18"
  type: "BatchNorm"
  bottom: "Convolution18"
  top: "Convolution18"
  param {
    lr_mult: 0
    decay_mult: 0
  }
  param {
    lr_mult: 0
    decay_mult: 0
  }
  param {
    lr_mult: 0
    decay_mult: 0
  }
  batch_norm_param {
    use_global_stats: false
  }
}
layer {
  name: "Scale18"
  type: "Scale"
  bottom: "Convolution18"
  top: "Convolution18"
  scale_param {
    bias_term: true
  }
}
layer {
  name: "Eltwise8"
  type: "Eltwise"
  bottom: "Convolution18"
  bottom: "Eltwise7"
  top: "Eltwise8"
  eltwise_param {
    operation: SUM
  }
}
layer {
  name: "ReLU17"
  type: "ReLU"
  bottom: "Eltwise8"
  top: "Eltwise8"
}
layer {
  name: "Convolution19"
  type: "Convolution"
  bottom: "Eltwise8"
  top: "Convolution19"
  convolution_param {
    num_output: 64
    bias_term: true
    pad: 1
    kernel_size: 3
    stride: 1
    weight_filler {
      type: "xavier"
    }
    bias_filler {
      type: "constant"
    }
  }
}
layer {
  name: "BatchNorm19"
  type: "BatchNorm"
  bottom: "Convolution19"
  top: "Convolution19"
  param {
    lr_mult: 0
    decay_mult: 0
  }
  param {
    lr_mult: 0
    decay_mult: 0
  }
  param {
    lr_mult: 0
    decay_mult: 0
  }
  batch_norm_param {
    use_global_stats: false
  }
}
layer {
  name: "Scale19"
  type: "Scale"
  bottom: "Convolution19"
  top: "Convolution19"
  scale_param {
    bias_term: true
  }
}
layer {
  name: "ReLU18"
  type: "ReLU"
  bottom: "Convolution19"
  top: "Convolution19"
}
layer {
  name: "Convolution20"
  type: "Convolution"
  bottom: "Convolution19"
  top: "Convolution20"
  convolution_param {
    num_output: 64
    bias_term: true
    pad: 1
    kernel_size: 3
    stride: 1
    weight_filler {
      type: "xavier"
    }
    bias_filler {
      type: "constant"
    }
  }
}
layer {
  name: "BatchNorm20"
  type: "BatchNorm"
  bottom: "Convolution20"
  top: "Convolution20"
  param {
    lr_mult: 0
    decay_mult: 0
  }
  param {
    lr_mult: 0
    decay_mult: 0
  }
  param {
    lr_mult: 0
    decay_mult: 0
  }
  batch_norm_param {
    use_global_stats: false
  }
}
layer {
  name: "Scale20"
  type: "Scale"
  bottom: "Convolution20"
  top: "Convolution20"
  scale_param {
    bias_term: true
  }
}
layer {
  name: "Eltwise9"
  type: "Eltwise"
  bottom: "Convolution20"
  bottom: "Eltwise8"
  top: "Eltwise9"
  eltwise_param {
    operation: SUM
  }
}
layer {
  name: "ReLU19"
  type: "ReLU"
  bottom: "Eltwise9"
  top: "Eltwise9"
}
layer {
  name: "Convolution21"
  type: "Convolution"
  bottom: "Eltwise9"
  top: "Convolution21"
  convolution_param {
    num_output: 64
    bias_term: true
    pad: 1
    kernel_size: 3
    stride: 1
    weight_filler {
      type: "xavier"
    }
    bias_filler {
      type: "constant"
    }
  }
}
layer {
  name: "BatchNorm21"
  type: "BatchNorm"
  bottom: "Convolution21"
  top: "Convolution21"
  param {
    lr_mult: 0
    decay_mult: 0
  }
  param {
    lr_mult: 0
    decay_mult: 0
  }
  param {
    lr_mult: 0
    decay_mult: 0
  }
  batch_norm_param {
    use_global_stats: false
  }
}
layer {
  name: "Scale21"
  type: "Scale"
  bottom: "Convolution21"
  top: "Convolution21"
  scale_param {
    bias_term: true
  }
}
layer {
  name: "ReLU20"
  type: "ReLU"
  bottom: "Convolution21"
  top: "Convolution21"
}
layer {
  name: "Convolution22"
  type: "Convolution"
  bottom: "Convolution21"
  top: "Convolution22"
  convolution_param {
    num_output: 64
    bias_term: true
    pad: 1
    kernel_size: 3
    stride: 1
    weight_filler {
      type: "xavier"
    }
    bias_filler {
      type: "constant"
    }
  }
}
layer {
  name: "BatchNorm22"
  type: "BatchNorm"
  bottom: "Convolution22"
  top: "Convolution22"
  param {
    lr_mult: 0
    decay_mult: 0
  }
  param {
    lr_mult: 0
    decay_mult: 0
  }
  param {
    lr_mult: 0
    decay_mult: 0
  }
  batch_norm_param {
    use_global_stats: false
  }
}
layer {
  name: "Scale22"
  type: "Scale"
  bottom: "Convolution22"
  top: "Convolution22"
  scale_param {
    bias_term: true
  }
}
layer {
  name: "Eltwise10"
  type: "Eltwise"
  bottom: "Convolution22"
  bottom: "Eltwise9"
  top: "Eltwise10"
  eltwise_param {
    operation: SUM
  }
}
layer {
  name: "ReLU21"
  type: "ReLU"
  bottom: "Eltwise10"
  top: "Eltwise10"
}
layer {
  name: "StageLink1"
  type: "Convolution"
  bottom: "Eltwise10"
  top: "StageLink1"
  convolution_param {
    num_output: 128
    bias_term: true
    pad: 0
    kernel_size: 1
    stride: 1
    weight_filler {
      type: "xavier"
    }
    bias_filler {
      type: "constant"
    }
  }
}
layer {
  name: "StageLink1_BN"
  type: "BatchNorm"
  bottom: "StageLink1"
  top: "StageLink1"
  param {
    lr_mult: 0
    decay_mult: 0
  }
  param {
    lr_mult: 0
    decay_mult: 0
  }
  param {
    lr_mult: 0
    decay_mult: 0
  }
  batch_norm_param {
    use_global_stats: false
  }
}
layer {
  name: "StageLink1_Scale"
  type: "Scale"
  bottom: "StageLink1"
  top: "StageLink1"
  scale_param {
    bias_term: true
  }
}
layer {
  name: "StageLink0"
  type: "Convolution"
  bottom: "Eltwise5"
  top: "StageLink0"
  convolution_param {
    num_output: 64
    bias_term: true
    pad: 0
    kernel_size: 1
    stride: 1
    weight_filler {
      type: "xavier"
    }
    bias_filler {
      type: "constant"
    }
  }
}
layer {
  name: "StageLink0_BN"
  type: "BatchNorm"
  bottom: "StageLink0"
  top: "StageLink0"
  param {
    lr_mult: 0
    decay_mult: 0
  }
  param {
    lr_mult: 0
    decay_mult: 0
  }
  param {
    lr_mult: 0
    decay_mult: 0
  }
  batch_norm_param {
    use_global_stats: false
  }
}
layer {
  name: "StageLink0_Scale"
  type: "Scale"
  bottom: "StageLink0"
  top: "StageLink0"
  scale_param {
    bias_term: true
  }
}
layer {
  name: "Convolution23"
  type: "Convolution"
  bottom: "Eltwise10"
  top: "Convolution23"
  convolution_param {
    num_output: 128
    bias_term: true
    pad: 1
    kernel_size: 3
    stride: 2
    weight_filler {
      type: "xavier"
    }
    bias_filler {
      type: "constant"
    }
  }
}
layer {
  name: "BatchNorm23"
  type: "BatchNorm"
  bottom: "Convolution23"
  top: "Convolution23"
  param {
    lr_mult: 0
    decay_mult: 0
  }
  param {
    lr_mult: 0
    decay_mult: 0
  }
  param {
    lr_mult: 0
    decay_mult: 0
  }
  batch_norm_param {
    use_global_stats: false
  }
}
layer {
  name: "Scale23"
  type: "Scale"
  bottom: "Convolution23"
  top: "Convolution23"
  scale_param {
    bias_term: true
  }
}
layer {
  name: "ReLU22"
  type: "ReLU"
  bottom: "Convolution23"
  top: "Convolution23"
}
layer {
  name: "Convolution24"
  type: "Convolution"
  bottom: "Convolution23"
  top: "Convolution24"
  convolution_param {
    num_output: 128
    bias_term: true
    pad: 1
    kernel_size: 3
    stride: 1
    weight_filler {
      type: "xavier"
    }
    bias_filler {
      type: "constant"
    }
  }
}
layer {
  name: "BatchNorm24"
  type: "BatchNorm"
  bottom: "Convolution24"
  top: "Convolution24"
  param {
    lr_mult: 0
    decay_mult: 0
  }
  param {
    lr_mult: 0
    decay_mult: 0
  }
  param {
    lr_mult: 0
    decay_mult: 0
  }
  batch_norm_param {
    use_global_stats: false
  }
}
layer {
  name: "Scale24"
  type: "Scale"
  bottom: "Convolution24"
  top: "Convolution24"
  scale_param {
    bias_term: true
  }
}
layer {
  name: "Convolution25"
  type: "Convolution"
  bottom: "Eltwise10"
  top: "Convolution25"
  convolution_param {
    num_output: 128
    bias_term: true
    pad: 0
    kernel_size: 1
    stride: 2
    weight_filler {
      type: "xavier"
    }
    bias_filler {
      type: "constant"
    }
  }
}
layer {
  name: "BatchNorm25"
  type: "BatchNorm"
  bottom: "Convolution25"
  top: "Convolution25"
  param {
    lr_mult: 0
    decay_mult: 0
  }
  param {
    lr_mult: 0
    decay_mult: 0
  }
  param {
    lr_mult: 0
    decay_mult: 0
  }
  batch_norm_param {
    use_global_stats: false
  }
}
layer {
  name: "Scale25"
  type: "Scale"
  bottom: "Convolution25"
  top: "Convolution25"
  scale_param {
    bias_term: true
  }
}
layer {
  name: "Eltwise11"
  type: "Eltwise"
  bottom: "Convolution24"
  bottom: "Convolution25"
  top: "Eltwise11"
  eltwise_param {
    operation: SUM
  }
}
layer {
  name: "ReLU23"
  type: "ReLU"
  bottom: "Eltwise11"
  top: "Eltwise11"
}
layer {
  name: "Convolution26"
  type: "Convolution"
  bottom: "Eltwise11"
  top: "Convolution26"
  convolution_param {
    num_output: 128
    bias_term: true
    pad: 1
    kernel_size: 3
    stride: 1
    weight_filler {
      type: "xavier"
    }
    bias_filler {
      type: "constant"
    }
  }
}
layer {
  name: "BatchNorm26"
  type: "BatchNorm"
  bottom: "Convolution26"
  top: "Convolution26"
  param {
    lr_mult: 0
    decay_mult: 0
  }
  param {
    lr_mult: 0
    decay_mult: 0
  }
  param {
    lr_mult: 0
    decay_mult: 0
  }
  batch_norm_param {
    use_global_stats: false
  }
}
layer {
  name: "Scale26"
  type: "Scale"
  bottom: "Convolution26"
  top: "Convolution26"
  scale_param {
    bias_term: true
  }
}
layer {
  name: "ReLU24"
  type: "ReLU"
  bottom: "Convolution26"
  top: "Convolution26"
}
layer {
  name: "Convolution27"
  type: "Convolution"
  bottom: "Convolution26"
  top: "Convolution27"
  convolution_param {
    num_output: 128
    bias_term: true
    pad: 1
    kernel_size: 3
    stride: 1
    weight_filler {
      type: "xavier"
    }
    bias_filler {
      type: "constant"
    }
  }
}
layer {
  name: "BatchNorm27"
  type: "BatchNorm"
  bottom: "Convolution27"
  top: "Convolution27"
  param {
    lr_mult: 0
    decay_mult: 0
  }
  param {
    lr_mult: 0
    decay_mult: 0
  }
  param {
    lr_mult: 0
    decay_mult: 0
  }
  batch_norm_param {
    use_global_stats: false
  }
}
layer {
  name: "Scale27"
  type: "Scale"
  bottom: "Convolution27"
  top: "Convolution27"
  scale_param {
    bias_term: true
  }
}
layer {
  name: "Eltwise12"
  type: "Eltwise"
  bottom: "Convolution27"
  bottom: "Eltwise11"
  top: "Eltwise12"
  eltwise_param {
    operation: SUM
  }
}
layer {
  name: "ReLU25"
  type: "ReLU"
  bottom: "Eltwise12"
  top: "Eltwise12"
}
layer {
  name: "Convolution28"
  type: "Convolution"
  bottom: "Eltwise12"
  top: "Convolution28"
  convolution_param {
    num_output: 128
    bias_term: true
    pad: 1
    kernel_size: 3
    stride: 1
    weight_filler {
      type: "xavier"
    }
    bias_filler {
      type: "constant"
    }
  }
}
layer {
  name: "BatchNorm28"
  type: "BatchNorm"
  bottom: "Convolution28"
  top: "Convolution28"
  param {
    lr_mult: 0
    decay_mult: 0
  }
  param {
    lr_mult: 0
    decay_mult: 0
  }
  param {
    lr_mult: 0
    decay_mult: 0
  }
  batch_norm_param {
    use_global_stats: false
  }
}
layer {
  name: "Scale28"
  type: "Scale"
  bottom: "Convolution28"
  top: "Convolution28"
  scale_param {
    bias_term: true
  }
}
layer {
  name: "ReLU26"
  type: "ReLU"
  bottom: "Convolution28"
  top: "Convolution28"
}
layer {
  name: "Convolution29"
  type: "Convolution"
  bottom: "Convolution28"
  top: "Convolution29"
  convolution_param {
    num_output: 128
    bias_term: true
    pad: 1
    kernel_size: 3
    stride: 1
    weight_filler {
      type: "xavier"
    }
    bias_filler {
      type: "constant"
    }
  }
}
layer {
  name: "BatchNorm29"
  type: "BatchNorm"
  bottom: "Convolution29"
  top: "Convolution29"
  param {
    lr_mult: 0
    decay_mult: 0
  }
  param {
    lr_mult: 0
    decay_mult: 0
  }
  param {
    lr_mult: 0
    decay_mult: 0
  }
  batch_norm_param {
    use_global_stats: false
  }
}
layer {
  name: "Scale29"
  type: "Scale"
  bottom: "Convolution29"
  top: "Convolution29"
  scale_param {
    bias_term: true
  }
}
layer {
  name: "Eltwise13"
  type: "Eltwise"
  bottom: "Convolution29"
  bottom: "Eltwise12"
  top: "Eltwise13"
  eltwise_param {
    operation: SUM
  }
}
layer {
  name: "ReLU27"
  type: "ReLU"
  bottom: "Eltwise13"
  top: "Eltwise13"
}
layer {
  name: "Convolution30"
  type: "Convolution"
  bottom: "Eltwise13"
  top: "Convolution30"
  convolution_param {
    num_output: 128
    bias_term: true
    pad: 1
    kernel_size: 3
    stride: 1
    weight_filler {
      type: "xavier"
    }
    bias_filler {
      type: "constant"
    }
  }
}
layer {
  name: "BatchNorm30"
  type: "BatchNorm"
  bottom: "Convolution30"
  top: "Convolution30"
  param {
    lr_mult: 0
    decay_mult: 0
  }
  param {
    lr_mult: 0
    decay_mult: 0
  }
  param {
    lr_mult: 0
    decay_mult: 0
  }
  batch_norm_param {
    use_global_stats: false
  }
}
layer {
  name: "Scale30"
  type: "Scale"
  bottom: "Convolution30"
  top: "Convolution30"
  scale_param {
    bias_term: true
  }
}
layer {
  name: "ReLU28"
  type: "ReLU"
  bottom: "Convolution30"
  top: "Convolution30"
}
layer {
  name: "Convolution31"
  type: "Convolution"
  bottom: "Convolution30"
  top: "Convolution31"
  convolution_param {
    num_output: 128
    bias_term: true
    pad: 1
    kernel_size: 3
    stride: 1
    weight_filler {
      type: "xavier"
    }
    bias_filler {
      type: "constant"
    }
  }
}
layer {
  name: "BatchNorm31"
  type: "BatchNorm"
  bottom: "Convolution31"
  top: "Convolution31"
  param {
    lr_mult: 0
    decay_mult: 0
  }
  param {
    lr_mult: 0
    decay_mult: 0
  }
  param {
    lr_mult: 0
    decay_mult: 0
  }
  batch_norm_param {
    use_global_stats: false
  }
}
layer {
  name: "Scale31"
  type: "Scale"
  bottom: "Convolution31"
  top: "Convolution31"
  scale_param {
    bias_term: true
  }
}
layer {
  name: "Eltwise14"
  type: "Eltwise"
  bottom: "Convolution31"
  bottom: "Eltwise13"
  top: "Eltwise14"
  eltwise_param {
    operation: SUM
  }
}
layer {
  name: "ReLU29"
  type: "ReLU"
  bottom: "Eltwise14"
  top: "Eltwise14"
}
layer {
  name: "Convolution32"
  type: "Convolution"
  bottom: "Eltwise14"
  top: "Convolution32"
  convolution_param {
    num_output: 128
    bias_term: true
    pad: 1
    kernel_size: 3
    stride: 1
    weight_filler {
  
I0314 22:49:50.847959 25677 layer_factory.hpp:77] Creating layer Data1
I0314 22:49:50.848176 25677 db_lmdb.cpp:35] Opened lmdb /data3/lzh/1000x224x224/raw_data_photon_dis
I0314 22:49:50.848208 25677 net.cpp:84] Creating Layer Data1
I0314 22:49:50.848219 25677 net.cpp:380] Data1 -> Data1
I0314 22:49:50.848254 25677 net.cpp:380] Data1 -> Data2
I0314 22:49:51.280586 25677 data_layer.cpp:45] output data size: 16,20,224,224
I0314 22:49:51.477493 25677 net.cpp:122] Setting up Data1
I0314 22:49:51.477550 25677 net.cpp:129] Top shape: 16 20 224 224 (16056320)
I0314 22:49:51.477562 25677 net.cpp:129] Top shape: 16 (16)
I0314 22:49:51.477586 25677 net.cpp:137] Memory required for data: 64225344
I0314 22:49:51.477617 25677 layer_factory.hpp:77] Creating layer Data3
I0314 22:49:51.477710 25677 db_lmdb.cpp:35] Opened lmdb /data3/lzh/1000x224x224/raw_data_photon_flux
I0314 22:49:51.477737 25677 net.cpp:84] Creating Layer Data3
I0314 22:49:51.477749 25677 net.cpp:380] Data3 -> Data3
I0314 22:49:51.477767 25677 net.cpp:380] Data3 -> Data4
I0314 22:49:51.482411 25677 data_layer.cpp:45] output data size: 16,20,224,224
I0314 22:49:51.692188 25677 net.cpp:122] Setting up Data3
I0314 22:49:51.692257 25677 net.cpp:129] Top shape: 16 20 224 224 (16056320)
I0314 22:49:51.692270 25677 net.cpp:129] Top shape: 16 (16)
I0314 22:49:51.692282 25677 net.cpp:137] Memory required for data: 128450688
I0314 22:49:51.692296 25677 layer_factory.hpp:77] Creating layer Data5
I0314 22:49:51.692397 25677 db_lmdb.cpp:35] Opened lmdb /data3/lzh/1000x224x224/raw_data_conv
I0314 22:49:51.692432 25677 net.cpp:84] Creating Layer Data5
I0314 22:49:51.692448 25677 net.cpp:380] Data5 -> Data5
I0314 22:49:51.692469 25677 net.cpp:380] Data5 -> Data6
I0314 22:49:51.692651 25677 data_layer.cpp:45] output data size: 16,1,224,224
I0314 22:49:51.744308 25677 net.cpp:122] Setting up Data5
I0314 22:49:51.744365 25677 net.cpp:129] Top shape: 16 1 224 224 (802816)
I0314 22:49:51.744380 25677 net.cpp:129] Top shape: 16 (16)
I0314 22:49:51.744434 25677 net.cpp:137] Memory required for data: 131662016
I0314 22:49:51.744446 25677 layer_factory.hpp:77] Creating layer Silence
I0314 22:49:51.744474 25677 net.cpp:84] Creating Layer Silence
I0314 22:49:51.744487 25677 net.cpp:406] Silence <- Data2
I0314 22:49:51.744506 25677 net.cpp:406] Silence <- Data4
I0314 22:49:51.744516 25677 net.cpp:406] Silence <- Data6
I0314 22:49:51.744527 25677 net.cpp:122] Setting up Silence
I0314 22:49:51.744534 25677 net.cpp:137] Memory required for data: 131662016
I0314 22:49:51.744542 25677 layer_factory.hpp:77] Creating layer Concat1
I0314 22:49:51.744556 25677 net.cpp:84] Creating Layer Concat1
I0314 22:49:51.744563 25677 net.cpp:406] Concat1 <- Data1
I0314 22:49:51.744571 25677 net.cpp:406] Concat1 <- Data3
I0314 22:49:51.744581 25677 net.cpp:380] Concat1 -> Concat1
I0314 22:49:51.744652 25677 net.cpp:122] Setting up Concat1
I0314 22:49:51.744664 25677 net.cpp:129] Top shape: 16 40 224 224 (32112640)
I0314 22:49:51.744671 25677 net.cpp:137] Memory required for data: 260112576
I0314 22:49:51.744678 25677 layer_factory.hpp:77] Creating layer Convolution1
I0314 22:49:51.744704 25677 net.cpp:84] Creating Layer Convolution1
I0314 22:49:51.744711 25677 net.cpp:406] Convolution1 <- Concat1
I0314 22:49:51.744724 25677 net.cpp:380] Convolution1 -> Convolution1
I0314 22:49:51.753549 25677 net.cpp:122] Setting up Convolution1
I0314 22:49:51.753607 25677 net.cpp:129] Top shape: 16 32 112 112 (6422528)
I0314 22:49:51.753618 25677 net.cpp:137] Memory required for data: 285802688
I0314 22:49:51.753641 25677 layer_factory.hpp:77] Creating layer BatchNorm1
I0314 22:49:51.753669 25677 net.cpp:84] Creating Layer BatchNorm1
I0314 22:49:51.753679 25677 net.cpp:406] BatchNorm1 <- Convolution1
I0314 22:49:51.753690 25677 net.cpp:367] BatchNorm1 -> Convolution1 (in-place)
I0314 22:49:51.753964 25677 net.cpp:122] Setting up BatchNorm1
I0314 22:49:51.753979 25677 net.cpp:129] Top shape: 16 32 112 112 (6422528)
I0314 22:49:51.753988 25677 net.cpp:137] Memory required for data: 311492800
I0314 22:49:51.754004 25677 layer_factory.hpp:77] Creating layer Scale1
I0314 22:49:51.754022 25677 net.cpp:84] Creating Layer Scale1
I0314 22:49:51.754032 25677 net.cpp:406] Scale1 <- Convolution1
I0314 22:49:51.754050 25677 net.cpp:367] Scale1 -> Convolution1 (in-place)
I0314 22:49:51.754112 25677 layer_factory.hpp:77] Creating layer Scale1
I0314 22:49:51.754282 25677 net.cpp:122] Setting up Scale1
I0314 22:49:51.754295 25677 net.cpp:129] Top shape: 16 32 112 112 (6422528)
I0314 22:49:51.754302 25677 net.cpp:137] Memory required for data: 337182912
I0314 22:49:51.754312 25677 layer_factory.hpp:77] Creating layer ReLU1
I0314 22:49:51.754328 25677 net.cpp:84] Creating Layer ReLU1
I0314 22:49:51.754335 25677 net.cpp:406] ReLU1 <- Convolution1
I0314 22:49:51.754344 25677 net.cpp:367] ReLU1 -> Convolution1 (in-place)
I0314 22:49:51.754354 25677 net.cpp:122] Setting up ReLU1
I0314 22:49:51.754364 25677 net.cpp:129] Top shape: 16 32 112 112 (6422528)
I0314 22:49:51.754391 25677 net.cpp:137] Memory required for data: 362873024
I0314 22:49:51.754398 25677 layer_factory.hpp:77] Creating layer Convolution1_ReLU1_0_split
I0314 22:49:51.754410 25677 net.cpp:84] Creating Layer Convolution1_ReLU1_0_split
I0314 22:49:51.754417 25677 net.cpp:406] Convolution1_ReLU1_0_split <- Convolution1
I0314 22:49:51.754428 25677 net.cpp:380] Convolution1_ReLU1_0_split -> Convolution1_ReLU1_0_split_0
I0314 22:49:51.754441 25677 net.cpp:380] Convolution1_ReLU1_0_split -> Convolution1_ReLU1_0_split_1
I0314 22:49:51.754482 25677 net.cpp:122] Setting up Convolution1_ReLU1_0_split
I0314 22:49:51.754492 25677 net.cpp:129] Top shape: 16 32 112 112 (6422528)
I0314 22:49:51.754500 25677 net.cpp:129] Top shape: 16 32 112 112 (6422528)
I0314 22:49:51.754508 25677 net.cpp:137] Memory required for data: 414253248
I0314 22:49:51.754515 25677 layer_factory.hpp:77] Creating layer Convolution2
I0314 22:49:51.754532 25677 net.cpp:84] Creating Layer Convolution2
I0314 22:49:51.754540 25677 net.cpp:406] Convolution2 <- Convolution1_ReLU1_0_split_0
I0314 22:49:51.754580 25677 net.cpp:380] Convolution2 -> Convolution2
I0314 22:49:51.754947 25677 net.cpp:122] Setting up Convolution2
I0314 22:49:51.754966 25677 net.cpp:129] Top shape: 16 32 112 112 (6422528)
I0314 22:49:51.754972 25677 net.cpp:137] Memory required for data: 439943360
I0314 22:49:51.754987 25677 layer_factory.hpp:77] Creating layer BatchNorm2
I0314 22:49:51.754999 25677 net.cpp:84] Creating Layer BatchNorm2
I0314 22:49:51.755008 25677 net.cpp:406] BatchNorm2 <- Convolution2
I0314 22:49:51.755033 25677 net.cpp:367] BatchNorm2 -> Convolution2 (in-place)
I0314 22:49:51.755244 25677 net.cpp:122] Setting up BatchNorm2
I0314 22:49:51.755256 25677 net.cpp:129] Top shape: 16 32 112 112 (6422528)
I0314 22:49:51.755264 25677 net.cpp:137] Memory required for data: 465633472
I0314 22:49:51.755276 25677 layer_factory.hpp:77] Creating layer Scale2
I0314 22:49:51.755288 25677 net.cpp:84] Creating Layer Scale2
I0314 22:49:51.755296 25677 net.cpp:406] Scale2 <- Convolution2
I0314 22:49:51.755306 25677 net.cpp:367] Scale2 -> Convolution2 (in-place)
I0314 22:49:51.755352 25677 layer_factory.hpp:77] Creating layer Scale2
I0314 22:49:51.755532 25677 net.cpp:122] Setting up Scale2
I0314 22:49:51.755545 25677 net.cpp:129] Top shape: 16 32 112 112 (6422528)
I0314 22:49:51.755553 25677 net.cpp:137] Memory required for data: 491323584
I0314 22:49:51.755564 25677 layer_factory.hpp:77] Creating layer ReLU2
I0314 22:49:51.755576 25677 net.cpp:84] Creating Layer ReLU2
I0314 22:49:51.755584 25677 net.cpp:406] ReLU2 <- Convolution2
I0314 22:49:51.755594 25677 net.cpp:367] ReLU2 -> Convolution2 (in-place)
I0314 22:49:51.755604 25677 net.cpp:122] Setting up ReLU2
I0314 22:49:51.755614 25677 net.cpp:129] Top shape: 16 32 112 112 (6422528)
I0314 22:49:51.755620 25677 net.cpp:137] Memory required for data: 517013696
I0314 22:49:51.755627 25677 layer_factory.hpp:77] Creating layer Convolution3
I0314 22:49:51.755641 25677 net.cpp:84] Creating Layer Convolution3
I0314 22:49:51.755650 25677 net.cpp:406] Convolution3 <- Convolution2
I0314 22:49:51.755659 25677 net.cpp:380] Convolution3 -> Convolution3
I0314 22:49:51.756150 25677 net.cpp:122] Setting up Convolution3
I0314 22:49:51.756173 25677 net.cpp:129] Top shape: 16 32 112 112 (6422528)
I0314 22:49:51.756186 25677 net.cpp:137] Memory required for data: 542703808
I0314 22:49:51.756203 25677 layer_factory.hpp:77] Creating layer BatchNorm3
I0314 22:49:51.756222 25677 net.cpp:84] Creating Layer BatchNorm3
I0314 22:49:51.756237 25677 net.cpp:406] BatchNorm3 <- Convolution3
I0314 22:49:51.756251 25677 net.cpp:367] BatchNorm3 -> Convolution3 (in-place)
I0314 22:49:51.756629 25677 net.cpp:122] Setting up BatchNorm3
I0314 22:49:51.756650 25677 net.cpp:129] Top shape: 16 32 112 112 (6422528)
I0314 22:49:51.756661 25677 net.cpp:137] Memory required for data: 568393920
I0314 22:49:51.756688 25677 layer_factory.hpp:77] Creating layer Scale3
I0314 22:49:51.756711 25677 net.cpp:84] Creating Layer Scale3
I0314 22:49:51.756724 25677 net.cpp:406] Scale3 <- Convolution3
I0314 22:49:51.756742 25677 net.cpp:367] Scale3 -> Convolution3 (in-place)
I0314 22:49:51.756814 25677 layer_factory.hpp:77] Creating layer Scale3
I0314 22:49:51.757366 25677 net.cpp:122] Setting up Scale3
I0314 22:49:51.757395 25677 net.cpp:129] Top shape: 16 32 112 112 (6422528)
I0314 22:49:51.757407 25677 net.cpp:137] Memory required for data: 594084032
I0314 22:49:51.757426 25677 layer_factory.hpp:77] Creating layer Eltwise1
I0314 22:49:51.757458 25677 net.cpp:84] Creating Layer Eltwise1
I0314 22:49:51.757477 25677 net.cpp:406] Eltwise1 <- Convolution3
I0314 22:49:51.757493 25677 net.cpp:406] Eltwise1 <- Convolution1_ReLU1_0_split_1
I0314 22:49:51.757509 25677 net.cpp:380] Eltwise1 -> Eltwise1
I0314 22:49:51.757573 25677 net.cpp:122] Setting up Eltwise1
I0314 22:49:51.757591 25677 net.cpp:129] Top shape: 16 32 112 112 (6422528)
I0314 22:49:51.757603 25677 net.cpp:137] Memory required for data: 619774144
I0314 22:49:51.757616 25677 layer_factory.hpp:77] Creating layer ReLU3
I0314 22:49:51.757635 25677 net.cpp:84] Creating Layer ReLU3
I0314 22:49:51.757680 25677 net.cpp:406] ReLU3 <- Eltwise1
I0314 22:49:51.757697 25677 net.cpp:367] ReLU3 -> Eltwise1 (in-place)
I0314 22:49:51.757714 25677 net.cpp:122] Setting up ReLU3
I0314 22:49:51.757730 25677 net.cpp:129] Top shape: 16 32 112 112 (6422528)
I0314 22:49:51.757741 25677 net.cpp:137] Memory required for data: 645464256
I0314 22:49:51.757753 25677 layer_factory.hpp:77] Creating layer Eltwise1_ReLU3_0_split
I0314 22:49:51.757771 25677 net.cpp:84] Creating Layer Eltwise1_ReLU3_0_split
I0314 22:49:51.757784 25677 net.cpp:406] Eltwise1_ReLU3_0_split <- Eltwise1
I0314 22:49:51.757809 25677 net.cpp:380] Eltwise1_ReLU3_0_split -> Eltwise1_ReLU3_0_split_0
I0314 22:49:51.757827 25677 net.cpp:380] Eltwise1_ReLU3_0_split -> Eltwise1_ReLU3_0_split_1
I0314 22:49:51.757885 25677 net.cpp:122] Setting up Eltwise1_ReLU3_0_split
I0314 22:49:51.757903 25677 net.cpp:129] Top shape: 16 32 112 112 (6422528)
I0314 22:49:51.757917 25677 net.cpp:129] Top shape: 16 32 112 112 (6422528)
I0314 22:49:51.757930 25677 net.cpp:137] Memory required for data: 696844480
I0314 22:49:51.757941 25677 layer_factory.hpp:77] Creating layer Convolution4
I0314 22:49:51.757966 25677 net.cpp:84] Creating Layer Convolution4
I0314 22:49:51.757978 25677 net.cpp:406] Convolution4 <- Eltwise1_ReLU3_0_split_0
I0314 22:49:51.757997 25677 net.cpp:380] Convolution4 -> Convolution4
I0314 22:49:51.758464 25677 net.cpp:122] Setting up Convolution4
I0314 22:49:51.758486 25677 net.cpp:129] Top shape: 16 32 112 112 (6422528)
I0314 22:49:51.758493 25677 net.cpp:137] Memory required for data: 722534592
I0314 22:49:51.758505 25677 layer_factory.hpp:77] Creating layer BatchNorm4
I0314 22:49:51.758518 25677 net.cpp:84] Creating Layer BatchNorm4
I0314 22:49:51.758527 25677 net.cpp:406] BatchNorm4 <- Convolution4
I0314 22:49:51.758538 25677 net.cpp:367] BatchNorm4 -> Convolution4 (in-place)
I0314 22:49:51.758785 25677 net.cpp:122] Setting up BatchNorm4
I0314 22:49:51.758813 25677 net.cpp:129] Top shape: 16 32 112 112 (6422528)
I0314 22:49:51.758826 25677 net.cpp:137] Memory required for data: 748224704
I0314 22:49:51.758846 25677 layer_factory.hpp:77] Creating layer Scale4
I0314 22:49:51.758863 25677 net.cpp:84] Creating Layer Scale4
I0314 22:49:51.758898 25677 net.cpp:406] Scale4 <- Convolution4
I0314 22:49:51.758913 25677 net.cpp:367] Scale4 -> Convolution4 (in-place)
I0314 22:49:51.758965 25677 layer_factory.hpp:77] Creating layer Scale4
I0314 22:49:51.759117 25677 net.cpp:122] Setting up Scale4
I0314 22:49:51.759135 25677 net.cpp:129] Top shape: 16 32 112 112 (6422528)
I0314 22:49:51.759142 25677 net.cpp:137] Memory required for data: 773914816
I0314 22:49:51.759153 25677 layer_factory.hpp:77] Creating layer ReLU4
I0314 22:49:51.759165 25677 net.cpp:84] Creating Layer ReLU4
I0314 22:49:51.759172 25677 net.cpp:406] ReLU4 <- Convolution4
I0314 22:49:51.759181 25677 net.cpp:367] ReLU4 -> Convolution4 (in-place)
I0314 22:49:51.759191 25677 net.cpp:122] Setting up ReLU4
I0314 22:49:51.759201 25677 net.cpp:129] Top shape: 16 32 112 112 (6422528)
I0314 22:49:51.759207 25677 net.cpp:137] Memory required for data: 799604928
I0314 22:49:51.759214 25677 layer_factory.hpp:77] Creating layer Convolution5
I0314 22:49:51.759230 25677 net.cpp:84] Creating Layer Convolution5
I0314 22:49:51.759238 25677 net.cpp:406] Convolution5 <- Convolution4
I0314 22:49:51.759248 25677 net.cpp:380] Convolution5 -> Convolution5
I0314 22:49:51.759557 25677 net.cpp:122] Setting up Convolution5
I0314 22:49:51.759572 25677 net.cpp:129] Top shape: 16 32 112 112 (6422528)
I0314 22:49:51.759578 25677 net.cpp:137] Memory required for data: 825295040
I0314 22:49:51.759588 25677 layer_factory.hpp:77] Creating layer BatchNorm5
I0314 22:49:51.759600 25677 net.cpp:84] Creating Layer BatchNorm5
I0314 22:49:51.759608 25677 net.cpp:406] BatchNorm5 <- Convolution5
I0314 22:49:51.759618 25677 net.cpp:367] BatchNorm5 -> Convolution5 (in-place)
I0314 22:49:51.759822 25677 net.cpp:122] Setting up BatchNorm5
I0314 22:49:51.759836 25677 net.cpp:129] Top shape: 16 32 112 112 (6422528)
I0314 22:49:51.759863 25677 net.cpp:137] Memory required for data: 850985152
I0314 22:49:51.759884 25677 layer_factory.hpp:77] Creating layer Scale5
I0314 22:49:51.759896 25677 net.cpp:84] Creating Layer Scale5
I0314 22:49:51.759903 25677 net.cpp:406] Scale5 <- Convolution5
I0314 22:49:51.759913 25677 net.cpp:367] Scale5 -> Convolution5 (in-place)
I0314 22:49:51.759961 25677 layer_factory.hpp:77] Creating layer Scale5
I0314 22:49:51.760098 25677 net.cpp:122] Setting up Scale5
I0314 22:49:51.760112 25677 net.cpp:129] Top shape: 16 32 112 112 (6422528)
I0314 22:49:51.760118 25677 net.cpp:137] Memory required for data: 876675264
I0314 22:49:51.760128 25677 layer_factory.hpp:77] Creating layer Eltwise2
I0314 22:49:51.760144 25677 net.cpp:84] Creating Layer Eltwise2
I0314 22:49:51.760152 25677 net.cpp:406] Eltwise2 <- Convolution5
I0314 22:49:51.760161 25677 net.cpp:406] Eltwise2 <- Eltwise1_ReLU3_0_split_1
I0314 22:49:51.760171 25677 net.cpp:380] Eltwise2 -> Eltwise2
I0314 22:49:51.760471 25677 net.cpp:122] Setting up Eltwise2
I0314 22:49:51.760486 25677 net.cpp:129] Top shape: 16 32 112 112 (6422528)
I0314 22:49:51.760493 25677 net.cpp:137] Memory required for data: 902365376
I0314 22:49:51.760501 25677 layer_factory.hpp:77] Creating layer ReLU5
I0314 22:49:51.760514 25677 net.cpp:84] Creating Layer ReLU5
I0314 22:49:51.760521 25677 net.cpp:406] ReLU5 <- Eltwise2
I0314 22:49:51.760542 25677 net.cpp:367] ReLU5 -> Eltwise2 (in-place)
I0314 22:49:51.760552 25677 net.cpp:122] Setting up ReLU5
I0314 22:49:51.760561 25677 net.cpp:129] Top shape: 16 32 112 112 (6422528)
I0314 22:49:51.760568 25677 net.cpp:137] Memory required for data: 928055488
I0314 22:49:51.760576 25677 layer_factory.hpp:77] Creating layer Eltwise2_ReLU5_0_split
I0314 22:49:51.760586 25677 net.cpp:84] Creating Layer Eltwise2_ReLU5_0_split
I0314 22:49:51.760597 25677 net.cpp:406] Eltwise2_ReLU5_0_split <- Eltwise2
I0314 22:49:51.760620 25677 net.cpp:380] Eltwise2_ReLU5_0_split -> Eltwise2_ReLU5_0_split_0
I0314 22:49:51.760632 25677 net.cpp:380] Eltwise2_ReLU5_0_split -> Eltwise2_ReLU5_0_split_1
I0314 22:49:51.760673 25677 net.cpp:122] Setting up Eltwise2_ReLU5_0_split
I0314 22:49:51.760684 25677 net.cpp:129] Top shape: 16 32 112 112 (6422528)
I0314 22:49:51.760691 25677 net.cpp:129] Top shape: 16 32 112 112 (6422528)
I0314 22:49:51.760699 25677 net.cpp:137] Memory required for data: 979435712
I0314 22:49:51.760705 25677 layer_factory.hpp:77] Creating layer Convolution6
I0314 22:49:51.760720 25677 net.cpp:84] Creating Layer Convolution6
I0314 22:49:51.760728 25677 net.cpp:406] Convolution6 <- Eltwise2_ReLU5_0_split_0
I0314 22:49:51.760740 25677 net.cpp:380] Convolution6 -> Convolution6
I0314 22:49:51.761071 25677 net.cpp:122] Setting up Convolution6
I0314 22:49:51.761085 25677 net.cpp:129] Top shape: 16 32 112 112 (6422528)
I0314 22:49:51.761092 25677 net.cpp:137] Memory required for data: 1005125824
I0314 22:49:51.761102 25677 layer_factory.hpp:77] Creating layer BatchNorm6
I0314 22:49:51.761114 25677 net.cpp:84] Creating Layer BatchNorm6
I0314 22:49:51.761122 25677 net.cpp:406] BatchNorm6 <- Convolution6
I0314 22:49:51.761132 25677 net.cpp:367] BatchNorm6 -> Convolution6 (in-place)
I0314 22:49:51.761349 25677 net.cpp:122] Setting up BatchNorm6
I0314 22:49:51.761363 25677 net.cpp:129] Top shape: 16 32 112 112 (6422528)
I0314 22:49:51.761370 25677 net.cpp:137] Memory required for data: 1030815936
I0314 22:49:51.761382 25677 layer_factory.hpp:77] Creating layer Scale6
I0314 22:49:51.761423 25677 net.cpp:84] Creating Layer Scale6
I0314 22:49:51.761431 25677 net.cpp:406] Scale6 <- Convolution6
I0314 22:49:51.761441 25677 net.cpp:367] Scale6 -> Convolution6 (in-place)
I0314 22:49:51.761489 25677 layer_factory.hpp:77] Creating layer Scale6
I0314 22:49:51.761696 25677 net.cpp:122] Setting up Scale6
I0314 22:49:51.761710 25677 net.cpp:129] Top shape: 16 32 112 112 (6422528)
I0314 22:49:51.761718 25677 net.cpp:137] Memory required for data: 1056506048
I0314 22:49:51.761729 25677 layer_factory.hpp:77] Creating layer ReLU6
I0314 22:49:51.761739 25677 net.cpp:84] Creating Layer ReLU6
I0314 22:49:51.761765 25677 net.cpp:406] ReLU6 <- Convolution6
I0314 22:49:51.761776 25677 net.cpp:367] ReLU6 -> Convolution6 (in-place)
I0314 22:49:51.761786 25677 net.cpp:122] Setting up ReLU6
I0314 22:49:51.761795 25677 net.cpp:129] Top shape: 16 32 112 112 (6422528)
I0314 22:49:51.761801 25677 net.cpp:137] Memory required for data: 1082196160
I0314 22:49:51.761808 25677 layer_factory.hpp:77] Creating layer Convolution7
I0314 22:49:51.761822 25677 net.cpp:84] Creating Layer Convolution7
I0314 22:49:51.761829 25677 net.cpp:406] Convolution7 <- Convolution6
I0314 22:49:51.761840 25677 net.cpp:380] Convolution7 -> Convolution7
I0314 22:49:51.762164 25677 net.cpp:122] Setting up Convolution7
I0314 22:49:51.762178 25677 net.cpp:129] Top shape: 16 32 112 112 (6422528)
I0314 22:49:51.762185 25677 net.cpp:137] Memory required for data: 1107886272
I0314 22:49:51.762195 25677 layer_factory.hpp:77] Creating layer BatchNorm7
I0314 22:49:51.762207 25677 net.cpp:84] Creating Layer BatchNorm7
I0314 22:49:51.762213 25677 net.cpp:406] BatchNorm7 <- Convolution7
I0314 22:49:51.762223 25677 net.cpp:367] BatchNorm7 -> Convolution7 (in-place)
I0314 22:49:51.762436 25677 net.cpp:122] Setting up BatchNorm7
I0314 22:49:51.762450 25677 net.cpp:129] Top shape: 16 32 112 112 (6422528)
I0314 22:49:51.762456 25677 net.cpp:137] Memory required for data: 1133576384
I0314 22:49:51.762467 25677 layer_factory.hpp:77] Creating layer Scale7
I0314 22:49:51.762478 25677 net.cpp:84] Creating Layer Scale7
I0314 22:49:51.762501 25677 net.cpp:406] Scale7 <- Convolution7
I0314 22:49:51.762511 25677 net.cpp:367] Scale7 -> Convolution7 (in-place)
I0314 22:49:51.762557 25677 layer_factory.hpp:77] Creating layer Scale7
I0314 22:49:51.762698 25677 net.cpp:122] Setting up Scale7
I0314 22:49:51.762709 25677 net.cpp:129] Top shape: 16 32 112 112 (6422528)
I0314 22:49:51.762717 25677 net.cpp:137] Memory required for data: 1159266496
I0314 22:49:51.762727 25677 layer_factory.hpp:77] Creating layer Eltwise3
I0314 22:49:51.762737 25677 net.cpp:84] Creating Layer Eltwise3
I0314 22:49:51.762745 25677 net.cpp:406] Eltwise3 <- Convolution7
I0314 22:49:51.762756 25677 net.cpp:406] Eltwise3 <- Eltwise2_ReLU5_0_split_1
I0314 22:49:51.762768 25677 net.cpp:380] Eltwise3 -> Eltwise3
I0314 22:49:51.762828 25677 net.cpp:122] Setting up Eltwise3
I0314 22:49:51.762840 25677 net.cpp:129] Top shape: 16 32 112 112 (6422528)
I0314 22:49:51.762846 25677 net.cpp:137] Memory required for data: 1184956608
I0314 22:49:51.762856 25677 layer_factory.hpp:77] Creating layer ReLU7
I0314 22:49:51.762866 25677 net.cpp:84] Creating Layer ReLU7
I0314 22:49:51.762884 25677 net.cpp:406] ReLU7 <- Eltwise3
I0314 22:49:51.762895 25677 net.cpp:367] ReLU7 -> Eltwise3 (in-place)
I0314 22:49:51.762904 25677 net.cpp:122] Setting up ReLU7
I0314 22:49:51.762912 25677 net.cpp:129] Top shape: 16 32 112 112 (6422528)
I0314 22:49:51.762919 25677 net.cpp:137] Memory required for data: 1210646720
I0314 22:49:51.762926 25677 layer_factory.hpp:77] Creating layer Eltwise3_ReLU7_0_split
I0314 22:49:51.762936 25677 net.cpp:84] Creating Layer Eltwise3_ReLU7_0_split
I0314 22:49:51.762943 25677 net.cpp:406] Eltwise3_ReLU7_0_split <- Eltwise3
I0314 22:49:51.762953 25677 net.cpp:380] Eltwise3_ReLU7_0_split -> Eltwise3_ReLU7_0_split_0
I0314 22:49:51.762962 25677 net.cpp:380] Eltwise3_ReLU7_0_split -> Eltwise3_ReLU7_0_split_1
I0314 22:49:51.763001 25677 net.cpp:122] Setting up Eltwise3_ReLU7_0_split
I0314 22:49:51.763011 25677 net.cpp:129] Top shape: 16 32 112 112 (6422528)
I0314 22:49:51.763020 25677 net.cpp:129] Top shape: 16 32 112 112 (6422528)
I0314 22:49:51.763027 25677 net.cpp:137] Memory required for data: 1262026944
I0314 22:49:51.763034 25677 layer_factory.hpp:77] Creating layer Convolution8
I0314 22:49:51.763047 25677 net.cpp:84] Creating Layer Convolution8
I0314 22:49:51.763056 25677 net.cpp:406] Convolution8 <- Eltwise3_ReLU7_0_split_0
I0314 22:49:51.763065 25677 net.cpp:380] Convolution8 -> Convolution8
I0314 22:49:51.769312 25677 net.cpp:122] Setting up Convolution8
I0314 22:49:51.769366 25677 net.cpp:129] Top shape: 16 32 112 112 (6422528)
I0314 22:49:51.769405 25677 net.cpp:137] Memory required for data: 1287717056
I0314 22:49:51.769431 25677 layer_factory.hpp:77] Creating layer BatchNorm8
I0314 22:49:51.769484 25677 net.cpp:84] Creating Layer BatchNorm8
I0314 22:49:51.769493 25677 net.cpp:406] BatchNorm8 <- Convolution8
I0314 22:49:51.769517 25677 net.cpp:367] BatchNorm8 -> Convolution8 (in-place)
I0314 22:49:51.770000 25677 net.cpp:122] Setting up BatchNorm8
I0314 22:49:51.770020 25677 net.cpp:129] Top shape: 16 32 112 112 (6422528)
I0314 22:49:51.770028 25677 net.cpp:137] Memory required for data: 1313407168
I0314 22:49:51.770041 25677 layer_factory.hpp:77] Creating layer Scale8
I0314 22:49:51.770063 25677 net.cpp:84] Creating Layer Scale8
I0314 22:49:51.770071 25677 net.cpp:406] Scale8 <- Convolution8
I0314 22:49:51.770082 25677 net.cpp:367] Scale8 -> Convolution8 (in-place)
I0314 22:49:51.770153 25677 layer_factory.hpp:77] Creating layer Scale8
I0314 22:49:51.770301 25677 net.cpp:122] Setting up Scale8
I0314 22:49:51.770315 25677 net.cpp:129] Top shape: 16 32 112 112 (6422528)
I0314 22:49:51.770323 25677 net.cpp:137] Memory required for data: 1339097280
I0314 22:49:51.770334 25677 layer_factory.hpp:77] Creating layer ReLU8
I0314 22:49:51.770346 25677 net.cpp:84] Creating Layer ReLU8
I0314 22:49:51.770364 25677 net.cpp:406] ReLU8 <- Convolution8
I0314 22:49:51.770373 25677 net.cpp:367] ReLU8 -> Convolution8 (in-place)
I0314 22:49:51.770383 25677 net.cpp:122] Setting up ReLU8
I0314 22:49:51.770392 25677 net.cpp:129] Top shape: 16 32 112 112 (6422528)
I0314 22:49:51.770400 25677 net.cpp:137] Memory required for data: 1364787392
I0314 22:49:51.770407 25677 layer_factory.hpp:77] Creating layer Convolution9
I0314 22:49:51.770423 25677 net.cpp:84] Creating Layer Convolution9
I0314 22:49:51.770442 25677 net.cpp:406] Convolution9 <- Convolution8
I0314 22:49:51.770454 25677 net.cpp:380] Convolution9 -> Convolution9
I0314 22:49:51.770893 25677 net.cpp:122] Setting up Convolution9
I0314 22:49:51.770912 25677 net.cpp:129] Top shape: 16 32 112 112 (6422528)
I0314 22:49:51.770920 25677 net.cpp:137] Memory required for data: 1390477504
I0314 22:49:51.770931 25677 layer_factory.hpp:77] Creating layer BatchNorm9
I0314 22:49:51.770942 25677 net.cpp:84] Creating Layer BatchNorm9
I0314 22:49:51.770951 25677 net.cpp:406] BatchNorm9 <- Convolution9
I0314 22:49:51.770961 25677 net.cpp:367] BatchNorm9 -> Convolution9 (in-place)
I0314 22:49:51.771209 25677 net.cpp:122] Setting up BatchNorm9
I0314 22:49:51.771224 25677 net.cpp:129] Top shape: 16 32 112 112 (6422528)
I0314 22:49:51.771229 25677 net.cpp:137] Memory required for data: 1416167616
I0314 22:49:51.771244 25677 layer_factory.hpp:77] Creating layer Scale9
I0314 22:49:51.771255 25677 net.cpp:84] Creating Layer Scale9
I0314 22:49:51.771263 25677 net.cpp:406] Scale9 <- Convolution9
I0314 22:49:51.771273 25677 net.cpp:367] Scale9 -> Convolution9 (in-place)
I0314 22:49:51.771322 25677 layer_factory.hpp:77] Creating layer Scale9
I0314 22:49:51.778021 25677 net.cpp:122] Setting up Scale9
I0314 22:49:51.778079 25677 net.cpp:129] Top shape: 16 32 112 112 (6422528)
I0314 22:49:51.778161 25677 net.cpp:137] Memory required for data: 1441857728
I0314 22:49:51.778185 25677 layer_factory.hpp:77] Creating layer Eltwise4
I0314 22:49:51.778208 25677 net.cpp:84] Creating Layer Eltwise4
I0314 22:49:51.778219 25677 net.cpp:406] Eltwise4 <- Convolution9
I0314 22:49:51.778234 25677 net.cpp:406] Eltwise4 <- Eltwise3_ReLU7_0_split_1
I0314 22:49:51.778254 25677 net.cpp:380] Eltwise4 -> Eltwise4
I0314 22:49:51.778357 25677 net.cpp:122] Setting up Eltwise4
I0314 22:49:51.778383 25677 net.cpp:129] Top shape: 16 32 112 112 (6422528)
I0314 22:49:51.778395 25677 net.cpp:137] Memory required for data: 1467547840
I0314 22:49:51.778410 25677 layer_factory.hpp:77] Creating layer ReLU9
I0314 22:49:51.778430 25677 net.cpp:84] Creating Layer ReLU9
I0314 22:49:51.778445 25677 net.cpp:406] ReLU9 <- Eltwise4
I0314 22:49:51.778462 25677 net.cpp:367] ReLU9 -> Eltwise4 (in-place)
I0314 22:49:51.778482 25677 net.cpp:122] Setting up ReLU9
I0314 22:49:51.778556 25677 net.cpp:129] Top shape: 16 32 112 112 (6422528)
I0314 22:49:51.778573 25677 net.cpp:137] Memory required for data: 1493237952
I0314 22:49:51.778586 25677 layer_factory.hpp:77] Creating layer Eltwise4_ReLU9_0_split
I0314 22:49:51.778606 25677 net.cpp:84] Creating Layer Eltwise4_ReLU9_0_split
I0314 22:49:51.778620 25677 net.cpp:406] Eltwise4_ReLU9_0_split <- Eltwise4
I0314 22:49:51.778637 25677 net.cpp:380] Eltwise4_ReLU9_0_split -> Eltwise4_ReLU9_0_split_0
I0314 22:49:51.778662 25677 net.cpp:380] Eltwise4_ReLU9_0_split -> Eltwise4_ReLU9_0_split_1
I0314 22:49:51.778789 25677 net.cpp:122] Setting up Eltwise4_ReLU9_0_split
I0314 22:49:51.778808 25677 net.cpp:129] Top shape: 16 32 112 112 (6422528)
I0314 22:49:51.778820 25677 net.cpp:129] Top shape: 16 32 112 112 (6422528)
I0314 22:49:51.778826 25677 net.cpp:137] Memory required for data: 1544618176
I0314 22:49:51.778834 25677 layer_factory.hpp:77] Creating layer Convolution10
I0314 22:49:51.778856 25677 net.cpp:84] Creating Layer Convolution10
I0314 22:49:51.778897 25677 net.cpp:406] Convolution10 <- Eltwise4_ReLU9_0_split_0
I0314 22:49:51.778913 25677 net.cpp:380] Convolution10 -> Convolution10
I0314 22:49:51.779551 25677 net.cpp:122] Setting up Convolution10
I0314 22:49:51.779566 25677 net.cpp:129] Top shape: 16 32 112 112 (6422528)
I0314 22:49:51.779572 25677 net.cpp:137] Memory required for data: 1570308288
I0314 22:49:51.779604 25677 layer_factory.hpp:77] Creating layer BatchNorm10
I0314 22:49:51.779618 25677 net.cpp:84] Creating Layer BatchNorm10
I0314 22:49:51.779626 25677 net.cpp:406] BatchNorm10 <- Convolution10
I0314 22:49:51.779639 25677 net.cpp:367] BatchNorm10 -> Convolution10 (in-place)
I0314 22:49:51.780005 25677 net.cpp:122] Setting up BatchNorm10
I0314 22:49:51.780019 25677 net.cpp:129] Top shape: 16 32 112 112 (6422528)
I0314 22:49:51.780026 25677 net.cpp:137] Memory required for data: 1595998400
I0314 22:49:51.780042 25677 layer_factory.hpp:77] Creating layer Scale10
I0314 22:49:51.780055 25677 net.cpp:84] Creating Layer Scale10
I0314 22:49:51.780063 25677 net.cpp:406] Scale10 <- Convolution10
I0314 22:49:51.780073 25677 net.cpp:367] Scale10 -> Convolution10 (in-place)
I0314 22:49:51.780164 25677 layer_factory.hpp:77] Creating layer Scale10
I0314 22:49:51.780402 25677 net.cpp:122] Setting up Scale10
I0314 22:49:51.780416 25677 net.cpp:129] Top shape: 16 32 112 112 (6422528)
I0314 22:49:51.780422 25677 net.cpp:137] Memory required for data: 1621688512
I0314 22:49:51.780434 25677 layer_factory.hpp:77] Creating layer ReLU10
I0314 22:49:51.780444 25677 net.cpp:84] Creating Layer ReLU10
I0314 22:49:51.780452 25677 net.cpp:406] ReLU10 <- Convolution10
I0314 22:49:51.780462 25677 net.cpp:367] ReLU10 -> Convolution10 (in-place)
I0314 22:49:51.780472 25677 net.cpp:122] Setting up ReLU10
I0314 22:49:51.780483 25677 net.cpp:129] Top shape: 16 32 112 112 (6422528)
I0314 22:49:51.780489 25677 net.cpp:137] Memory required for data: 1647378624
I0314 22:49:51.780496 25677 layer_factory.hpp:77] Creating layer Convolution11
I0314 22:49:51.780511 25677 net.cpp:84] Creating Layer Convolution11
I0314 22:49:51.780519 25677 net.cpp:406] Convolution11 <- Convolution10
I0314 22:49:51.780531 25677 net.cpp:380] Convolution11 -> Convolution11
I0314 22:49:51.781100 25677 net.cpp:122] Setting up Convolution11
I0314 22:49:51.781113 25677 net.cpp:129] Top shape: 16 32 112 112 (6422528)
I0314 22:49:51.781121 25677 net.cpp:137] Memory required for data: 1673068736
I0314 22:49:51.781132 25677 layer_factory.hpp:77] Creating layer BatchNorm11
I0314 22:49:51.781144 25677 net.cpp:84] Creating Layer BatchNorm11
I0314 22:49:51.781152 25677 net.cpp:406] BatchNorm11 <- Convolution11
I0314 22:49:51.781177 25677 net.cpp:367] BatchNorm11 -> Convolution11 (in-place)
I0314 22:49:51.781535 25677 net.cpp:122] Setting up BatchNorm11
I0314 22:49:51.781548 25677 net.cpp:129] Top shape: 16 32 112 112 (6422528)
I0314 22:49:51.781559 25677 net.cpp:137] Memory required for data: 1698758848
I0314 22:49:51.781582 25677 layer_factory.hpp:77] Creating layer Scale11
I0314 22:49:51.781601 25677 net.cpp:84] Creating Layer Scale11
I0314 22:49:51.781641 25677 net.cpp:406] Scale11 <- Convolution11
I0314 22:49:51.781659 25677 net.cpp:367] Scale11 -> Convolution11 (in-place)
I0314 22:49:51.781795 25677 layer_factory.hpp:77] Creating layer Scale11
I0314 22:49:51.782039 25677 net.cpp:122] Setting up Scale11
I0314 22:49:51.782058 25677 net.cpp:129] Top shape: 16 32 112 112 (6422528)
I0314 22:49:51.782065 25677 net.cpp:137] Memory required for data: 1724448960
I0314 22:49:51.782081 25677 layer_factory.hpp:77] Creating layer Eltwise5
I0314 22:49:51.782093 25677 net.cpp:84] Creating Layer Eltwise5
I0314 22:49:51.782100 25677 net.cpp:406] Eltwise5 <- Convolution11
I0314 22:49:51.782121 25677 net.cpp:406] Eltwise5 <- Eltwise4_ReLU9_0_split_1
I0314 22:49:51.782131 25677 net.cpp:380] Eltwise5 -> Eltwise5
I0314 22:49:51.782187 25677 net.cpp:122] Setting up Eltwise5
I0314 22:49:51.782199 25677 net.cpp:129] Top shape: 16 32 112 112 (6422528)
I0314 22:49:51.782207 25677 net.cpp:137] Memory required for data: 1750139072
I0314 22:49:51.782213 25677 layer_factory.hpp:77] Creating layer ReLU11
I0314 22:49:51.782224 25677 net.cpp:84] Creating Layer ReLU11
I0314 22:49:51.782240 25677 net.cpp:406] ReLU11 <- Eltwise5
I0314 22:49:51.782250 25677 net.cpp:367] ReLU11 -> Eltwise5 (in-place)
I0314 22:49:51.782261 25677 net.cpp:122] Setting up ReLU11
I0314 22:49:51.782270 25677 net.cpp:129] Top shape: 16 32 112 112 (6422528)
I0314 22:49:51.782279 25677 net.cpp:137] Memory required for data: 1775829184
I0314 22:49:51.782285 25677 layer_factory.hpp:77] Creating layer Eltwise5_ReLU11_0_split
I0314 22:49:51.782296 25677 net.cpp:84] Creating Layer Eltwise5_ReLU11_0_split
I0314 22:49:51.782304 25677 net.cpp:406] Eltwise5_ReLU11_0_split <- Eltwise5
I0314 22:49:51.782313 25677 net.cpp:380] Eltwise5_ReLU11_0_split -> Eltwise5_ReLU11_0_split_0
I0314 22:49:51.782325 25677 net.cpp:380] Eltwise5_ReLU11_0_split -> Eltwise5_ReLU11_0_split_1
I0314 22:49:51.782336 25677 net.cpp:380] Eltwise5_ReLU11_0_split -> Eltwise5_ReLU11_0_split_2
I0314 22:49:51.782413 25677 net.cpp:122] Setting up Eltwise5_ReLU11_0_split
I0314 22:49:51.782424 25677 net.cpp:129] Top shape: 16 32 112 112 (6422528)
I0314 22:49:51.782433 25677 net.cpp:129] Top shape: 16 32 112 112 (6422528)
I0314 22:49:51.782443 25677 net.cpp:129] Top shape: 16 32 112 112 (6422528)
I0314 22:49:51.782449 25677 net.cpp:137] Memory required for data: 1852899520
I0314 22:49:51.782456 25677 layer_factory.hpp:77] Creating layer Convolution12
I0314 22:49:51.782471 25677 net.cpp:84] Creating Layer Convolution12
I0314 22:49:51.782480 25677 net.cpp:406] Convolution12 <- Eltwise5_ReLU11_0_split_0
I0314 22:49:51.782492 25677 net.cpp:380] Convolution12 -> Convolution12
I0314 22:49:51.785737 25677 net.cpp:122] Setting up Convolution12
I0314 22:49:51.785778 25677 net.cpp:129] Top shape: 16 64 56 56 (3211264)
I0314 22:49:51.785794 25677 net.cpp:137] Memory required for data: 1865744576
I0314 22:49:51.785812 25677 layer_factory.hpp:77] Creating layer BatchNorm12
I0314 22:49:51.785832 25677 net.cpp:84] Creating Layer BatchNorm12
I0314 22:49:51.785846 25677 net.cpp:406] BatchNorm12 <- Convolution12
I0314 22:49:51.785863 25677 net.cpp:367] BatchNorm12 -> Convolution12 (in-place)
I0314 22:49:51.786281 25677 net.cpp:122] Setting up BatchNorm12
I0314 22:49:51.786301 25677 net.cpp:129] Top shape: 16 64 56 56 (3211264)
I0314 22:49:51.786314 25677 net.cpp:137] Memory required for data: 1878589632
I0314 22:49:51.786334 25677 layer_factory.hpp:77] Creating layer Scale12
I0314 22:49:51.786350 25677 net.cpp:84] Creating Layer Scale12
I0314 22:49:51.786363 25677 net.cpp:406] Scale12 <- Convolution12
I0314 22:49:51.786378 25677 net.cpp:367] Scale12 -> Convolution12 (in-place)
I0314 22:49:51.786459 25677 layer_factory.hpp:77] Creating layer Scale12
I0314 22:49:51.786706 25677 net.cpp:122] Setting up Scale12
I0314 22:49:51.786738 25677 net.cpp:129] Top shape: 16 64 56 56 (3211264)
I0314 22:49:51.786751 25677 net.cpp:137] Memory required for data: 1891434688
I0314 22:49:51.786767 25677 layer_factory.hpp:77] Creating layer ReLU12
I0314 22:49:51.786783 25677 net.cpp:84] Creating Layer ReLU12
I0314 22:49:51.786818 25677 net.cpp:406] ReLU12 <- Convolution12
I0314 22:49:51.786834 25677 net.cpp:367] ReLU12 -> Convolution12 (in-place)
I0314 22:49:51.786851 25677 net.cpp:122] Setting up ReLU12
I0314 22:49:51.786886 25677 net.cpp:129] Top shape: 16 64 56 56 (3211264)
I0314 22:49:51.786900 25677 net.cpp:137] Memory required for data: 1904279744
I0314 22:49:51.786912 25677 layer_factory.hpp:77] Creating layer Convolution13
I0314 22:49:51.786945 25677 net.cpp:84] Creating Layer Convolution13
I0314 22:49:51.786959 25677 net.cpp:406] Convolution13 <- Convolution12
I0314 22:49:51.786978 25677 net.cpp:380] Convolution13 -> Convolution13
I0314 22:49:51.787986 25677 net.cpp:122] Setting up Convolution13
I0314 22:49:51.788027 25677 net.cpp:129] Top shape: 16 64 56 56 (3211264)
I0314 22:49:51.788038 25677 net.cpp:137] Memory required for data: 1917124800
I0314 22:49:51.788069 25677 layer_factory.hpp:77] Creating layer BatchNorm13
I0314 22:49:51.788089 25677 net.cpp:84] Creating Layer BatchNorm13
I0314 22:49:51.788097 25677 net.cpp:406] BatchNorm13 <- Convolution13
I0314 22:49:51.788120 25677 net.cpp:367] BatchNorm13 -> Convolution13 (in-place)
I0314 22:49:51.788481 25677 net.cpp:122] Setting up BatchNorm13
I0314 22:49:51.788501 25677 net.cpp:129] Top shape: 16 64 56 56 (3211264)
I0314 22:49:51.788514 25677 net.cpp:137] Memory required for data: 1929969856
I0314 22:49:51.788533 25677 layer_factory.hpp:77] Creating layer Scale13
I0314 22:49:51.788552 25677 net.cpp:84] Creating Layer Scale13
I0314 22:49:51.788563 25677 net.cpp:406] Scale13 <- Convolution13
I0314 22:49:51.788579 25677 net.cpp:367] Scale13 -> Convolution13 (in-place)
I0314 22:49:51.788652 25677 layer_factory.hpp:77] Creating layer Scale13
I0314 22:49:51.788873 25677 net.cpp:122] Setting up Scale13
I0314 22:49:51.788893 25677 net.cpp:129] Top shape: 16 64 56 56 (3211264)
I0314 22:49:51.788905 25677 net.cpp:137] Memory required for data: 1942814912
I0314 22:49:51.788921 25677 layer_factory.hpp:77] Creating layer Convolution14
I0314 22:49:51.788941 25677 net.cpp:84] Creating Layer Convolution14
I0314 22:49:51.788956 25677 net.cpp:406] Convolution14 <- Eltwise5_ReLU11_0_split_1
I0314 22:49:51.788975 25677 net.cpp:380] Convolution14 -> Convolution14
I0314 22:49:51.789520 25677 net.cpp:122] Setting up Convolution14
I0314 22:49:51.789551 25677 net.cpp:129] Top shape: 16 64 56 56 (3211264)
I0314 22:49:51.789566 25677 net.cpp:137] Memory required for data: 1955659968
I0314 22:49:51.789582 25677 layer_factory.hpp:77] Creating layer BatchNorm14
I0314 22:49:51.789599 25677 net.cpp:84] Creating Layer BatchNorm14
I0314 22:49:51.789613 25677 net.cpp:406] BatchNorm14 <- Convolution14
I0314 22:49:51.789629 25677 net.cpp:367] BatchNorm14 -> Convolution14 (in-place)
I0314 22:49:51.789964 25677 net.cpp:122] Setting up BatchNorm14
I0314 22:49:51.789984 25677 net.cpp:129] Top shape: 16 64 56 56 (3211264)
I0314 22:49:51.789996 25677 net.cpp:137] Memory required for data: 1968505024
I0314 22:49:51.790015 25677 layer_factory.hpp:77] Creating layer Scale14
I0314 22:49:51.790031 25677 net.cpp:84] Creating Layer Scale14
I0314 22:49:51.790045 25677 net.cpp:406] Scale14 <- Convolution14
I0314 22:49:51.790060 25677 net.cpp:367] Scale14 -> Convolution14 (in-place)
I0314 22:49:51.790130 25677 layer_factory.hpp:77] Creating layer Scale14
I0314 22:49:51.790364 25677 net.cpp:122] Setting up Scale14
I0314 22:49:51.790385 25677 net.cpp:129] Top shape: 16 64 56 56 (3211264)
I0314 22:49:51.790396 25677 net.cpp:137] Memory required for data: 1981350080
I0314 22:49:51.790412 25677 layer_factory.hpp:77] Creating layer Eltwise6
I0314 22:49:51.790431 25677 net.cpp:84] Creating Layer Eltwise6
I0314 22:49:51.790444 25677 net.cpp:406] Eltwise6 <- Convolution13
I0314 22:49:51.790457 25677 net.cpp:406] Eltwise6 <- Convolution14
I0314 22:49:51.790473 25677 net.cpp:380] Eltwise6 -> Eltwise6
I0314 22:49:51.790518 25677 net.cpp:122] Setting up Eltwise6
I0314 22:49:51.790536 25677 net.cpp:129] Top shape: 16 64 56 56 (3211264)
I0314 22:49:51.790547 25677 net.cpp:137] Memory required for data: 1994195136
I0314 22:49:51.790578 25677 layer_factory.hpp:77] Creating layer ReLU13
I0314 22:49:51.790596 25677 net.cpp:84] Creating Layer ReLU13
I0314 22:49:51.790607 25677 net.cpp:406] ReLU13 <- Eltwise6
I0314 22:49:51.790622 25677 net.cpp:367] ReLU13 -> Eltwise6 (in-place)
I0314 22:49:51.790638 25677 net.cpp:122] Setting up ReLU13
I0314 22:49:51.790653 25677 net.cpp:129] Top shape: 16 64 56 56 (3211264)
I0314 22:49:51.790665 25677 net.cpp:137] Memory required for data: 2007040192
I0314 22:49:51.790681 25677 layer_factory.hpp:77] Creating layer Eltwise6_ReLU13_0_split
I0314 22:49:51.790719 25677 net.cpp:84] Creating Layer Eltwise6_ReLU13_0_split
I0314 22:49:51.790753 25677 net.cpp:406] Eltwise6_ReLU13_0_split <- Eltwise6
I0314 22:49:51.790776 25677 net.cpp:380] Eltwise6_ReLU13_0_split -> Eltwise6_ReLU13_0_split_0
I0314 22:49:51.790796 25677 net.cpp:380] Eltwise6_ReLU13_0_split -> Eltwise6_ReLU13_0_split_1
I0314 22:49:51.790863 25677 net.cpp:122] Setting up Eltwise6_ReLU13_0_split
I0314 22:49:51.790894 25677 net.cpp:129] Top shape: 16 64 56 56 (3211264)
I0314 22:49:51.790908 25677 net.cpp:129] Top shape: 16 64 56 56 (3211264)
I0314 22:49:51.790920 25677 net.cpp:137] Memory required for data: 2032730304
I0314 22:49:51.790931 25677 layer_factory.hpp:77] Creating layer Convolution15
I0314 22:49:51.790951 25677 net.cpp:84] Creating Layer Convolution15
I0314 22:49:51.790964 25677 net.cpp:406] Convolution15 <- Eltwise6_ReLU13_0_split_0
I0314 22:49:51.790993 25677 net.cpp:380] Convolution15 -> Convolution15
I0314 22:49:51.791827 25677 net.cpp:122] Setting up Convolution15
I0314 22:49:51.791848 25677 net.cpp:129] Top shape: 16 64 56 56 (3211264)
I0314 22:49:51.791860 25677 net.cpp:137] Memory required for data: 2045575360
I0314 22:49:51.791877 25677 layer_factory.hpp:77] Creating layer BatchNorm15
I0314 22:49:51.791903 25677 net.cpp:84] Creating Layer BatchNorm15
I0314 22:49:51.791913 25677 net.cpp:406] BatchNorm15 <- Convolution15
I0314 22:49:51.791929 25677 net.cpp:367] BatchNorm15 -> Convolution15 (in-place)
I0314 22:49:51.792277 25677 net.cpp:122] Setting up BatchNorm15
I0314 22:49:51.792297 25677 net.cpp:129] Top shape: 16 64 56 56 (3211264)
I0314 22:49:51.792309 25677 net.cpp:137] Memory required for data: 2058420416
I0314 22:49:51.792326 25677 layer_factory.hpp:77] Creating layer Scale15
I0314 22:49:51.792342 25677 net.cpp:84] Creating Layer Scale15
I0314 22:49:51.792354 25677 net.cpp:406] Scale15 <- Convolution15
I0314 22:49:51.792371 25677 net.cpp:367] Scale15 -> Convolution15 (in-place)
I0314 22:49:51.792438 25677 layer_factory.hpp:77] Creating layer Scale15
I0314 22:49:51.792651 25677 net.cpp:122] Setting up Scale15
I0314 22:49:51.792670 25677 net.cpp:129] Top shape: 16 64 56 56 (3211264)
I0314 22:49:51.792680 25677 net.cpp:137] Memory required for data: 2071265472
I0314 22:49:51.792696 25677 layer_factory.hpp:77] Creating layer ReLU14
I0314 22:49:51.792711 25677 net.cpp:84] Creating Layer ReLU14
I0314 22:49:51.792727 25677 net.cpp:406] ReLU14 <- Convolution15
I0314 22:49:51.792750 25677 net.cpp:367] ReLU14 -> Convolution15 (in-place)
I0314 22:49:51.792778 25677 net.cpp:122] Setting up ReLU14
I0314 22:49:51.792810 25677 net.cpp:129] Top shape: 16 64 56 56 (3211264)
I0314 22:49:51.792829 25677 net.cpp:137] Memory required for data: 2084110528
I0314 22:49:51.792858 25677 layer_factory.hpp:77] Creating layer Convolution16
I0314 22:49:51.792888 25677 net.cpp:84] Creating Layer Convolution16
I0314 22:49:51.792909 25677 net.cpp:406] Convolution16 <- Convolution15
I0314 22:49:51.792933 25677 net.cpp:380] Convolution16 -> Convolution16
I0314 22:49:51.793756 25677 net.cpp:122] Setting up Convolution16
I0314 22:49:51.793777 25677 net.cpp:129] Top shape: 16 64 56 56 (3211264)
I0314 22:49:51.793789 25677 net.cpp:137] Memory required for data: 2096955584
I0314 22:49:51.793804 25677 layer_factory.hpp:77] Creating layer BatchNorm16
I0314 22:49:51.793820 25677 net.cpp:84] Creating Layer BatchNorm16
I0314 22:49:51.793833 25677 net.cpp:406] BatchNorm16 <- Convolution16
I0314 22:49:51.793848 25677 net.cpp:367] BatchNorm16 -> Convolution16 (in-place)
I0314 22:49:51.794193 25677 net.cpp:122] Setting up BatchNorm16
I0314 22:49:51.794212 25677 net.cpp:129] Top shape: 16 64 56 56 (3211264)
I0314 22:49:51.794224 25677 net.cpp:137] Memory required for data: 2109800640
I0314 22:49:51.794240 25677 layer_factory.hpp:77] Creating layer Scale16
I0314 22:49:51.794256 25677 net.cpp:84] Creating Layer Scale16
I0314 22:49:51.794267 25677 net.cpp:406] Scale16 <- Convolution16
I0314 22:49:51.794281 25677 net.cpp:367] Scale16 -> Convolution16 (in-place)
I0314 22:49:51.794348 25677 layer_factory.hpp:77] Creating layer Scale16
I0314 22:49:51.794558 25677 net.cpp:122] Setting up Scale16
I0314 22:49:51.794575 25677 net.cpp:129] Top shape: 16 64 56 56 (3211264)
I0314 22:49:51.794586 25677 net.cpp:137] Memory required for data: 2122645696
I0314 22:49:51.794610 25677 layer_factory.hpp:77] Creating layer Eltwise7
I0314 22:49:51.794625 25677 net.cpp:84] Creating Layer Eltwise7
I0314 22:49:51.794636 25677 net.cpp:406] Eltwise7 <- Convolution16
I0314 22:49:51.794649 25677 net.cpp:406] Eltwise7 <- Eltwise6_ReLU13_0_split_1
I0314 22:49:51.794663 25677 net.cpp:380] Eltwise7 -> Eltwise7
I0314 22:49:51.794705 25677 net.cpp:122] Setting up Eltwise7
I0314 22:49:51.794721 25677 net.cpp:129] Top shape: 16 64 56 56 (3211264)
I0314 22:49:51.794731 25677 net.cpp:137] Memory required for data: 2135490752
I0314 22:49:51.794742 25677 layer_factory.hpp:77] Creating layer ReLU15
I0314 22:49:51.794756 25677 net.cpp:84] Creating Layer ReLU15
I0314 22:49:51.794767 25677 net.cpp:406] ReLU15 <- Eltwise7
I0314 22:49:51.794780 25677 net.cpp:367] ReLU15 -> Eltwise7 (in-place)
I0314 22:49:51.794795 25677 net.cpp:122] Setting up ReLU15
I0314 22:49:51.794808 25677 net.cpp:129] Top shape: 16 64 56 56 (3211264)
I0314 22:49:51.794818 25677 net.cpp:137] Memory required for data: 2148335808
I0314 22:49:51.794829 25677 layer_factory.hpp:77] Creating layer Eltwise7_ReLU15_0_split
I0314 22:49:51.794842 25677 net.cpp:84] Creating Layer Eltwise7_ReLU15_0_split
I0314 22:49:51.794853 25677 net.cpp:406] Eltwise7_ReLU15_0_split <- Eltwise7
I0314 22:49:51.794872 25677 net.cpp:380] Eltwise7_ReLU15_0_split -> Eltwise7_ReLU15_0_split_0
I0314 22:49:51.794888 25677 net.cpp:380] Eltwise7_ReLU15_0_split -> Eltwise7_ReLU15_0_split_1
I0314 22:49:51.794980 25677 net.cpp:122] Setting up Eltwise7_ReLU15_0_split
I0314 22:49:51.795019 25677 net.cpp:129] Top shape: 16 64 56 56 (3211264)
I0314 22:49:51.795042 25677 net.cpp:129] Top shape: 16 64 56 56 (3211264)
I0314 22:49:51.795060 25677 net.cpp:137] Memory required for data: 2174025920
I0314 22:49:51.795078 25677 layer_factory.hpp:77] Creating layer Convolution17
I0314 22:49:51.795107 25677 net.cpp:84] Creating Layer Convolution17
I0314 22:49:51.795127 25677 net.cpp:406] Convolution17 <- Eltwise7_ReLU15_0_split_0
I0314 22:49:51.795156 25677 net.cpp:380] Convolution17 -> Convolution17
I0314 22:49:51.795965 25677 net.cpp:122] Setting up Convolution17
I0314 22:49:51.795986 25677 net.cpp:129] Top shape: 16 64 56 56 (3211264)
I0314 22:49:51.795999 25677 net.cpp:137] Memory required for data: 2186870976
I0314 22:49:51.796013 25677 layer_factory.hpp:77] Creating layer BatchNorm17
I0314 22:49:51.796030 25677 net.cpp:84] Creating Layer BatchNorm17
I0314 22:49:51.796041 25677 net.cpp:406] BatchNorm17 <- Convolution17
I0314 22:49:51.796056 25677 net.cpp:367] BatchNorm17 -> Convolution17 (in-place)
I0314 22:49:51.796377 25677 net.cpp:122] Setting up BatchNorm17
I0314 22:49:51.796396 25677 net.cpp:129] Top shape: 16 64 56 56 (3211264)
I0314 22:49:51.796406 25677 net.cpp:137] Memory required for data: 2199716032
I0314 22:49:51.796423 25677 layer_factory.hpp:77] Creating layer Scale17
I0314 22:49:51.796439 25677 net.cpp:84] Creating Layer Scale17
I0314 22:49:51.796463 25677 net.cpp:406] Scale17 <- Convolution17
I0314 22:49:51.796478 25677 net.cpp:367] Scale17 -> Convolution17 (in-place)
I0314 22:49:51.796545 25677 layer_factory.hpp:77] Creating layer Scale17
I0314 22:49:51.796741 25677 net.cpp:122] Setting up Scale17
I0314 22:49:51.796758 25677 net.cpp:129] Top shape: 16 64 56 56 (3211264)
I0314 22:49:51.796788 25677 net.cpp:137] Memory required for data: 2212561088
I0314 22:49:51.796804 25677 layer_factory.hpp:77] Creating layer ReLU16
I0314 22:49:51.796819 25677 net.cpp:84] Creating Layer ReLU16
I0314 22:49:51.796833 25677 net.cpp:406] ReLU16 <- Convolution17
I0314 22:49:51.796846 25677 net.cpp:367] ReLU16 -> Convolution17 (in-place)
I0314 22:49:51.796860 25677 net.cpp:122] Setting up ReLU16
I0314 22:49:51.796875 25677 net.cpp:129] Top shape: 16 64 56 56 (3211264)
I0314 22:49:51.796885 25677 net.cpp:137] Memory required for data: 2225406144
I0314 22:49:51.796895 25677 layer_factory.hpp:77] Creating layer Convolution18
I0314 22:49:51.796914 25677 net.cpp:84] Creating Layer Convolution18
I0314 22:49:51.796926 25677 net.cpp:406] Convolution18 <- Convolution17
I0314 22:49:51.796941 25677 net.cpp:380] Convolution18 -> Convolution18
I0314 22:49:51.797740 25677 net.cpp:122] Setting up Convolution18
I0314 22:49:51.797761 25677 net.cpp:129] Top shape: 16 64 56 56 (3211264)
I0314 22:49:51.797772 25677 net.cpp:137] Memory required for data: 2238251200
I0314 22:49:51.797787 25677 layer_factory.hpp:77] Creating layer BatchNorm18
I0314 22:49:51.797803 25677 net.cpp:84] Creating Layer BatchNorm18
I0314 22:49:51.797814 25677 net.cpp:406] BatchNorm18 <- Convolution18
I0314 22:49:51.797833 25677 net.cpp:367] BatchNorm18 -> Convolution18 (in-place)
I0314 22:49:51.798171 25677 net.cpp:122] Setting up BatchNorm18
I0314 22:49:51.798202 25677 net.cpp:129] Top shape: 16 64 56 56 (3211264)
I0314 22:49:51.798213 25677 net.cpp:137] Memory required for data: 2251096256
I0314 22:49:51.798229 25677 layer_factory.hpp:77] Creating layer Scale18
I0314 22:49:51.798244 25677 net.cpp:84] Creating Layer Scale18
I0314 22:49:51.798255 25677 net.cpp:406] Scale18 <- Convolution18
I0314 22:49:51.798269 25677 net.cpp:367] Scale18 -> Convolution18 (in-place)
I0314 22:49:51.798337 25677 layer_factory.hpp:77] Creating layer Scale18
I0314 22:49:51.798557 25677 net.cpp:122] Setting up Scale18
I0314 22:49:51.798574 25677 net.cpp:129] Top shape: 16 64 56 56 (3211264)
I0314 22:49:51.798585 25677 net.cpp:137] Memory required for data: 2263941312
I0314 22:49:51.798604 25677 layer_factory.hpp:77] Creating layer Eltwise8
I0314 22:49:51.798619 25677 net.cpp:84] Creating Layer Eltwise8
I0314 22:49:51.798643 25677 net.cpp:406] Eltwise8 <- Convolution18
I0314 22:49:51.798656 25677 net.cpp:406] Eltwise8 <- Eltwise7_ReLU15_0_split_1
I0314 22:49:51.798673 25677 net.cpp:380] Eltwise8 -> Eltwise8
I0314 22:49:51.798715 25677 net.cpp:122] Setting up Eltwise8
I0314 22:49:51.798730 25677 net.cpp:129] Top shape: 16 64 56 56 (3211264)
I0314 22:49:51.798743 25677 net.cpp:137] Memory required for data: 2276786368
I0314 22:49:51.798760 25677 layer_factory.hpp:77] Creating layer ReLU17
I0314 22:49:51.798784 25677 net.cpp:84] Creating Layer ReLU17
I0314 22:49:51.798804 25677 net.cpp:406] ReLU17 <- Eltwise8
I0314 22:49:51.798825 25677 net.cpp:367] ReLU17 -> Eltwise8 (in-place)
I0314 22:49:51.798848 25677 net.cpp:122] Setting up ReLU17
I0314 22:49:51.798880 25677 net.cpp:129] Top shape: 16 64 56 56 (3211264)
I0314 22:49:51.798900 25677 net.cpp:137] Memory required for data: 2289631424
I0314 22:49:51.798923 25677 layer_factory.hpp:77] Creating layer Eltwise8_ReLU17_0_split
I0314 22:49:51.798945 25677 net.cpp:84] Creating Layer Eltwise8_ReLU17_0_split
I0314 22:49:51.798969 25677 net.cpp:406] Eltwise8_ReLU17_0_split <- Eltwise8
I0314 22:49:51.798998 25677 net.cpp:380] Eltwise8_ReLU17_0_split -> Eltwise8_ReLU17_0_split_0
I0314 22:49:51.799022 25677 net.cpp:380] Eltwise8_ReLU17_0_split -> Eltwise8_ReLU17_0_split_1
I0314 22:49:51.799096 25677 net.cpp:122] Setting up Eltwise8_ReLU17_0_split
I0314 22:49:51.799113 25677 net.cpp:129] Top shape: 16 64 56 56 (3211264)
I0314 22:49:51.799125 25677 net.cpp:129] Top shape: 16 64 56 56 (3211264)
I0314 22:49:51.799136 25677 net.cpp:137] Memory required for data: 2315321536
I0314 22:49:51.799146 25677 layer_factory.hpp:77] Creating layer Convolution19
I0314 22:49:51.799165 25677 net.cpp:84] Creating Layer Convolution19
I0314 22:49:51.799176 25677 net.cpp:406] Convolution19 <- Eltwise8_ReLU17_0_split_0
I0314 22:49:51.799211 25677 net.cpp:380] Convolution19 -> Convolution19
I0314 22:49:51.800038 25677 net.cpp:122] Setting up Convolution19
I0314 22:49:51.800062 25677 net.cpp:129] Top shape: 16 64 56 56 (3211264)
I0314 22:49:51.800076 25677 net.cpp:137] Memory required for data: 2328166592
I0314 22:49:51.800091 25677 layer_factory.hpp:77] Creating layer BatchNorm19
I0314 22:49:51.800107 25677 net.cpp:84] Creating Layer BatchNorm19
I0314 22:49:51.800119 25677 net.cpp:406] BatchNorm19 <- Convolution19
I0314 22:49:51.800133 25677 net.cpp:367] BatchNorm19 -> Convolution19 (in-place)
I0314 22:49:51.800474 25677 net.cpp:122] Setting up BatchNorm19
I0314 22:49:51.800493 25677 net.cpp:129] Top shape: 16 64 56 56 (3211264)
I0314 22:49:51.800514 25677 net.cpp:137] Memory required for data: 2341011648
I0314 22:49:51.800557 25677 layer_factory.hpp:77] Creating layer Scale19
I0314 22:49:51.800575 25677 net.cpp:84] Creating Layer Scale19
I0314 22:49:51.800590 25677 net.cpp:406] Scale19 <- Convolution19
I0314 22:49:51.800603 25677 net.cpp:367] Scale19 -> Convolution19 (in-place)
I0314 22:49:51.800675 25677 layer_factory.hpp:77] Creating layer Scale19
I0314 22:49:51.800905 25677 net.cpp:122] Setting up Scale19
I0314 22:49:51.800927 25677 net.cpp:129] Top shape: 16 64 56 56 (3211264)
I0314 22:49:51.800938 25677 net.cpp:137] Memory required for data: 2353856704
I0314 22:49:51.800953 25677 layer_factory.hpp:77] Creating layer ReLU18
I0314 22:49:51.800968 25677 net.cpp:84] Creating Layer ReLU18
I0314 22:49:51.800981 25677 net.cpp:406] ReLU18 <- Convolution19
I0314 22:49:51.800993 25677 net.cpp:367] ReLU18 -> Convolution19 (in-place)
I0314 22:49:51.801008 25677 net.cpp:122] Setting up ReLU18
I0314 22:49:51.801021 25677 net.cpp:129] Top shape: 16 64 56 56 (3211264)
I0314 22:49:51.801033 25677 net.cpp:137] Memory required for data: 2366701760
I0314 22:49:51.801044 25677 layer_factory.hpp:77] Creating layer Convolution20
I0314 22:49:51.801062 25677 net.cpp:84] Creating Layer Convolution20
I0314 22:49:51.801074 25677 net.cpp:406] Convolution20 <- Convolution19
I0314 22:49:51.801089 25677 net.cpp:380] Convolution20 -> Convolution20
I0314 22:49:51.801987 25677 net.cpp:122] Setting up Convolution20
I0314 22:49:51.802011 25677 net.cpp:129] Top shape: 16 64 56 56 (3211264)
I0314 22:49:51.802022 25677 net.cpp:137] Memory required for data: 2379546816
I0314 22:49:51.802037 25677 layer_factory.hpp:77] Creating layer BatchNorm20
I0314 22:49:51.802053 25677 net.cpp:84] Creating Layer BatchNorm20
I0314 22:49:51.802065 25677 net.cpp:406] BatchNorm20 <- Convolution20
I0314 22:49:51.802080 25677 net.cpp:367] BatchNorm20 -> Convolution20 (in-place)
I0314 22:49:51.802403 25677 net.cpp:122] Setting up BatchNorm20
I0314 22:49:51.802433 25677 net.cpp:129] Top shape: 16 64 56 56 (3211264)
I0314 22:49:51.802455 25677 net.cpp:137] Memory required for data: 2392391872
I0314 22:49:51.802474 25677 layer_factory.hpp:77] Creating layer Scale20
I0314 22:49:51.802489 25677 net.cpp:84] Creating Layer Scale20
I0314 22:49:51.802500 25677 net.cpp:406] Scale20 <- Convolution20
I0314 22:49:51.802515 25677 net.cpp:367] Scale20 -> Convolution20 (in-place)
I0314 22:49:51.802582 25677 layer_factory.hpp:77] Creating layer Scale20
I0314 22:49:51.802783 25677 net.cpp:122] Setting up Scale20
I0314 22:49:51.802801 25677 net.cpp:129] Top shape: 16 64 56 56 (3211264)
I0314 22:49:51.802812 25677 net.cpp:137] Memory required for data: 2405236928
I0314 22:49:51.802827 25677 layer_factory.hpp:77] Creating layer Eltwise9
I0314 22:49:51.802853 25677 net.cpp:84] Creating Layer Eltwise9
I0314 22:49:51.802865 25677 net.cpp:406] Eltwise9 <- Convolution20
I0314 22:49:51.802893 25677 net.cpp:406] Eltwise9 <- Eltwise8_ReLU17_0_split_1
I0314 22:49:51.802908 25677 net.cpp:380] Eltwise9 -> Eltwise9
I0314 22:49:51.802951 25677 net.cpp:122] Setting up Eltwise9
I0314 22:49:51.802969 25677 net.cpp:129] Top shape: 16 64 56 56 (3211264)
I0314 22:49:51.802981 25677 net.cpp:137] Memory required for data: 2418081984
I0314 22:49:51.802992 25677 layer_factory.hpp:77] Creating layer ReLU19
I0314 22:49:51.803023 25677 net.cpp:84] Creating Layer ReLU19
I0314 22:49:51.803036 25677 net.cpp:406] ReLU19 <- Eltwise9
I0314 22:49:51.803050 25677 net.cpp:367] ReLU19 -> Eltwise9 (in-place)
I0314 22:49:51.803064 25677 net.cpp:122] Setting up ReLU19
I0314 22:49:51.803077 25677 net.cpp:129] Top shape: 16 64 56 56 (3211264)
I0314 22:49:51.803088 25677 net.cpp:137] Memory required for data: 2430927040
I0314 22:49:51.803099 25677 layer_factory.hpp:77] Creating layer Eltwise9_ReLU19_0_split
I0314 22:49:51.803113 25677 net.cpp:84] Creating Layer Eltwise9_ReLU19_0_split
I0314 22:49:51.803124 25677 net.cpp:406] Eltwise9_ReLU19_0_split <- Eltwise9
I0314 22:49:51.803138 25677 net.cpp:380] Eltwise9_ReLU19_0_split -> Eltwise9_ReLU19_0_split_0
I0314 22:49:51.803153 25677 net.cpp:380] Eltwise9_ReLU19_0_split -> Eltwise9_ReLU19_0_split_1
I0314 22:49:51.803215 25677 net.cpp:122] Setting up Eltwise9_ReLU19_0_split
I0314 22:49:51.803236 25677 net.cpp:129] Top shape: 16 64 56 56 (3211264)
I0314 22:49:51.803248 25677 net.cpp:129] Top shape: 16 64 56 56 (3211264)
I0314 22:49:51.803259 25677 net.cpp:137] Memory required for data: 2456617152
I0314 22:49:51.803270 25677 layer_factory.hpp:77] Creating layer Convolution21
I0314 22:49:51.803289 25677 net.cpp:84] Creating Layer Convolution21
I0314 22:49:51.803302 25677 net.cpp:406] Convolution21 <- Eltwise9_ReLU19_0_split_0
I0314 22:49:51.803318 25677 net.cpp:380] Convolution21 -> Convolution21
I0314 22:49:51.804087 25677 net.cpp:122] Setting up Convolution21
I0314 22:49:51.804106 25677 net.cpp:129] Top shape: 16 64 56 56 (3211264)
I0314 22:49:51.804116 25677 net.cpp:137] Memory required for data: 2469462208
I0314 22:49:51.804131 25677 layer_factory.hpp:77] Creating layer BatchNorm21
I0314 22:49:51.804145 25677 net.cpp:84] Creating Layer BatchNorm21
I0314 22:49:51.804157 25677 net.cpp:406] BatchNorm21 <- Convolution21
I0314 22:49:51.804169 25677 net.cpp:367] BatchNorm21 -> Convolution21 (in-place)
I0314 22:49:51.804476 25677 net.cpp:122] Setting up BatchNorm21
I0314 22:49:51.804492 25677 net.cpp:129] Top shape: 16 64 56 56 (3211264)
I0314 22:49:51.804502 25677 net.cpp:137] Memory required for data: 2482307264
I0314 22:49:51.804517 25677 layer_factory.hpp:77] Creating layer Scale21
I0314 22:49:51.804539 25677 net.cpp:84] Creating Layer Scale21
I0314 22:49:51.804549 25677 net.cpp:406] Scale21 <- Convolution21
I0314 22:49:51.804563 25677 net.cpp:367] Scale21 -> Convolution21 (in-place)
I0314 22:49:51.804626 25677 layer_factory.hpp:77] Creating layer Scale21
I0314 22:49:51.804826 25677 net.cpp:122] Setting up Scale21
I0314 22:49:51.804852 25677 net.cpp:129] Top shape: 16 64 56 56 (3211264)
I0314 22:49:51.804862 25677 net.cpp:137] Memory required for data: 2495152320
I0314 22:49:51.804875 25677 layer_factory.hpp:77] Creating layer ReLU20
I0314 22:49:51.804889 25677 net.cpp:84] Creating Layer ReLU20
I0314 22:49:51.804899 25677 net.cpp:406] ReLU20 <- Convolution21
I0314 22:49:51.804913 25677 net.cpp:367] ReLU20 -> Convolution21 (in-place)
I0314 22:49:51.804926 25677 net.cpp:122] Setting up ReLU20
I0314 22:49:51.804939 25677 net.cpp:129] Top shape: 16 64 56 56 (3211264)
I0314 22:49:51.804949 25677 net.cpp:137] Memory required for data: 2507997376
I0314 22:49:51.804958 25677 layer_factory.hpp:77] Creating layer Convolution22
I0314 22:49:51.804975 25677 net.cpp:84] Creating Layer Convolution22
I0314 22:49:51.804986 25677 net.cpp:406] Convolution22 <- Convolution21
I0314 22:49:51.805001 25677 net.cpp:380] Convolution22 -> Convolution22
I0314 22:49:51.805747 25677 net.cpp:122] Setting up Convolution22
I0314 22:49:51.805765 25677 net.cpp:129] Top shape: 16 64 56 56 (3211264)
I0314 22:49:51.805786 25677 net.cpp:137] Memory required for data: 2520842432
I0314 22:49:51.805799 25677 layer_factory.hpp:77] Creating layer BatchNorm22
I0314 22:49:51.805814 25677 net.cpp:84] Creating Layer BatchNorm22
I0314 22:49:51.805824 25677 net.cpp:406] BatchNorm22 <- Convolution22
I0314 22:49:51.805845 25677 net.cpp:367] BatchNorm22 -> Convolution22 (in-place)
I0314 22:49:51.806145 25677 net.cpp:122] Setting up BatchNorm22
I0314 22:49:51.806188 25677 net.cpp:129] Top shape: 16 64 56 56 (3211264)
I0314 22:49:51.806195 25677 net.cpp:137] Memory required for data: 2533687488
I0314 22:49:51.806207 25677 layer_factory.hpp:77] Creating layer Scale22
I0314 22:49:51.806222 25677 net.cpp:84] Creating Layer Scale22
I0314 22:49:51.806233 25677 net.cpp:406] Scale22 <- Convolution22
I0314 22:49:51.806246 25677 net.cpp:367] Scale22 -> Convolution22 (in-place)
I0314 22:49:51.806311 25677 layer_factory.hpp:77] Creating layer Scale22
I0314 22:49:51.806512 25677 net.cpp:122] Setting up Scale22
I0314 22:49:51.806529 25677 net.cpp:129] Top shape: 16 64 56 56 (3211264)
I0314 22:49:51.806540 25677 net.cpp:137] Memory required for data: 2546532544
I0314 22:49:51.806553 25677 layer_factory.hpp:77] Creating layer Eltwise10
I0314 22:49:51.806567 25677 net.cpp:84] Creating Layer Eltwise10
I0314 22:49:51.806578 25677 net.cpp:406] Eltwise10 <- Convolution22
I0314 22:49:51.806589 25677 net.cpp:406] Eltwise10 <- Eltwise9_ReLU19_0_split_1
I0314 22:49:51.806602 25677 net.cpp:380] Eltwise10 -> Eltwise10
I0314 22:49:51.806643 25677 net.cpp:122] Setting up Eltwise10
I0314 22:49:51.806658 25677 net.cpp:129] Top shape: 16 64 56 56 (3211264)
I0314 22:49:51.806668 25677 net.cpp:137] Memory required for data: 2559377600
I0314 22:49:51.806677 25677 layer_factory.hpp:77] Creating layer ReLU21
I0314 22:49:51.806690 25677 net.cpp:84] Creating Layer ReLU21
I0314 22:49:51.806700 25677 net.cpp:406] ReLU21 <- Eltwise10
I0314 22:49:51.806712 25677 net.cpp:367] ReLU21 -> Eltwise10 (in-place)
I0314 22:49:51.806726 25677 net.cpp:122] Setting up ReLU21
I0314 22:49:51.806738 25677 net.cpp:129] Top shape: 16 64 56 56 (3211264)
I0314 22:49:51.806747 25677 net.cpp:137] Memory required for data: 2572222656
I0314 22:49:51.806757 25677 layer_factory.hpp:77] Creating layer Eltwise10_ReLU21_0_split
I0314 22:49:51.806771 25677 net.cpp:84] Creating Layer Eltwise10_ReLU21_0_split
I0314 22:49:51.806782 25677 net.cpp:406] Eltwise10_ReLU21_0_split <- Eltwise10
I0314 22:49:51.806794 25677 net.cpp:380] Eltwise10_ReLU21_0_split -> Eltwise10_ReLU21_0_split_0
I0314 22:49:51.806818 25677 net.cpp:380] Eltwise10_ReLU21_0_split -> Eltwise10_ReLU21_0_split_1
I0314 22:49:51.806833 25677 net.cpp:380] Eltwise10_ReLU21_0_split -> Eltwise10_ReLU21_0_split_2
I0314 22:49:51.806932 25677 net.cpp:122] Setting up Eltwise10_ReLU21_0_split
I0314 22:49:51.806948 25677 net.cpp:129] Top shape: 16 64 56 56 (3211264)
I0314 22:49:51.806960 25677 net.cpp:129] Top shape: 16 64 56 56 (3211264)
I0314 22:49:51.806972 25677 net.cpp:129] Top shape: 16 64 56 56 (3211264)
I0314 22:49:51.806982 25677 net.cpp:137] Memory required for data: 2610757824
I0314 22:49:51.806993 25677 layer_factory.hpp:77] Creating layer StageLink1
I0314 22:49:51.807009 25677 net.cpp:84] Creating Layer StageLink1
I0314 22:49:51.807020 25677 net.cpp:406] StageLink1 <- Eltwise10_ReLU21_0_split_0
I0314 22:49:51.807035 25677 net.cpp:380] StageLink1 -> StageLink1
I0314 22:49:51.807492 25677 net.cpp:122] Setting up StageLink1
I0314 22:49:51.807509 25677 net.cpp:129] Top shape: 16 128 56 56 (6422528)
I0314 22:49:51.807519 25677 net.cpp:137] Memory required for data: 2636447936
I0314 22:49:51.807533 25677 layer_factory.hpp:77] Creating layer StageLink1_BN
I0314 22:49:51.807549 25677 net.cpp:84] Creating Layer StageLink1_BN
I0314 22:49:51.807560 25677 net.cpp:406] StageLink1_BN <- StageLink1
I0314 22:49:51.807574 25677 net.cpp:367] StageLink1_BN -> StageLink1 (in-place)
I0314 22:49:51.807960 25677 net.cpp:122] Setting up StageLink1_BN
I0314 22:49:51.807979 25677 net.cpp:129] Top shape: 16 128 56 56 (6422528)
I0314 22:49:51.807991 25677 net.cpp:137] Memory required for data: 2662138048
I0314 22:49:51.808007 25677 layer_factory.hpp:77] Creating layer StageLink1_Scale
I0314 22:49:51.808022 25677 net.cpp:84] Creating Layer StageLink1_Scale
I0314 22:49:51.808032 25677 net.cpp:406] StageLink1_Scale <- StageLink1
I0314 22:49:51.808045 25677 net.cpp:367] StageLink1_Scale -> StageLink1 (in-place)
I0314 22:49:51.808110 25677 layer_factory.hpp:77] Creating layer StageLink1_Scale
I0314 22:49:51.808393 25677 net.cpp:122] Setting up StageLink1_Scale
I0314 22:49:51.808414 25677 net.cpp:129] Top shape: 16 128 56 56 (6422528)
I0314 22:49:51.808425 25677 net.cpp:137] Memory required for data: 2687828160
I0314 22:49:51.808439 25677 layer_factory.hpp:77] Creating layer StageLink0
I0314 22:49:51.808457 25677 net.cpp:84] Creating Layer StageLink0
I0314 22:49:51.808470 25677 net.cpp:406] StageLink0 <- Eltwise5_ReLU11_0_split_2
I0314 22:49:51.808485 25677 net.cpp:380] StageLink0 -> StageLink0
I0314 22:49:51.808931 25677 net.cpp:122] Setting up StageLink0
I0314 22:49:51.808951 25677 net.cpp:129] Top shape: 16 64 112 112 (12845056)
I0314 22:49:51.808962 25677 net.cpp:137] Memory required for data: 2739208384
I0314 22:49:51.808976 25677 layer_factory.hpp:77] Creating layer StageLink0_BN
I0314 22:49:51.808991 25677 net.cpp:84] Creating Layer StageLink0_BN
I0314 22:49:51.809000 25677 net.cpp:406] StageLink0_BN <- StageLink0
I0314 22:49:51.809020 25677 net.cpp:367] StageLink0_BN -> StageLink0 (in-place)
I0314 22:49:51.809358 25677 net.cpp:122] Setting up StageLink0_BN
I0314 22:49:51.809375 25677 net.cpp:129] Top shape: 16 64 112 112 (12845056)
I0314 22:49:51.809386 25677 net.cpp:137] Memory required for data: 2790588608
I0314 22:49:51.809401 25677 layer_factory.hpp:77] Creating layer StageLink0_Scale
I0314 22:49:51.809415 25677 net.cpp:84] Creating Layer StageLink0_Scale
I0314 22:49:51.809427 25677 net.cpp:406] StageLink0_Scale <- StageLink0
I0314 22:49:51.809440 25677 net.cpp:367] StageLink0_Scale -> StageLink0 (in-place)
I0314 22:49:51.809504 25677 layer_factory.hpp:77] Creating layer StageLink0_Scale
I0314 22:49:51.809737 25677 net.cpp:122] Setting up StageLink0_Scale
I0314 22:49:51.809754 25677 net.cpp:129] Top shape: 16 64 112 112 (12845056)
I0314 22:49:51.809764 25677 net.cpp:137] Memory required for data: 2841968832
I0314 22:49:51.809778 25677 layer_factory.hpp:77] Creating layer Convolution23
I0314 22:49:51.809795 25677 net.cpp:84] Creating Layer Convolution23
I0314 22:49:51.809808 25677 net.cpp:406] Convolution23 <- Eltwise10_ReLU21_0_split_1
I0314 22:49:51.809825 25677 net.cpp:380] Convolution23 -> Convolution23
I0314 22:49:51.825394 25677 net.cpp:122] Setting up Convolution23
I0314 22:49:51.825470 25677 net.cpp:129] Top shape: 16 128 28 28 (1605632)
I0314 22:49:51.825489 25677 net.cpp:137] Memory required for data: 2848391360
I0314 22:49:51.825515 25677 layer_factory.hpp:77] Creating layer BatchNorm23
I0314 22:49:51.825546 25677 net.cpp:84] Creating Layer BatchNorm23
I0314 22:49:51.825558 25677 net.cpp:406] BatchNorm23 <- Convolution23
I0314 22:49:51.825574 25677 net.cpp:367] BatchNorm23 -> Convolution23 (in-place)
I0314 22:49:51.825954 25677 net.cpp:122] Setting up BatchNorm23
I0314 22:49:51.825978 25677 net.cpp:129] Top shape: 16 128 28 28 (1605632)
I0314 22:49:51.825987 25677 net.cpp:137] Memory required for data: 2854813888
I0314 22:49:51.826002 25677 layer_factory.hpp:77] Creating layer Scale23
I0314 22:49:51.826017 25677 net.cpp:84] Creating Layer Scale23
I0314 22:49:51.826030 25677 net.cpp:406] Scale23 <- Convolution23
I0314 22:49:51.826046 25677 net.cpp:367] Scale23 -> Convolution23 (in-place)
I0314 22:49:51.826123 25677 layer_factory.hpp:77] Creating layer Scale23
I0314 22:49:51.826297 25677 net.cpp:122] Setting up Scale23
I0314 22:49:51.826318 25677 net.cpp:129] Top shape: 16 128 28 28 (1605632)
I0314 22:49:51.826325 25677 net.cpp:137] Memory required for data: 2861236416
I0314 22:49:51.826336 25677 layer_factory.hpp:77] Creating layer ReLU22
I0314 22:49:51.826349 25677 net.cpp:84] Creating Layer ReLU22
I0314 22:49:51.826356 25677 net.cpp:406] ReLU22 <- Convolution23
I0314 22:49:51.826366 25677 net.cpp:367] ReLU22 -> Convolution23 (in-place)
I0314 22:49:51.826385 25677 net.cpp:122] Setting up ReLU22
I0314 22:49:51.826400 25677 net.cpp:129] Top shape: 16 128 28 28 (1605632)
I0314 22:49:51.826412 25677 net.cpp:137] Memory required for data: 2867658944
I0314 22:49:51.826424 25677 layer_factory.hpp:77] Creating layer Convolution24
I0314 22:49:51.826443 25677 net.cpp:84] Creating Layer Convolution24
I0314 22:49:51.826508 25677 net.cpp:406] Convolution24 <- Convolution23
I0314 22:49:51.826526 25677 net.cpp:380] Convolution24 -> Convolution24
I0314 22:49:51.828199 25677 net.cpp:122] Setting up Convolution24
I0314 22:49:51.828224 25677 net.cpp:129] Top shape: 16 128 28 28 (1605632)
I0314 22:49:51.828233 25677 net.cpp:137] Memory required for data: 2874081472
I0314 22:49:51.828245 25677 layer_factory.hpp:77] Creating layer BatchNorm24
I0314 22:49:51.828265 25677 net.cpp:84] Creating Layer BatchNorm24
I0314 22:49:51.828280 25677 net.cpp:406] BatchNorm24 <- Convolution24
I0314 22:49:51.828299 25677 net.cpp:367] BatchNorm24 -> Convolution24 (in-place)
I0314 22:49:51.828568 25677 net.cpp:122] Setting up BatchNorm24
I0314 22:49:51.828588 25677 net.cpp:129] Top shape: 16 128 28 28 (1605632)
I0314 22:49:51.828600 25677 net.cpp:137] Memory required for data: 2880504000
I0314 22:49:51.828621 25677 layer_factory.hpp:77] Creating layer Scale24
I0314 22:49:51.828637 25677 net.cpp:84] Creating Layer Scale24
I0314 22:49:51.828645 25677 net.cpp:406] Scale24 <- Convolution24
I0314 22:49:51.828655 25677 net.cpp:367] Scale24 -> Convolution24 (in-place)
I0314 22:49:51.828718 25677 layer_factory.hpp:77] Creating layer Scale24
I0314 22:49:51.828883 25677 net.cpp:122] Setting up Scale24
I0314 22:49:51.828896 25677 net.cpp:129] Top shape: 16 128 28 28 (1605632)
I0314 22:49:51.828905 25677 net.cpp:137] Memory required for data: 2886926528
I0314 22:49:51.828922 25677 layer_factory.hpp:77] Creating layer Convolution25
I0314 22:49:51.828945 25677 net.cpp:84] Creating Layer Convolution25
I0314 22:49:51.828959 25677 net.cpp:406] Convolution25 <- Eltwise10_ReLU21_0_split_2
I0314 22:49:51.828972 25677 net.cpp:380] Convolution25 -> Convolution25
I0314 22:49:51.829363 25677 net.cpp:122] Setting up Convolution25
I0314 22:49:51.829388 25677 net.cpp:129] Top shape: 16 128 28 28 (1605632)
I0314 22:49:51.829398 25677 net.cpp:137] Memory required for data: 2893349056
I0314 22:49:51.829408 25677 layer_factory.hpp:77] Creating layer BatchNorm25
I0314 22:49:51.829421 25677 net.cpp:84] Creating Layer BatchNorm25
I0314 22:49:51.829429 25677 net.cpp:406] BatchNorm25 <- Convolution25
I0314 22:49:51.829440 25677 net.cpp:367] BatchNorm25 -> Convolution25 (in-place)
I0314 22:49:51.829702 25677 net.cpp:122] Setting up BatchNorm25
I0314 22:49:51.829725 25677 net.cpp:129] Top shape: 16 128 28 28 (1605632)
I0314 22:49:51.829732 25677 net.cpp:137] Memory required for data: 2899771584
I0314 22:49:51.829747 25677 layer_factory.hpp:77] Creating layer Scale25
I0314 22:49:51.829782 25677 net.cpp:84] Creating Layer Scale25
I0314 22:49:51.829795 25677 net.cpp:406] Scale25 <- Convolution25
I0314 22:49:51.829812 25677 net.cpp:367] Scale25 -> Convolution25 (in-place)
I0314 22:49:51.829875 25677 layer_factory.hpp:77] Creating layer Scale25
I0314 22:49:51.830055 25677 net.cpp:122] Setting up Scale25
I0314 22:49:51.830070 25677 net.cpp:129] Top shape: 16 128 28 28 (1605632)
I0314 22:49:51.830076 25677 net.cpp:137] Memory required for data: 2906194112
I0314 22:49:51.830088 25677 layer_factory.hpp:77] Creating layer Eltwise11
I0314 22:49:51.830101 25677 net.cpp:84] Creating Layer Eltwise11
I0314 22:49:51.830109 25677 net.cpp:406] Eltwise11 <- Convolution24
I0314 22:49:51.830119 25677 net.cpp:406] Eltwise11 <- Convolution25
I0314 22:49:51.830150 25677 net.cpp:380] Eltwise11 -> Eltwise11
I0314 22:49:51.830193 25677 net.cpp:122] Setting up Eltwise11
I0314 22:49:51.830205 25677 net.cpp:129] Top shape: 16 128 28 28 (1605632)
I0314 22:49:51.830214 25677 net.cpp:137] Memory required for data: 2912616640
I0314 22:49:51.830220 25677 layer_factory.hpp:77] Creating layer ReLU23
I0314 22:49:51.830232 25677 net.cpp:84] Creating Layer ReLU23
I0314 22:49:51.830241 25677 net.cpp:406] ReLU23 <- Eltwise11
I0314 22:49:51.830257 25677 net.cpp:367] ReLU23 -> Eltwise11 (in-place)
I0314 22:49:51.830274 25677 net.cpp:122] Setting up ReLU23
I0314 22:49:51.830288 25677 net.cpp:129] Top shape: 16 128 28 28 (1605632)
I0314 22:49:51.830296 25677 net.cpp:137] Memory required for data: 2919039168
I0314 22:49:51.830328 25677 layer_factory.hpp:77] Creating layer Eltwise11_ReLU23_0_split
I0314 22:49:51.830340 25677 net.cpp:84] Creating Layer Eltwise11_ReLU23_0_split
I0314 22:49:51.830350 25677 net.cpp:406] Eltwise11_ReLU23_0_split <- Eltwise11
I0314 22:49:51.830366 25677 net.cpp:380] Eltwise11_ReLU23_0_split -> Eltwise11_ReLU23_0_split_0
I0314 22:49:51.830384 25677 net.cpp:380] Eltwise11_ReLU23_0_split -> Eltwise11_ReLU23_0_split_1
I0314 22:49:51.830447 25677 net.cpp:122] Setting up Eltwise11_ReLU23_0_split
I0314 22:49:51.830466 25677 net.cpp:129] Top shape: 16 128 28 28 (1605632)
I0314 22:49:51.830482 25677 net.cpp:129] Top shape: 16 128 28 28 (1605632)
I0314 22:49:51.830494 25677 net.cpp:137] Memory required for data: 2931884224
I0314 22:49:51.830507 25677 layer_factory.hpp:77] Creating layer Convolution26
I0314 22:49:51.830524 25677 net.cpp:84] Creating Layer Convolution26
I0314 22:49:51.830533 25677 net.cpp:406] Convolution26 <- Eltwise11_ReLU23_0_split_0
I0314 22:49:51.830544 25677 net.cpp:380] Convolution26 -> Convolution26
I0314 22:49:51.832212 25677 net.cpp:122] Setting up Convolution26
I0314 22:49:51.832245 25677 net.cpp:129] Top shape: 16 128 28 28 (1605632)
I0314 22:49:51.832254 25677 net.cpp:137] Memory required for data: 2938306752
I0314 22:49:51.832265 25677 layer_factory.hpp:77] Creating layer BatchNorm26
I0314 22:49:51.832279 25677 net.cpp:84] Creating Layer BatchNorm26
I0314 22:49:51.832309 25677 net.cpp:406] BatchNorm26 <- Convolution26
I0314 22:49:51.832326 25677 net.cpp:367] BatchNorm26 -> Convolution26 (in-place)
I0314 22:49:51.832594 25677 net.cpp:122] Setting up BatchNorm26
I0314 22:49:51.832610 25677 net.cpp:129] Top shape: 16 128 28 28 (1605632)
I0314 22:49:51.832618 25677 net.cpp:137] Memory required for data: 2944729280
I0314 22:49:51.832635 25677 layer_factory.hpp:77] Creating layer Scale26
I0314 22:49:51.832656 25677 net.cpp:84] Creating Layer Scale26
I0314 22:49:51.832670 25677 net.cpp:406] Scale26 <- Convolution26
I0314 22:49:51.832682 25677 net.cpp:367] Scale26 -> Convolution26 (in-place)
I0314 22:49:51.832739 25677 layer_factory.hpp:77] Creating layer Scale26
I0314 22:49:51.832921 25677 net.cpp:122] Setting up Scale26
I0314 22:49:51.832936 25677 net.cpp:129] Top shape: 16 128 28 28 (1605632)
I0314 22:49:51.832944 25677 net.cpp:137] Memory required for data: 2951151808
I0314 22:49:51.832960 25677 layer_factory.hpp:77] Creating layer ReLU24
I0314 22:49:51.832978 25677 net.cpp:84] Creating Layer ReLU24
I0314 22:49:51.832988 25677 net.cpp:406] ReLU24 <- Convolution26
I0314 22:49:51.832998 25677 net.cpp:367] ReLU24 -> Convolution26 (in-place)
I0314 22:49:51.833010 25677 net.cpp:122] Setting up ReLU24
I0314 22:49:51.833019 25677 net.cpp:129] Top shape: 16 128 28 28 (1605632)
I0314 22:49:51.833026 25677 net.cpp:137] Memory required for data: 2957574336
I0314 22:49:51.833034 25677 layer_factory.hpp:77] Creating layer Convolution27
I0314 22:49:51.833051 25677 net.cpp:84] Creating Layer Convolution27
I0314 22:49:51.833065 25677 net.cpp:406] Convolution27 <- Convolution26
I0314 22:49:51.833082 25677 net.cpp:380] Convolution27 -> Convolution27
I0314 22:49:51.834664 25677 net.cpp:122] Setting up Convolution27
I0314 22:49:51.834686 25677 net.cpp:129] Top shape: 16 128 28 28 (1605632)
I0314 22:49:51.834697 25677 net.cpp:137] Memory required for data: 2963996864
I0314 22:49:51.834714 25677 layer_factory.hpp:77] Creating layer BatchNorm27
I0314 22:49:51.834733 25677 net.cpp:84] Creating Layer BatchNorm27
I0314 22:49:51.834746 25677 net.cpp:406] BatchNorm27 <- Convolution27
I0314 22:49:51.834774 25677 net.cpp:367] BatchNorm27 -> Convolution27 (in-place)
I0314 22:49:51.835063 25677 net.cpp:122] Setting up BatchNorm27
I0314 22:49:51.835079 25677 net.cpp:129] Top shape: 16 128 28 28 (1605632)
I0314 22:49:51.835088 25677 net.cpp:137] Memory required for data: 2970419392
I0314 22:49:51.835099 25677 layer_factory.hpp:77] Creating layer Scale27
I0314 22:49:51.835113 25677 net.cpp:84] Creating Layer Scale27
I0314 22:49:51.835121 25677 net.cpp:406] Scale27 <- Convolution27
I0314 22:49:51.835137 25677 net.cpp:367] Scale27 -> Convolution27 (in-place)
I0314 22:49:51.835230 25677 layer_factory.hpp:77] Creating layer Scale27
I0314 22:49:51.835402 25677 net.cpp:122] Setting up Scale27
I0314 22:49:51.835414 25677 net.cpp:129] Top shape: 16 128 28 28 (1605632)
I0314 22:49:51.835422 25677 net.cpp:137] Memory required for data: 2976841920
I0314 22:49:51.835431 25677 layer_factory.hpp:77] Creating layer Eltwise12
I0314 22:49:51.835445 25677 net.cpp:84] Creating Layer Eltwise12
I0314 22:49:51.835458 25677 net.cpp:406] Eltwise12 <- Convolution27
I0314 22:49:51.835474 25677 net.cpp:406] Eltwise12 <- Eltwise11_ReLU23_0_split_1
I0314 22:49:51.835489 25677 net.cpp:380] Eltwise12 -> Eltwise12
I0314 22:49:51.835522 25677 net.cpp:122] Setting up Eltwise12
I0314 22:49:51.835533 25677 net.cpp:129] Top shape: 16 128 28 28 (1605632)
I0314 22:49:51.835541 25677 net.cpp:137] Memory required for data: 2983264448
I0314 22:49:51.835548 25677 layer_factory.hpp:77] Creating layer ReLU25
I0314 22:49:51.835582 25677 net.cpp:84] Creating Layer ReLU25
I0314 22:49:51.835594 25677 net.cpp:406] ReLU25 <- Eltwise12
I0314 22:49:51.835610 25677 net.cpp:367] ReLU25 -> Eltwise12 (in-place)
I0314 22:49:51.835621 25677 net.cpp:122] Setting up ReLU25
I0314 22:49:51.835630 25677 net.cpp:129] Top shape: 16 128 28 28 (1605632)
I0314 22:49:51.835638 25677 net.cpp:137] Memory required for data: 2989686976
I0314 22:49:51.835644 25677 layer_factory.hpp:77] Creating layer Eltwise12_ReLU25_0_split
I0314 22:49:51.835656 25677 net.cpp:84] Creating Layer Eltwise12_ReLU25_0_split
I0314 22:49:51.835664 25677 net.cpp:406] Eltwise12_ReLU25_0_split <- Eltwise12
I0314 22:49:51.835675 25677 net.cpp:380] Eltwise12_ReLU25_0_split -> Eltwise12_ReLU25_0_split_0
I0314 22:49:51.835705 25677 net.cpp:380] Eltwise12_ReLU25_0_split -> Eltwise12_ReLU25_0_split_1
I0314 22:49:51.835754 25677 net.cpp:122] Setting up Eltwise12_ReLU25_0_split
I0314 22:49:51.835773 25677 net.cpp:129] Top shape: 16 128 28 28 (1605632)
I0314 22:49:51.835788 25677 net.cpp:129] Top shape: 16 128 28 28 (1605632)
I0314 22:49:51.835804 25677 net.cpp:137] Memory required for data: 3002532032
I0314 22:49:51.835816 25677 layer_factory.hpp:77] Creating layer Convolution28
I0314 22:49:51.835834 25677 net.cpp:84] Creating Layer Convolution28
I0314 22:49:51.835844 25677 net.cpp:406] Convolution28 <- Eltwise12_ReLU25_0_split_0
I0314 22:49:51.835855 25677 net.cpp:380] Convolution28 -> Convolution28
I0314 22:49:51.841229 25677 net.cpp:122] Setting up Convolution28
I0314 22:49:51.841313 25677 net.cpp:129] Top shape: 16 128 28 28 (1605632)
I0314 22:49:51.841331 25677 net.cpp:137] Memory required for data: 3008954560
I0314 22:49:51.841352 25677 layer_factory.hpp:77] Creating layer BatchNorm28
I0314 22:49:51.841382 25677 net.cpp:84] Creating Layer BatchNorm28
I0314 22:49:51.841399 25677 net.cpp:406] BatchNorm28 <- Convolution28
I0314 22:49:51.841423 25677 net.cpp:367] BatchNorm28 -> Convolution28 (in-place)
I0314 22:49:51.841786 25677 net.cpp:122] Setting up BatchNorm28
I0314 22:49:51.841814 25677 net.cpp:129] Top shape: 16 128 28 28 (1605632)
I0314 22:49:51.841825 25677 net.cpp:137] Memory required for data: 3015377088
I0314 22:49:51.841843 25677 layer_factory.hpp:77] Creating layer Scale28
I0314 22:49:51.841864 25677 net.cpp:84] Creating Layer Scale28
I0314 22:49:51.841877 25677 net.cpp:406] Scale28 <- Convolution28
I0314 22:49:51.841892 25677 net.cpp:367] Scale28 -> Convolution28 (in-place)
I0314 22:49:51.841984 25677 layer_factory.hpp:77] Creating layer Scale28
I0314 22:49:51.842181 25677 net.cpp:122] Setting up Scale28
I0314 22:49:51.842223 25677 net.cpp:129] Top shape: 16 128 28 28 (1605632)
I0314 22:49:51.842236 25677 net.cpp:137] Memory required for data: 3021799616
I0314 22:49:51.842263 25677 layer_factory.hpp:77] Creating layer ReLU26
I0314 22:49:51.842304 25677 net.cpp:84] Creating Layer ReLU26
I0314 22:49:51.842334 25677 net.cpp:406] ReLU26 <- Convolution28
I0314 22:49:51.842348 25677 net.cpp:367] ReLU26 -> Convolution28 (in-place)
I0314 22:49:51.842367 25677 net.cpp:122] Setting up ReLU26
I0314 22:49:51.842382 25677 net.cpp:129] Top shape: 16 128 28 28 (1605632)
I0314 22:49:51.842435 25677 net.cpp:137] Memory required for data: 3028222144
I0314 22:49:51.842447 25677 layer_factory.hpp:77] Creating layer Convolution29
I0314 22:49:51.842471 25677 net.cpp:84] Creating Layer Convolution29
I0314 22:49:51.842483 25677 net.cpp:406] Convolution29 <- Convolution28
I0314 22:49:51.842499 25677 net.cpp:380] Convolution29 -> Convolution29
I0314 22:49:51.844069 25677 net.cpp:122] Setting up Convolution29
I0314 22:49:51.844084 25677 net.cpp:129] Top shape: 16 128 28 28 (1605632)
I0314 22:49:51.844089 25677 net.cpp:137] Memory required for data: 3034644672
I0314 22:49:51.844097 25677 layer_factory.hpp:77] Creating layer BatchNorm29
I0314 22:49:51.844108 25677 net.cpp:84] Creating Layer BatchNorm29
I0314 22:49:51.844115 25677 net.cpp:406] BatchNorm29 <- Convolution29
I0314 22:49:51.844122 25677 net.cpp:367] BatchNorm29 -> Convolution29 (in-place)
I0314 22:49:51.844358 25677 net.cpp:122] Setting up BatchNorm29
I0314 22:49:51.844367 25677 net.cpp:129] Top shape: 16 128 28 28 (1605632)
I0314 22:49:51.844372 25677 net.cpp:137] Memory required for data: 3041067200
I0314 22:49:51.844380 25677 layer_factory.hpp:77] Creating layer Scale29
I0314 22:49:51.844393 25677 net.cpp:84] Creating Layer Scale29
I0314 22:49:51.844398 25677 net.cpp:406] Scale29 <- Convolution29
I0314 22:49:51.844404 25677 net.cpp:367] Scale29 -> Convolution29 (in-place)
I0314 22:49:51.844494 25677 layer_factory.hpp:77] Creating layer Scale29
I0314 22:49:51.844651 25677 net.cpp:122] Setting up Scale29
I0314 22:49:51.844661 25677 net.cpp:129] Top shape: 16 128 28 28 (1605632)
I0314 22:49:51.844666 25677 net.cpp:137] Memory required for data: 3047489728
I0314 22:49:51.844676 25677 layer_factory.hpp:77] Creating layer Eltwise13
I0314 22:49:51.844686 25677 net.cpp:84] Creating Layer Eltwise13
I0314 22:49:51.844691 25677 net.cpp:406] Eltwise13 <- Convolution29
I0314 22:49:51.844700 25677 net.cpp:406] Eltwise13 <- Eltwise12_ReLU25_0_split_1
I0314 22:49:51.844707 25677 net.cpp:380] Eltwise13 -> Eltwise13
I0314 22:49:51.844738 25677 net.cpp:122] Setting up Eltwise13
I0314 22:49:51.844744 25677 net.cpp:129] Top shape: 16 128 28 28 (1605632)
I0314 22:49:51.844748 25677 net.cpp:137] Memory required for data: 3053912256
I0314 22:49:51.844753 25677 layer_factory.hpp:77] Creating layer ReLU27
I0314 22:49:51.844761 25677 net.cpp:84] Creating Layer ReLU27
I0314 22:49:51.844766 25677 net.cpp:406] ReLU27 <- Eltwise13
I0314 22:49:51.844772 25677 net.cpp:367] ReLU27 -> Eltwise13 (in-place)
I0314 22:49:51.844779 25677 net.cpp:122] Setting up ReLU27
I0314 22:49:51.844785 25677 net.cpp:129] Top shape: 16 128 28 28 (1605632)
I0314 22:49:51.844789 25677 net.cpp:137] Memory required for data: 3060334784
I0314 22:49:51.844794 25677 layer_factory.hpp:77] Creating layer Eltwise13_ReLU27_0_split
I0314 22:49:51.844804 25677 net.cpp:84] Creating Layer Eltwise13_ReLU27_0_split
I0314 22:49:51.844810 25677 net.cpp:406] Eltwise13_ReLU27_0_split <- Eltwise13
I0314 22:49:51.844820 25677 net.cpp:380] Eltwise13_ReLU27_0_split -> Eltwise13_ReLU27_0_split_0
I0314 22:49:51.844832 25677 net.cpp:380] Eltwise13_ReLU27_0_split -> Eltwise13_ReLU27_0_split_1
I0314 22:49:51.844892 25677 net.cpp:122] Setting up Eltwise13_ReLU27_0_split
I0314 22:49:51.844902 25677 net.cpp:129] Top shape: 16 128 28 28 (1605632)
I0314 22:49:51.844913 25677 net.cpp:129] Top shape: 16 128 28 28 (1605632)
I0314 22:49:51.844918 25677 net.cpp:137] Memory required for data: 3073179840
I0314 22:49:51.844926 25677 layer_factory.hpp:77] Creating layer Convolution30
I0314 22:49:51.844944 25677 net.cpp:84] Creating Layer Convolution30
I0314 22:49:51.844952 25677 net.cpp:406] Convolution30 <- Eltwise13_ReLU27_0_split_0
I0314 22:49:51.844965 25677 net.cpp:380] Convolution30 -> Convolution30
I0314 22:49:51.846247 25677 net.cpp:122] Setting up Convolution30
I0314 22:49:51.846259 25677 net.cpp:129] Top shape: 16 128 28 28 (1605632)
I0314 22:49:51.846264 25677 net.cpp:137] Memory required for data: 3079602368
I0314 22:49:51.846272 25677 layer_factory.hpp:77] Creating layer BatchNorm30
I0314 22:49:51.846307 25677 net.cpp:84] Creating Layer BatchNorm30
I0314 22:49:51.846314 25677 net.cpp:406] BatchNorm30 <- Convolution30
I0314 22:49:51.846323 25677 net.cpp:367] BatchNorm30 -> Convolution30 (in-place)
I0314 22:49:51.846586 25677 net.cpp:122] Setting up BatchNorm30
I0314 22:49:51.846601 25677 net.cpp:129] Top shape: 16 128 28 28 (1605632)
I0314 22:49:51.846607 25677 net.cpp:137] Memory required for data: 3086024896
I0314 22:49:51.846623 25677 layer_factory.hpp:77] Creating layer Scale30
I0314 22:49:51.846637 25677 net.cpp:84] Creating Layer Scale30
I0314 22:49:51.846644 25677 net.cpp:406] Scale30 <- Convolution30
I0314 22:49:51.846653 25677 net.cpp:367] Scale30 -> Convolution30 (in-place)
I0314 22:49:51.846699 25677 layer_factory.hpp:77] Creating layer Scale30
I0314 22:49:51.846819 25677 net.cpp:122] Setting up Scale30
I0314 22:49:51.846827 25677 net.cpp:129] Top shape: 16 128 28 28 (1605632)
I0314 22:49:51.846830 25677 net.cpp:137] Memory required for data: 3092447424
I0314 22:49:51.846837 25677 layer_factory.hpp:77] Creating layer ReLU28
I0314 22:49:51.846845 25677 net.cpp:84] Creating Layer ReLU28
I0314 22:49:51.846850 25677 net.cpp:406] ReLU28 <- Convolution30
I0314 22:49:51.846858 25677 net.cpp:367] ReLU28 -> Convolution30 (in-place)
I0314 22:49:51.846863 25677 net.cpp:122] Setting up ReLU28
I0314 22:49:51.846890 25677 net.cpp:129] Top shape: 16 128 28 28 (1605632)
I0314 22:49:51.846894 25677 net.cpp:137] Memory required for data: 3098869952
I0314 22:49:51.846899 25677 layer_factory.hpp:77] Creating layer Convolution31
I0314 22:49:51.846910 25677 net.cpp:84] Creating Layer Convolution31
I0314 22:49:51.846915 25677 net.cpp:406] Convolution31 <- Convolution30
I0314 22:49:51.846923 25677 net.cpp:380] Convolution31 -> Convolution31
I0314 22:49:51.852689 25677 net.cpp:122] Setting up Convolution31
I0314 22:49:51.852753 25677 net.cpp:129] Top shape: 16 128 28 28 (1605632)
I0314 22:49:51.852769 25677 net.cpp:137] Memory required for data: 3105292480
I0314 22:49:51.852792 25677 layer_factory.hpp:77] Creating layer BatchNorm31
I0314 22:49:51.852828 25677 net.cpp:84] Creating Layer BatchNorm31
I0314 22:49:51.852846 25677 net.cpp:406] BatchNorm31 <- Convolution31
I0314 22:49:51.852866 25677 net.cpp:367] BatchNorm31 -> Convolution31 (in-place)
I0314 22:49:51.853212 25677 net.cpp:122] Setting up BatchNorm31
I0314 22:49:51.853240 25677 net.cpp:129] Top shape: 16 128 28 28 (1605632)
I0314 22:49:51.853253 25677 net.cpp:137] Memory required for data: 3111715008
I0314 22:49:51.853273 25677 layer_factory.hpp:77] Creating layer Scale31
I0314 22:49:51.853296 25677 net.cpp:84] Creating Layer Scale31
I0314 22:49:51.853309 25677 net.cpp:406] Scale31 <- Convolution31
I0314 22:49:51.853327 25677 net.cpp:367] Scale31 -> Convolution31 (in-place)
I0314 22:49:51.853418 25677 layer_factory.hpp:77] Creating layer Scale31
I0314 22:49:51.853615 25677 net.cpp:122] Setting up Scale31
I0314 22:49:51.853639 25677 net.cpp:129] Top shape: 16 128 28 28 (1605632)
I0314 22:49:51.853652 25677 net.cpp:137] Memory required for data: 3118137536
I0314 22:49:51.853669 25677 layer_factory.hpp:77] Creating layer Eltwise14
I0314 22:49:51.853691 25677 net.cpp:84] Creating Layer Eltwise14
I0314 22:49:51.853704 25677 net.cpp:406] Eltwise14 <- Convolution31
I0314 22:49:51.853720 25677 net.cpp:406] Eltwise14 <- Eltwise13_ReLU27_0_split_1
I0314 22:49:51.853736 25677 net.cpp:380] Eltwise14 -> Eltwise14
I0314 22:49:51.853785 25677 net.cpp:122] Setting up Eltwise14
I0314 22:49:51.853802 25677 net.cpp:129] Top shape: 16 128 28 28 (1605632)
I0314 22:49:51.853814 25677 net.cpp:137] Memory required for data: 3124560064
I0314 22:49:51.853826 25677 layer_factory.hpp:77] Creating layer ReLU29
I0314 22:49:51.853850 25677 net.cpp:84] Creating Layer ReLU29
I0314 22:49:51.853863 25677 net.cpp:406] ReLU29 <- Eltwise14
I0314 22:49:51.853878 25677 net.cpp:367] ReLU29 -> Eltwise14 (in-place)
I0314 22:49:51.853896 25677 net.cpp:122] Setting up ReLU29
I0314 22:49:51.853911 25677 net.cpp:129] Top shape: 16 128 28 28 (1605632)
I0314 22:49:51.853924 25677 net.cpp:137] Memory required for data: 3130982592
I0314 22:49:51.853974 25677 layer_factory.hpp:77] Creating layer Eltwise14_ReLU29_0_split
I0314 22:49:51.853993 25677 net.cpp:84] Creating Layer Eltwise14_ReLU29_0_split
I0314 22:49:51.854007 25677 net.cpp:406] Eltwise14_ReLU29_0_split <- Eltwise14
I0314 22:49:51.854022 25677 net.cpp:380] Eltwise14_ReLU29_0_split -> Eltwise14_ReLU29_0_split_0
I0314 22:49:51.854041 25677 net.cpp:380] Eltwise14_ReLU29_0_split -> Eltwise14_ReLU29_0_split_1
I0314 22:49:51.854110 25677 net.cpp:122] Setting up Eltwise14_ReLU29_0_split
I0314 22:49:51.854127 25677 net.cpp:129] Top shape: 16 128 28 28 (1605632)
I0314 22:49:51.854142 25677 net.cpp:129] Top shape: 16 128 28 28 (1605632)
I0314 22:49:51.854154 25677 net.cpp:137] Memory required for data: 3143827648
I0314 22:49:51.854172 25677 layer_factory.hpp:77] Creating layer Convolution32
I0314 22:49:51.854195 25677 net.cpp:84] Creating Layer Convolution32
I0314 22:49:51.854210 25677 net.cpp:406] Convolution32 <- Eltwise14_ReLU29_0_split_0
I0314 22:49:51.854228 25677 net.cpp:380] Convolution32 -> Convolution32
I0314 22:49:51.856559 25677 net.cpp:122] Setting up Convolution32
I0314 22:49:51.856626 25677 net.cpp:129] Top shape: 16 128 28 28 (1605632)
I0314 22:49:51.856642 25677 net.cpp:137] Memory required for data: 3150250176
I0314 22:49:51.856663 25677 layer_factory.hpp:77] Creating layer BatchNorm32
I0314 22:49:51.856686 25677 net.cpp:84] Creating Layer BatchNorm32
I0314 22:49:51.856703 25677 net.cpp:406] BatchNorm32 <- Convolution32
I0314 22:49:51.856721 25677 net.cpp:367] BatchNorm32 -> Convolution32 (in-place)
I0314 22:49:51.857040 25677 net.cpp:122] Setting up BatchNorm32
I0314 22:49:51.857064 25677 net.cpp:129] Top shape: 16 128 28 28 (1605632)
I0314 22:49:51.857079 25677 net.cpp:137] Memory required for data: 3156672704
I0314 22:49:51.857098 25677 layer_factory.hpp:77] Creating layer Scale32
I0314 22:49:51.857120 25677 net.cpp:84] Creating Layer Scale32
I0314 22:49:51.857134 25677 net.cpp:406] Scale32 <- Convolution32
I0314 22:49:51.857151 25677 net.cpp:367] Scale32 -> Convolution32 (in-place)
I0314 22:49:51.857236 25677 layer_factory.hpp:77] Creating layer Scale32
I0314 22:49:51.857439 25677 net.cpp:122] Setting up Scale32
I0314 22:49:51.857463 25677 net.cpp:129] Top shape: 16 128 28 28 (1605632)
I0314 22:49:51.857476 25677 net.cpp:137] Memory required for data: 3163095232
I0314 22:49:51.857493 25677 layer_factory.hpp:77] Creating layer ReLU30
I0314 22:49:51.857511 25677 net.cpp:84] Creating Layer ReLU30
I0314 22:49:51.857523 25677 net.cpp:406] ReLU30 <- Convolution32
I0314 22:49:51.857538 25677 net.cpp:367] ReLU30 -> Convolution32 (in-place)
I0314 22:49:51.857554 25677 net.cpp:122] Setting up ReLU30
I0314 22:49:51.857568 25677 net.cpp:129] Top shape: 16 128 28 28 (1605632)
I0314 22:49:51.857580 25677 net.cpp:137] Memory required for data: 3169517760
I0314 22:49:51.857591 25677 layer_factory.hpp:77] Creating layer Convolution33
I0314 22:49:51.857614 25677 net.cpp:84] Creating Layer Convolution33
I0314 22:49:51.857627 25677 net.cpp:406] Convolution33 <- Convolution32
I0314 22:49:51.857645 25677 net.cpp:380] Convolution33 -> Convolution33
I0314 22:49:51.865160 25677 net.cpp:122] Setting up Convolution33
I0314 22:49:51.865236 25677 net.cpp:129] Top shape: 16 128 28 28 (1605632)
I0314 22:49:51.865254 25677 net.cpp:137] Memory required for data: 3175940288
I0314 22:49:51.865283 25677 layer_factory.hpp:77] Creating layer BatchNorm33
I0314 22:49:51.865309 25677 net.cpp:84] Creating Layer BatchNorm33
I0314 22:49:51.865329 25677 net.cpp:406] BatchNorm33 <- Convolution33
I0314 22:49:51.865348 25677 net.cpp:367] BatchNorm33 -> Convolution33 (in-place)
I0314 22:49:51.865700 25677 net.cpp:122] Setting up BatchNorm33
I0314 22:49:51.865725 25677 net.cpp:129] Top shape: 16 128 28 28 (1605632)
I0314 22:49:51.865737 25677 net.cpp:137] Memory required for data: 3182362816
I0314 22:49:51.865758 25677 layer_factory.hpp:77] Creating layer Scale33
I0314 22:49:51.865780 25677 net.cpp:84] Creating Layer Scale33
I0314 22:49:51.865793 25677 net.cpp:406] Scale33 <- Convolution33
I0314 22:49:51.865845 25677 net.cpp:367] Scale33 -> Convolution33 (in-place)
I0314 22:49:51.865944 25677 layer_factory.hpp:77] Creating layer Scale33
I0314 22:49:51.866149 25677 net.cpp:122] Setting up Scale33
I0314 22:49:51.866173 25677 net.cpp:129] Top shape: 16 128 28 28 (1605632)
I0314 22:49:51.866184 25677 net.cpp:137] Memory required for data: 3188785344
I0314 22:49:51.866201 25677 layer_factory.hpp:77] Creating layer Eltwise15
I0314 22:49:51.866222 25677 net.cpp:84] Creating Layer Eltwise15
I0314 22:49:51.866235 25677 net.cpp:406] Eltwise15 <- Convolution33
I0314 22:49:51.866251 25677 net.cpp:406] Eltwise15 <- Eltwise14_ReLU29_0_split_1
I0314 22:49:51.866267 25677 net.cpp:380] Eltwise15 -> Eltwise15
I0314 22:49:51.866315 25677 net.cpp:122] Setting up Eltwise15
I0314 22:49:51.866333 25677 net.cpp:129] Top shape: 16 128 28 28 (1605632)
I0314 22:49:51.866344 25677 net.cpp:137] Memory required for data: 3195207872
I0314 22:49:51.866358 25677 layer_factory.hpp:77] Creating layer ReLU31
I0314 22:49:51.866381 25677 net.cpp:84] Creating Layer ReLU31
I0314 22:49:51.866394 25677 net.cpp:406] ReLU31 <- Eltwise15
I0314 22:49:51.866408 25677 net.cpp:367] ReLU31 -> Eltwise15 (in-place)
I0314 22:49:51.866425 25677 net.cpp:122] Setting up ReLU31
I0314 22:49:51.866439 25677 net.cpp:129] Top shape: 16 128 28 28 (1605632)
I0314 22:49:51.866451 25677 net.cpp:137] Memory required for data: 3201630400
I0314 22:49:51.866463 25677 layer_factory.hpp:77] Creating layer Deconvolution1
I0314 22:49:51.866483 25677 net.cpp:84] Creating Layer Deconvolution1
I0314 22:49:51.866497 25677 net.cpp:406] Deconvolution1 <- Eltwise15
I0314 22:49:51.866513 25677 net.cpp:380] Deconvolution1 -> Deconvolution1
I0314 22:49:51.867746 25677 net.cpp:122] Setting up Deconvolution1
I0314 22:49:51.867785 25677 net.cpp:129] Top shape: 16 128 56 56 (6422528)
I0314 22:49:51.867812 25677 net.cpp:137] Memory required for data: 3227320512
I0314 22:49:51.867830 25677 layer_factory.hpp:77] Creating layer BatchNorm34
I0314 22:49:51.867849 25677 net.cpp:84] Creating Layer BatchNorm34
I0314 22:49:51.867863 25677 net.cpp:406] BatchNorm34 <- Deconvolution1
I0314 22:49:51.867880 25677 net.cpp:367] BatchNorm34 -> Deconvolution1 (in-place)
I0314 22:49:51.868213 25677 net.cpp:122] Setting up BatchNorm34
I0314 22:49:51.868238 25677 net.cpp:129] Top shape: 16 128 56 56 (6422528)
I0314 22:49:51.868252 25677 net.cpp:137] Memory required for data: 3253010624
I0314 22:49:51.868271 25677 layer_factory.hpp:77] Creating layer Scale34
I0314 22:49:51.868293 25677 net.cpp:84] Creating Layer Scale34
I0314 22:49:51.868305 25677 net.cpp:406] Scale34 <- Deconvolution1
I0314 22:49:51.868320 25677 net.cpp:367] Scale34 -> Deconvolution1 (in-place)
I0314 22:49:51.868392 25677 layer_factory.hpp:77] Creating layer Scale34
I0314 22:49:51.868619 25677 net.cpp:122] Setting up Scale34
I0314 22:49:51.868645 25677 net.cpp:129] Top shape: 16 128 56 56 (6422528)
I0314 22:49:51.868666 25677 net.cpp:137] Memory required for data: 3278700736
I0314 22:49:51.868683 25677 layer_factory.hpp:77] Creating layer Eltwise16
I0314 22:49:51.868701 25677 net.cpp:84] Creating Layer Eltwise16
I0314 22:49:51.868716 25677 net.cpp:406] Eltwise16 <- Deconvolution1
I0314 22:49:51.868731 25677 net.cpp:406] Eltwise16 <- StageLink1
I0314 22:49:51.868747 25677 net.cpp:380] Eltwise16 -> Eltwise16
I0314 22:49:51.868793 25677 net.cpp:122] Setting up Eltwise16
I0314 22:49:51.868809 25677 net.cpp:129] Top shape: 16 128 56 56 (6422528)
I0314 22:49:51.868820 25677 net.cpp:137] Memory required for data: 3304390848
I0314 22:49:51.868834 25677 layer_factory.hpp:77] Creating layer ReLU32
I0314 22:49:51.868851 25677 net.cpp:84] Creating Layer ReLU32
I0314 22:49:51.868865 25677 net.cpp:406] ReLU32 <- Eltwise16
I0314 22:49:51.868878 25677 net.cpp:367] ReLU32 -> Eltwise16 (in-place)
I0314 22:49:51.868896 25677 net.cpp:122] Setting up ReLU32
I0314 22:49:51.868911 25677 net.cpp:129] Top shape: 16 128 56 56 (6422528)
I0314 22:49:51.868922 25677 net.cpp:137] Memory required for data: 3330080960
I0314 22:49:51.868934 25677 layer_factory.hpp:77] Creating layer Deconvolution2
I0314 22:49:51.868979 25677 net.cpp:84] Creating Layer Deconvolution2
I0314 22:49:51.868993 25677 net.cpp:406] Deconvolution2 <- Eltwise16
I0314 22:49:51.869010 25677 net.cpp:380] Deconvolution2 -> Deconvolution2
I0314 22:49:51.869859 25677 net.cpp:122] Setting up Deconvolution2
I0314 22:49:51.869889 25677 net.cpp:129] Top shape: 16 64 112 112 (12845056)
I0314 22:49:51.869902 25677 net.cpp:137] Memory required for data: 3381461184
I0314 22:49:51.869920 25677 layer_factory.hpp:77] Creating layer BatchNorm35
I0314 22:49:51.869943 25677 net.cpp:84] Creating Layer BatchNorm35
I0314 22:49:51.869957 25677 net.cpp:406] BatchNorm35 <- Deconvolution2
I0314 22:49:51.869974 25677 net.cpp:367] BatchNorm35 -> Deconvolution2 (in-place)
I0314 22:49:51.870340 25677 net.cpp:122] Setting up BatchNorm35
I0314 22:49:51.870368 25677 net.cpp:129] Top shape: 16 64 112 112 (12845056)
I0314 22:49:51.870381 25677 net.cpp:137] Memory required for data: 3432841408
I0314 22:49:51.870462 25677 layer_factory.hpp:77] Creating layer Scale35
I0314 22:49:51.870486 25677 net.cpp:84] Creating Layer Scale35
I0314 22:49:51.870501 25677 net.cpp:406] Scale35 <- Deconvolution2
I0314 22:49:51.870517 25677 net.cpp:367] Scale35 -> Deconvolution2 (in-place)
I0314 22:49:51.870597 25677 layer_factory.hpp:77] Creating layer Scale35
I0314 22:49:51.870816 25677 net.cpp:122] Setting up Scale35
I0314 22:49:51.870853 25677 net.cpp:129] Top shape: 16 64 112 112 (12845056)
I0314 22:49:51.870877 25677 net.cpp:137] Memory required for data: 3484221632
I0314 22:49:51.870898 25677 layer_factory.hpp:77] Creating layer Eltwise17
I0314 22:49:51.870924 25677 net.cpp:84] Creating Layer Eltwise17
I0314 22:49:51.870936 25677 net.cpp:406] Eltwise17 <- Deconvolution2
I0314 22:49:51.870951 25677 net.cpp:406] Eltwise17 <- StageLink0
I0314 22:49:51.870968 25677 net.cpp:380] Eltwise17 -> Eltwise17
I0314 22:49:51.871013 25677 net.cpp:122] Setting up Eltwise17
I0314 22:49:51.871031 25677 net.cpp:129] Top shape: 16 64 112 112 (12845056)
I0314 22:49:51.871042 25677 net.cpp:137] Memory required for data: 3535601856
I0314 22:49:51.871053 25677 layer_factory.hpp:77] Creating layer ReLU33
I0314 22:49:51.871070 25677 net.cpp:84] Creating Layer ReLU33
I0314 22:49:51.871083 25677 net.cpp:406] ReLU33 <- Eltwise17
I0314 22:49:51.871098 25677 net.cpp:367] ReLU33 -> Eltwise17 (in-place)
I0314 22:49:51.871112 25677 net.cpp:122] Setting up ReLU33
I0314 22:49:51.871126 25677 net.cpp:129] Top shape: 16 64 112 112 (12845056)
I0314 22:49:51.871139 25677 net.cpp:137] Memory required for data: 3586982080
I0314 22:49:51.871150 25677 layer_factory.hpp:77] Creating layer Deconvolution3
I0314 22:49:51.871168 25677 net.cpp:84] Creating Layer Deconvolution3
I0314 22:49:51.871181 25677 net.cpp:406] Deconvolution3 <- Eltwise17
I0314 22:49:51.871197 25677 net.cpp:380] Deconvolution3 -> Deconvolution3
I0314 22:49:51.875411 25677 net.cpp:122] Setting up Deconvolution3
I0314 22:49:51.875447 25677 net.cpp:129] Top shape: 16 32 224 224 (25690112)
I0314 22:49:51.875453 25677 net.cpp:137] Memory required for data: 3689742528
I0314 22:49:51.875466 25677 layer_factory.hpp:77] Creating layer BatchNorm36
I0314 22:49:51.875479 25677 net.cpp:84] Creating Layer BatchNorm36
I0314 22:49:51.875488 25677 net.cpp:406] BatchNorm36 <- Deconvolution3
I0314 22:49:51.875496 25677 net.cpp:367] BatchNorm36 -> Deconvolution3 (in-place)
I0314 22:49:51.875829 25677 net.cpp:122] Setting up BatchNorm36
I0314 22:49:51.875838 25677 net.cpp:129] Top shape: 16 32 224 224 (25690112)
I0314 22:49:51.875844 25677 net.cpp:137] Memory required for data: 3792502976
I0314 22:49:51.875852 25677 layer_factory.hpp:77] Creating layer Scale36
I0314 22:49:51.875862 25677 net.cpp:84] Creating Layer Scale36
I0314 22:49:51.875867 25677 net.cpp:406] Scale36 <- Deconvolution3
I0314 22:49:51.875874 25677 net.cpp:367] Scale36 -> Deconvolution3 (in-place)
I0314 22:49:51.875926 25677 layer_factory.hpp:77] Creating layer Scale36
I0314 22:49:51.876166 25677 net.cpp:122] Setting up Scale36
I0314 22:49:51.876174 25677 net.cpp:129] Top shape: 16 32 224 224 (25690112)
I0314 22:49:51.876205 25677 net.cpp:137] Memory required for data: 3895263424
I0314 22:49:51.876214 25677 layer_factory.hpp:77] Creating layer ReLU34
I0314 22:49:51.876221 25677 net.cpp:84] Creating Layer ReLU34
I0314 22:49:51.876226 25677 net.cpp:406] ReLU34 <- Deconvolution3
I0314 22:49:51.876232 25677 net.cpp:367] ReLU34 -> Deconvolution3 (in-place)
I0314 22:49:51.876240 25677 net.cpp:122] Setting up ReLU34
I0314 22:49:51.876245 25677 net.cpp:129] Top shape: 16 32 224 224 (25690112)
I0314 22:49:51.876250 25677 net.cpp:137] Memory required for data: 3998023872
I0314 22:49:51.876253 25677 layer_factory.hpp:77] Creating layer Convolution34
I0314 22:49:51.876266 25677 net.cpp:84] Creating Layer Convolution34
I0314 22:49:51.876271 25677 net.cpp:406] Convolution34 <- Deconvolution3
I0314 22:49:51.876281 25677 net.cpp:380] Convolution34 -> Convolution34
I0314 22:49:51.876605 25677 net.cpp:122] Setting up Convolution34
I0314 22:49:51.876613 25677 net.cpp:129] Top shape: 16 1 224 224 (802816)
I0314 22:49:51.876617 25677 net.cpp:137] Memory required for data: 4001235136
I0314 22:49:51.876624 25677 layer_factory.hpp:77] Creating layer ReLU35
I0314 22:49:51.876631 25677 net.cpp:84] Creating Layer ReLU35
I0314 22:49:51.876636 25677 net.cpp:406] ReLU35 <- Convolution34
I0314 22:49:51.876643 25677 net.cpp:367] ReLU35 -> Convolution34 (in-place)
I0314 22:49:51.876649 25677 net.cpp:122] Setting up ReLU35
I0314 22:49:51.876655 25677 net.cpp:129] Top shape: 16 1 224 224 (802816)
I0314 22:49:51.876659 25677 net.cpp:137] Memory required for data: 4004446400
I0314 22:49:51.876663 25677 layer_factory.hpp:77] Creating layer Loss
I0314 22:49:51.876670 25677 net.cpp:84] Creating Layer Loss
I0314 22:49:51.876675 25677 net.cpp:406] Loss <- Convolution34
I0314 22:49:51.876680 25677 net.cpp:406] Loss <- Data5
I0314 22:49:51.876688 25677 net.cpp:380] Loss -> Loss
…
